conv_autoencoder-4.pth (torch_old, 26174 bytes, 10 tensors)

encoder.0.weight f4 [16, 3, 3, 3]
0.048619248 0.054103617 -0.29762766 -0.30322352 -0.3075217 -0.12526649 -0.25709274 -0.27760813
-0.2834345 -0.13202819 0.06184674 -0.14195451 0.01632584 -0.09406215 -0.14747372 -0.009104042
0.048276905 0.04194164 -0.24069826 -0.070329644 -0.26623827 -0.2024173 -0.13373953 -0.08148511
-0.22081032 -0.16945294 -0.25062126 0.15846887 -0.014499774 -0.14306189 0.0015106712 -0.118398584
0.03672534 -0.012406973 0.09928182 -0.010816326 0.18347535 0.09951001 -0.12622738 0.21154983
0.076096065 0.14994235 -0.13542587 0.11207228 0.07513453 0.16681263 0.26449493 0.06821184
0.20152834 -0.10525649 0.015806524 0.24371544 0.07196805 0.2190693 -0.14265531 -0.094210446
0.04273486 -0.19633628 -0.24851622 -0.202396 -0.29053771 -0.10311181 -0.26539284 0.0133716725
-0.17566024 -0.03435556 -0.15071207 0.024494924 0.035655662 -0.03589459 -0.12292083 -0.26828766
-0.2546387 -0.22684018 -0.11230487 0.008405211 0.026905218 -0.2111753 -0.14969176 -0.13410766
-0.24948591 -0.030042399 0.081292495 -0.09902569 -0.09070921 -0.12883602 0.120549254 0.1880342
0.23410241 -0.060036324 0.14808322 0.1394695 0.10309715 0.05167487 -0.0057284986 0.11744492
-0.10274017 0.13038139 0.18488091 0.24252364 -0.064257786 0.03195363 0.10452051 0.026245167
0.24311815 0.18814847 0.1614722 0.016545841 -0.10185491 0.06671427 -0.13094439 -0.11436201
-0.0051218006 -0.12144082 0.16359308 -0.12288796 -0.02638354 0.005785944 0.20457713 -0.0053708414
0.15860245 0.19484752 0.045305412 -0.01649265 0.17585452 0.00390984 0.22352141 -0.022566682
-0.07038577 0.12017707 0.084049635 0.13662538 0.25151676 0.017519394 0.2505098 0.14044699
0.22154105 0.04742409 0.05897256 0.058872174 0.042884924 -0.07753604 0.024543818 0.087754995
0.15455614 -0.06864616 0.18575011 0.07977773 0.15757608 0.09479746 0.14407407 0.1876445
0.1739928 0.026946759 0.059124805 0.08550914 0.22154605 0.14698595 0.120443046 -0.0062388657
0.041556578 -0.01471077 -0.038532883 -0.21788631 -0.13035938 -0.2830252 -0.046232577 -0.21952261
-0.24609472 -0.21262267 0.040073436 -0.22284473 -0.0486666 -0.17193536 -0.18107978 -0.10628162
0.05938259 -0.1391987 0.017507503 -0.19779925 -0.054464664 -0.2762276 -0.19713736 -0.19897334
-0.21616776 -0.10930702 -0.06232624 -0.13661133 -0.21293499 -0.05740443 0.100792445 0.04428288
0.06828639 -0.12184412 -0.0401733 -0.023429852 -0.14674138 0.13663751 0.029747643 -0.14712231
-0.018416233 0.07600496 0.16974048 0.09880601 0.061193187 0.12188179 -0.08927847 0.16419283
0.07063197 0.1430069 0.075632274 -0.060427688 -0.107023515 0.2337486 -0.050163288 0.26007882
0.103731 0.24076404 0.16690873 0.1920912 0.031376727 0.17746544 0.23016833 0.03639362
0.24453184 -0.106090054 0.19275777 -0.08668876 0.07797392 0.0931642 0.1679825 -0.045152303
0.14281294 0.17079043 -0.049624387 -0.06954489 0.11650898 0.20614614 -0.037810598 -0.06181996
0.02569983 0.17204547 0.017198 -0.26247498 -0.19839157 -0.17926122 -0.20357934 -0.26938957
-0.20326805 -0.09325659 0.052645642 -0.20887318 -0.24104512 -0.08958633 -0.0073033227 -0.20788051
00000000: fa24 473d c19b 5d3d a762 98be 1d40 9bbe
00000010: 7c73 9dbe dc45 00be a9a1 83be a722 8ebe
00000020: 541e 91be 6632 07be 0253 7d3d 865c 11be
00000030: c5bd 853c a8a3 c0bd 5a03 17be 1f29 15bc
00000040: 01be 453d ffca 2b3d 9b79 76be fd08 90bd
00000050: 6250 88be 7b46 4fbe 04f3 08be aae1 a6bd
00000060: 1a1c 62be 1285 2dbe 6e51 80be aa45 223e
00000070: 7690 6dbc d17e 12be b701 c63a f57a f2bd
00000080: 4f6d 163d 9e46 4bbc 4454 cb3d f636 31bc
00000090: f6e0 3b3e e7cb cb3d c041 01be 85a0 583e
000000a0: 41d8 9b3d 7d8a 193e 14ad 0abe 2786 e53d
000000b0: 22e0 993d eed0 2a3e e16b 873e a6b2 8b3d
000000c0: 725d 4e3e b790 d7bd af7c 813c 8a90 793e
000000d0: fc63 933d b453 603e 3c14 12be 68f1 c0bd
000000e0: c00a 2f3d 610c 49be 097b 7ebe e640 4fbe
000000f0: 5cc1 94be 492c d3bd 92e1 87be dc14 5b3c
00000100: 47e0 33be 6ab8 0cbd 4454 1abe 94a9 c83c
00000110: ac0b 123d 3506 13bd ebbd fbbd 005d 89be
00000120: 0160 82be cb48 68be 1800 e6bd 03b6 093c
00000130: 5568 dc3c 563e 58be cc48 19be 8553 09be
00000140: 3c79 7fbe 7a1b f6bc ae7c a63d fbcd cabd
00000150: c0c5 b9bd 97ed 03be 87e2 f63d 0a8c 403e
00000160: 8bb8 6f3e a6e8 75bd 21a3 173e 18d1 0e3e
00000170: 9924 d33d 07a9 533d 21b6 bbbb f686 f03d
00000180: 7069 d2bd b382 053e 6c51 3d3e 1e58 783e
00000190: 9699 83bd cfe1 023d d90e d63d 1b00 d73c
000001a0: f7f3 783e fea9 403e f858 253e 258b 873c
000001b0: 4f99 d0bd 7ea1 883d 4916 06be a136 eabd
000001c0: c7d4 a7bb f7b5 f8bd f284 273e afac fbbd
000001d0: 4b22 d8bc 0498 bd3b ab7c 513e e2fd afbb
000001e0: ae68 223e 1c86 473e 2b92 393d 981b 87bc
000001f0: 3513 343e 1d1e 803b cce2 643e c3dd b8bc
00000200: 6a26 90bd 651f f63d 3722 ac3d 86e7 0b3e
00000210: cec6 803e d584 8f3c d242 803e 56d1 0f3e
00000220: a8db 623e c33f 423d 368d 713d f323 713d
00000230: 1aa8 2f3d 37cb 9ebd 1e10 c93c e4b8 b33d
00000240: f743 1e3e 5c96 8cbd 4735 3e3e 8262 a33d
00000250: a05b 213e 2c25 c23d 2788 133e e125 403e
00000260: 2b2b 323e 73bf dc3c da2c 723d 6a1f af3d
00000270: f8dc 623e 7c83 163e d8aa f63d 666f ccbb
00000280: 3b37 2a3d 7105 71bc a8d4 1dbd 971d 5fbe
00000290: ee7c 05be aee8 90be 5f5e 3dbd 89ca 60be
000002a0: 4100 7cbe c2b9 59be 0b24 243d 6931 64be
000002b0: a156 47bd d30f 30be fa6c 39be 2eaa d9bd
000002c0: 293b 733d 1b8a 0ebe e56b 8f3c e38b 4abe
000002d0: 5716 5fbd b46d 8dbe 60de 49be abbf 4bbe
000002e0: 155b 5dbe 5cdc dfbd cd49 7fbd d7e3 0bbe
000002f0: a10b 5abe e820 6bbd 456c ce3d f761 353d
00000300: bcd9 8b3d 6989 f9bd c28c 24bd f6ef bfbc
00000310: 5f43 16be b4ea 0b3e 54b1 f33c 3ba7 16be
00000320: a4dd 96bc 7da8 9b3d 73d0 2d3e ce5a ca3d
00000330: b5a5 7a3d 299d f93d a1d7 b6bd 2a22 283e
00000340: 7fa7 903d 6770 123e 18e5 9a3d 0683 77bd
00000350: 252f dbbd cb5b 6f3e 0578 4dbd 0d29 853e
00000360: eb70 d43d d98a 763e 1fea 2a3e 8eb3 443e
00000370: e284 003d 80b9 353e 3fb1 6b3e 7a11 153d
00000380: 8e66 7a3e be45 d9bd 4b62 453e e089 b1bd
00000390: cab0 9f3d dfcc be3d 9b03 2c3e 9ff1 38bd
000003a0: 8e3d 123e b0e3 2e3e f142 4bbd 8d6d 8ebd
000003b0: 439c ee3d f917 533e 49df 1abd ed36 7dbd
000003c0: 7388 d23c b02c 303e d2e2 8c3c 1f63 86be
000003d0: 2927 4bbe 4190 37be 1a77 50be 6eed 89be
000003e0: 8025 50be 50fd bebd f5a2 573d dae2 55be
000003f0: 88d4 76be 0a79 b7bd b650 efbb a1de 54be

encoder.0.bias f4 [16]
0.04544943 -0.029119672 -0.082513265 0.14836214 0.017169846 0.061218996 -0.07197601 -0.3275957
0.02980748 0.21425511 -0.18393691 -0.10944313 -0.019389391 -0.24522583 0.23999251 -0.025229512
00000000: 2e29 3a3d 618c eebc b7fc a8bd 3fec 173e
00000010: c7a7 8c3c c5c0 7a3d 2968 93bd a0ba a7be
00000020: d12e f43c b165 5b3e f559 3cbe b823 e0bd
00000030: 80d6 9ebc 7b1c 7bbe 99c0 753e 1fae cebc

encoder.3.weight f4 [8, 16, 3, 3]
0.054577567 0.15458584 0.05420256 0.10412598 0.17999227 0.11125371 0.00667283 0.13305353
0.096173845 -0.06411179 -0.14128482 -0.1056983 -0.024560701 -0.20580071 -0.16204984 0.030003786
-0.098045066 0.0034263702 0.02680437 0.14733258 0.12070842 0.17108232 0.13272296 0.15035467
0.09767845 0.110656336 0.012571445 -0.0738808 -0.09795666 -0.018202951 -0.08621744 -0.2018573
-0.17284133 0.024531575 -0.12602702 -0.080822475 -0.02114389 -0.12244764 -0.056234203 -0.039277513
-0.17110525 -0.09630444 0.052481968 -0.020263 0.023229279 -0.12749837 -0.090871975 -0.0622357
-0.12727463 -0.24683575 -0.120675944 0.068747245 -0.05042663 -0.045885995 0.024508312 0.041028116
0.14272465 0.040277556 0.07473606 0.11291827 0.036211282 0.08002451 0.07308696 -0.031160604
-0.057717845 0.030896332 -0.057625685 -0.058733407 -0.08011265 0.073305644 -0.012984416 0.05465821
-0.13824424 -0.16280822 -0.11121025 -0.138068 -0.2065787 -0.1488973 0.016553015 -0.02409071
-0.08572883 0.1277813 0.13942301 0.07869572 0.05231327 0.12614979 0.034736436 0.14218819
0.13669246 0.13097534 0.018144647 -0.052728727 -0.08919963 -0.12517773 -0.18670122 -0.113838494
0.10424336 0.023100732 -0.04621151 -0.06647566 -0.10549475 -0.039629992 -0.041705552 -0.16979192
-0.14192878 -0.0021947473 -0.039987605 -0.06106249 0.14247094 0.07558667 0.06748018 0.11529833
0.07729649 0.10687346 0.06832979 0.1045278 0.034303818 0.027090332 -0.01675396 -0.057305533
-0.034369405 -0.16117914 -0.03260768 -0.00491829 -0.07844253 -0.02971371 0.15440197 0.10592756
0.11368265 0.09551711 0.06625024 0.112898745 0.081404164 0.13809496 0.029362692 0.04197594
0.093045264 0.062015116 0.10320796 0.10713509 0.070338264 0.0882181 0.09046003 0.020560805
0.109675184 0.040062036 0.14521551 0.051261995 0.08478681 0.05897837 0.0549028 0.018823454
0.12186356 0.07248662 0.06729855 0.05857222 0.0073962333 -0.016714469 -0.050056092 0.051707912
-0.033958986 -0.0056053596 0.039827917 0.113061175 0.061672542 0.05012244 0.15907913 0.18813196
0.10087385 0.16191222 0.088962704 0.0704867 -0.016379701 0.13511989 -0.029067518 0.06759548
-0.020313181 0.069514364 0.012830259 0.08994642 0.0005353895 -0.053703893 0.12329528 0.048951518
-0.09007644 0.02632141 0.03408793 0.07851641 0.011924461 0.039917894 -0.025044525 0.048625186
0.035990383 -0.024994222 -0.029930351 0.11517011 0.059514936 -0.00023673955 0.07744911 0.19440155
0.15257607 0.052700132 0.05755164 0.17910062 0.05881553 0.06885316 0.15062828 -0.0038756104
-0.070456944 0.04055973 -0.11010309 -0.094242476 -0.102489986 -0.075931445 -0.106049046 -0.08676516
0.14900082 0.0734768 0.109880514 0.1013951 0.05593263 0.117608115 0.010660462 0.0797975
0.10972953 0.09371093 0.08602721 0.06345592 0.16950978 0.07135049 0.18113458 0.09252337
0.07334184 0.058050495 0.080232106 -0.0859846 0.10433996 0.008130501 -0.10001422 -0.037527103
0.097963974 0.017582064 0.057664696 0.10147502 0.09169385 0.06435461 -0.030340081 0.01071745
0.08569959 0.022918275 -0.017060572 0.033189602 0.14948085 0.09875904 0.14735954 0.14718664
00000000: ba8c 5f3d c04b 1e3e 8103 5e3d 0040 d53d
00000010: e54f 383e fcd8 e33d c1a7 da3b 2f3f 083e
00000020: cbf6 c43d 0b4d 83bd f8ac 10be 5a78 d8bd
00000030: 8633 c9bc 6cbd 52be 65f0 25be 80ca f53c
00000040: dacb c8bd f48c 603b d794 db3c 5ade 163e
00000050: fa35 f73d 3430 2f3e 87e8 073e 93f6 193e
00000060: a40b c83d ca9f e23d 76f8 4d3c d14e 97bd
00000070: 809d c8bd 5b1e 95bc c592 b0bd aeb3 4ebe
00000080: 51fd 30be 71f6 c83c 3a0d 01be 4186 a5bd
00000090: f435 adbc d4c5 fabd d655 66bd 75e1 20bd
000000a0: 3736 2fbe 433b c5bd 55f7 563d 97fe a5bc
000000b0: 544b be3c ef8e 02be 161b babd ddea 7ebd
000000c0: 4854 02be 83c2 7cbe f324 f7bd 5bcb 8c3d
000000d0: 278c 4ebd f4f2 3bbd a8c5 c83c 190d 283d
000000e0: 6926 123e 14fa 243d 380f 993d b241 e73d
000000f0: 4852 143d e4e3 a33d 9eae 953d 8644 ffbc
00000100: 8c69 6cbd 4e1a fd3c e908 6cbd 7192 70bd
00000110: 1a12 a4bd 4521 963d 97bc 54bc 4ae1 5f3d
00000120: e68f 0dbe 33b7 26be 33c2 e3bd b361 0dbe
00000130: 5e89 53be 8978 18be 309a 873c e159 c5bc
00000140: 9992 afbd 1ad9 023e e8c4 0e3e 392b a13d
00000150: 7046 563d 692d 013e cb47 0e3d c899 113e
00000160: 1cf9 0b3e 661e 063e 15a4 943c 14fa 57bd
00000170: 4cae b6bd 972e 00be 9b2e 3fbe 2824 e9bd
00000180: 8b7d d53d bf3d bd3c 4848 3dbd 6424 88bd
00000190: a20d d8bd 0f53 22bd 71d3 2abd efdd 2dbe
000001a0: c755 11be c0d5 0fbb 0bca 23bd a91c 7abd
000001b0: e7e3 113e 2fcd 9a3d 0c33 8a3d 8821 ec3d
000001c0: 9f4d 9e3d 79e0 da3d 7df0 8b3d ac12 d63d
000001d0: 2982 0c3d 8bec dd3c 9a3f 89bc 35b9 6abd
000001e0: efc6 0cbd 250c 25be a18f 05bd 9b29 a1bb
000001f0: 7aa6 a0bd 2b6a f3bc 8d1b 1e3e 8cf0 d83d
00000200: 73d2 e83d 799e c33d 35ae 873d 7537 e73d
00000210: 3ab7 a63d c468 0d3e 078a f03c f7ee 2b3d
00000220: 848e be3d 9003 7e3d b25e d33d a469 db3d
00000230: 820d 903d b1ab b43d 1c43 b93d 226f a83c
00000240: 629d e03d 1718 243d 60b3 143e 19f8 513d
00000250: b5a4 ad3d 4e93 713d c2e1 603d a533 9a3c
00000260: 9a93 f93d dd73 943d d2d3 893d 6de9 6f3d
00000270: 1a5c f23b c8ec 88bc 9e07 4dbd adcb 533d
00000280: 9418 0bbd 2aad b7bb 9922 233d 9e8c e73d
00000290: 599c 7c3d 304d 4d3d a4e5 223e aaa5 403e
000002a0: f396 ce3d 51cc 253e 1432 b63d 555b 903d
000002b0: b92e 86bc de5c 0a3e 011f eebc 806f 8a3d
000002c0: d467 a6bc 8c5d 8e3d 0236 523c d435 b83d
000002d0: 6259 0c3a 9df8 5bbd 3c82 fc3d 6381 483d
000002e0: ff79 b8bd ff9f d73c c99f 0b3d 36cd a03d
000002f0: d15e 433c f280 233d 2d2a cdbc 342b 473d
00000300: a76a 133d afc0 ccbc 7f30 f5bc 4ede eb3d
00000310: efc5 733d 4a3d 78b9 a49d 9e3d 3311 473e
00000320: e73c 1c3e 18dc 573d 45bb 6b3d 2766 373e
00000330: 8ee8 703d e302 8d3d 4d3e 1a3e f4fd 7dbb
00000340: bb4b 90bd f621 263d bb7d e1bd 3302 c1bd
00000350: 45e6 d1bd f281 9bbd 3e30 d9bd efb1 b1bd
00000360: ac93 183e 017b 963d 0909 e13d 3ca8 cf3d
00000370: 9d19 653d 86dc f03d 38a9 2e3c df6c a33d
00000380: e0b9 e03d 84eb bf3d 092f b03d 2df5 813d
00000390: f993 2d3e 3520 923d 587b 393e e57c bd3d
000003a0: 3f34 963d 5bc6 6d3d bb50 a43d b218 b0bd
000003b0: 30b0 d53d cb35 053c 41d4 ccbd 05b6 19bd
000003c0: 56a1 c83d 4308 903c d131 6c3d 23d2 cf3d
000003d0: fcc9 bb3d 5acc 833d c38b f8bc 3e98 2f3c
000003e0: 4483 af3d 1bbf bb3c 9dc2 8bbc d2f1 073d
000003f0: 8211 193e 2e42 ca3d 6be5 163e 18b8 163e

encoder.3.bias f4 [8]
-0.08404816 0.19657874 -0.052498613 -0.07997385 -0.07622153 -0.08016509 0.04176226 0.009005518
00000000: 7121 acbd f04b 493e c908 57bd 54c9 a3bd
00000010: 091a 9cbd 982d a4bd e70e 2b3d e18b 133c

decoder.0.weight f4 [8, 16, 3, 3]
0.013804317 -0.0621046 -0.07964361 0.0062279445 -0.047585744 -0.0076574828 -0.09066545 -0.037724856
-0.06110084 -0.016732467 -0.018547457 -0.20218047 0.17782305 -0.009319595 -0.1960847 0.18255034
0.048382763 0.05087776 -0.0076642944 -0.20477083 0.004299644 0.026211206 -0.018884297 -0.02801044
0.036797356 -0.1475371 -0.07841924 -0.07772603 -0.042551965 0.14307608 -0.11027225 -0.0011261228
0.010251302 -0.1543397 0.046854496 0.09599642 0.018124852 -0.040979598 -0.0892832 -0.008408595
0.008753429 0.049423195 -0.015330022 -0.09754845 -0.0065298863 0.009175493 0.0073219854 0.14632024
0.010686869 8.778153e-11 0.016967922 -0.13127466 0.067019425 0.02556187 0.09183408 0.12121061
0.05088937 -0.040916976 0.12853567 -0.0491424 0.051209316 0.09954081 0.06587153 0.035641514
0.1362608 0.11574478 0.1354906 0.10000682 0.07273928 -0.19914517 0.13348389 -0.07820353
0.11141323 -0.05145728 0.012446726 -0.16635339 -0.03923105 0.16052811 0.033571552 0.078519866
-0.1388757 -0.036297407 -0.1640286 -0.042805225 0.05165738 -0.0032971217 0.018044244 -0.0030378995
0.16779672 -0.068076104 -0.08638034 -0.016535666 -0.13332613 -0.21516955 0.053380717 -0.10417271
-0.11031811 0.055249497 -0.04753069 -0.06758219 0.19254486 -0.16296934 0.022880089 -0.023386115
-0.010364409 0.11619058 -0.123028584 0.08362518 0.08884647 0.051533442 0.07999823 0.17498644
0.13540277 0.06470474 0.09476794 0.03420816 0.10799131 -0.056261383 0.111866705 -0.027599199
-0.021443577 1.0389897e-11 -0.035098683 -0.053298473 -0.094594955 0.034600805 -0.17383939 0.019566223
-0.12736651 0.062594056 -0.022734372 -0.11934701 -0.118508406 0.035005238 -0.14291705 0.02106454
-0.19192003 -0.04883279 -0.028316496 -2.7983574e-10 -0.029328018 -0.08277548 -0.123283505 -0.025301201
-0.008778229 -0.032945935 -0.063740015 -0.007678596 -0.06222642 0.08194699 -0.17438859 -0.04170489
-0.034222253 -0.0143591305 0.05969616 -0.1352432 0.2160993 0.016872602 -0.1900225 0.104630254
0.017409423 0.043298874 0.036407866 -0.20179774 0.028831538 -0.0017961179 0.031506673 0.06875504
-0.017115232 -0.17303877 0.09458167 -0.04045151 -0.12151097 0.11040503 -0.098706484 0.003452856
-0.14636311 -0.057077702 -0.12911509 -0.0320144 -0.07300801 -0.053746223 -0.14612222 -0.004763543
0.017457716 0.04900621 -0.048362456 -0.0661934 -0.08591261 0.069547914 0.07382646 0.16080855
0.005375286 -1.5237235e-11 0.06805208 -0.2667908 -0.05868274 -0.012582283 0.052267436 0.13216428
0.0046574236 0.013541337 0.1088304 0.01729558 0.07198667 0.043377962 0.027993111 0.037413426
0.14879303 0.11370538 0.12017093 0.087989256 0.11533425 -0.25913212 0.088384055 -0.1290047
0.13068756 0.008005684 -0.02819905 -0.20574163 -0.009247644 0.2102662 -0.021268098 0.045503546
-0.096024066 0.07953813 -0.11070137 0.08922204 -0.030219438 0.0044349777 0.037745785 0.06756969
0.1019047 0.0388869 -0.21390045 -0.009040887 -0.11372507 -0.24838603 0.0427811 -0.11362411
-0.20668273 -0.01100794 -0.059748646 -0.08813854 0.13091488 -0.08736322 0.010488859 0.021753173
0.01395643 0.12220205 -0.19694765 0.07266961 0.07066618 -0.0067282845 0.06974886 0.17029536
00000000: 812b 623c 6561 7ebd 301c a3bd c913 cc3b
00000010: 45e9 42bd 9feb fabb cfae b9bd 6185 1abd
00000020: e044 7abd 8712 89bc d6f0 97bc 6608 4fbe
00000030: 3f17 363e 37b1 18bc 6dca 48be 7aee 3a3e
00000040: 012d 463d 3365 503d c324 fbbb 72af 51be
00000050: 07e4 8c3b e2b8 d63c 3eb3 9abc 2676 e5bc
00000060: d3b8 163d f713 17be 449a a0bd d32e 9fbd
00000070: f84a 2ebd 8982 123e 6bd6 e1bd 699a 93ba
00000080: 14f5 273c 3a0b 1ebe 80ea 3f3d c599 c43d
00000090: 927a 943c 39da 27bd 1cda b6bd 34c4 09bc
000000a0: 8b6a 0f3c fa6f 4a3d c62a 7bbc 7bc7 c7bd
000000b0: a8f8 d5bb cf54 163c 44ed ef3b f9d4 153e
000000c0: fa17 2f3c 9c08 c12e 5000 8b3c dd6c 06be
000000d0: 7b41 893d 2067 d13c 8213 bc3d 453d f83d
000000e0: 5f71 503d 8f98 27bd db9e 033e 8b49 49bd
000000f0: dcc0 513d 0ddc cb3d a7e7 863d d6fc 113d
00000100: f387 0b3e 990b ed3d 0cbe 0a3e 60d0 cc3d
00000110: 55f8 943d b6ec 4bbe 00b0 083e 2c29 a0bd
00000120: 9f2c e43d dec4 52bd 5aed 4b3c 8b58 2abe
00000130: bdb0 20bd 7b61 243e 5382 093d 06cf a03d
00000140: 6e35 0ebe 97ac 14bd 1df7 27be 8854 2fbd
00000150: b096 533d 8614 58bb 86d1 933c 7f17 47bb
00000160: e7d2 2b3e 7c6b 8bbd 2de8 b0bd ce75 87bc
00000170: a586 08be 6855 5cbe bda5 5a3d 8058 d5bd
00000180: 76ee e1bd 4c4d 623d 8aaf 42bd 8868 8abd
00000190: 7b2a 453e 6fe1 26be 066f bb3c 3d94 bfbc
000001a0: 7bcf 29bc 54f5 ed3d 69f6 fbbd ae43 ab3d
000001b0: 23f5 b53d bb14 533d 1dd6 a33d a52f 333e
000001c0: 06a7 0a3e eb83 843d b215 c23d db1d 0c3d
000001d0: 8c2a dd3d 5672 66bd 5f1a e53d b717 e2bc
000001e0: 71aa afbc f0c7 362d a3c3 0fbd 804f 5abd
000001f0: 00bb c1bd 93b9 0d3d f402 32be 5849 a03c
00000200: 5e6c 02be 5031 803d 6f3d babc 356c f4bd
00000210: 89b4 f2bd a761 0f3d d958 12be 8b8f ac3c
00000220: af86 44be e404 48bd fff7 e7bc 61d7 99af
00000230: 5041 f0bc 3186 a9bd 107c fcbd 7744 cfbc
00000240: 90d2 0fbc 51f2 06bd 208a 82bd bb9c fbbb
00000250: 21e1 7ebd d3d3 a73d ec92 32be bfd2 2abd
00000260: a22c 0cbd 8f42 6bbc f683 743d 327d 0abe
00000270: 2349 5d3e 6938 8a3c 4295 42be 6348 d63d
00000280: 359e 8e3c 295a 313d 6a20 153d 11a4 4ebe
00000290: 1e30 ec3c b76b ebba 240d 013d 71cf 8c3d
000002a0: 3e35 8cbc 1331 31be 09b4 c13d 7cb0 25bd
000002b0: beda f8bd 081c e23d a026 cabd 5049 623b
000002c0: 36e0 15be 4fca 69bd bf36 04be 8821 03bd
000002d0: 3985 95bd 0025 5cbd 10a1 15be 7f17 9cbb
000002e0: 7c03 8f3c bcba 483d b617 46bd 6890 87bd
000002f0: f3f2 afbd 236f 8e3d 5432 973d ffaa 243e
00000300: 2b23 b03b 3407 86ad e45e 8b3d ce98 88be
00000310: 505d 70bd eb25 4ebc 6116 563d 1356 073e
00000320: 4d9d 983b 7cdc 5d3c 79e2 de3d 76af 8d3c
00000330: bf6d 933d 17ad 313d cf51 e53c d23e 193d
00000340: 335d 183e 5ede e83d 2d1c f63d b633 b43d
00000350: 5d34 ec3d f7ac 84be b302 b53d cf19 04be
00000360: f6d2 053e 462a 033c b201 e7bc efad 52be
00000370: 6e83 17bc 0650 573e 6f3a aebc ed61 3a3d
00000380: 44a8 c4bd e3e4 a23d 66b7 e2bd 0bba b63d
00000390: c18e f7bc 4a53 913b 539b 1a3d fa61 8a3d
000003a0: 69b3 d03d df47 1f3d b808 5bbe 3a20 14bc
000003b0: b1e8 e8bd e858 7ebe 3c3b 2f3d c2b3 e8bd
000003c0: a3a4 53be a65a 34bc ffba 74bd fb81 b4bd
000003d0: 8d0e 063e 7deb b2bd 77d9 2b3c b633 b23c
000003e0: 83a9 643c 1245 fa3d a5ac 49be ced3 943d
000003f0: 6eb9 903d f178 dcbb 7ed8 8e3d e861 2e3e

decoder.0.bias f4 [16]
-0.1416803 -0.12713474 -0.054613303 0.010655555 0.045460645 -0.07913479 0.09380593 -0.016901016
0.033850014 0.027707417 -0.069894485 0.048076563 0.11247075 -0.12545201 -0.07559031 -0.056646157
00000000: a414 11be 9c2f 02be 33b2 5fbd a394 2e3c
00000010: f134 3a3d 6c11 a2bd 531d c03d 0074 8abc
00000020: 50a6 0a3d aafa e23c d724 8fbd eeeb 443d
00000030: 1157 e63d 7e76 00be 18cf 9abd cd05 68bd

decoder.2.weight f4 [16, 8, 5, 5]
-0.010503735 0.0013402494 0.053064644 0.0029316195 -0.040262427 -0.021866616 -0.043543443 0.039527968
0.072265185 0.005957739 0.05229029 0.070782244 0.13693273 0.1289955 0.05796262 0.07041542
0.008335926 0.06425057 0.053700052 -0.047929812 0.047188573 0.020852046 0.0371361 0.015380681
-0.029242974 -0.011984462 -0.030491251 -0.07411826 -0.032313403 0.010254416 -0.037807964 -0.023193713
-0.1580974 -0.0106363315 0.045037434 -0.017696045 -0.022682684 -0.018605782 -0.07513956 0.020853981
-0.008639316 -0.02440845 -0.08935496 -0.07321258 -0.020813927 0.052767713 0.032038443 -0.09097541
0.034530535 0.046564754 -0.021522941 0.027688032 -0.04939214 0.008474715 0.120329894 -0.014089348
0.0042302934 -0.052566666 0.06383688 -0.015832182 0.03830897 -0.07933174 0.077653386 -0.03600612
-0.07039482 -0.051826112 -0.008305222 -0.09002818 -0.010312765 -0.027653376 0.016426736 0.021143103
-0.058998354 0.058992393 0.073217295 0.054034114 -0.0025252006 0.013547743 0.073900424 -0.00022751401
0.046104964 0.09218509 0.04723176 0.012858223 0.062892005 0.08618329 0.061003298 0.06339866
0.10423862 0.054048527 0.007082091 -0.0015472255 0.03722667 0.038642254 0.0019297053 0.025053252
0.020500494 0.00914809 0.009976822 -0.036140904 -0.033171117 0.0076407 -0.0026753747 0.045764334
0.048319533 0.0131254895 -0.029988406 -0.034794856 -0.0277373 0.023419557 0.025655892 0.0074445214
-0.000211241 0.014019723 0.046703238 0.012567543 -0.047373198 -0.018606592 -5.874947e-05 -0.010047821
-0.001900436 0.019819837 0.01453448 0.034199957 0.020993391 0.05964964 -0.0004838602 0.030568251
0.016303686 0.084561184 0.02426831 -0.074022844 -0.13165091 -0.044728637 -0.056161214 -0.021049805
-0.10714088 -0.16702847 0.044465523 0.033531517 -0.009679042 -0.039399877 -0.04096347 0.03873539
0.02370489 0.036100056 -0.03792235 0.021675663 0.018900096 0.0133240735 -5.30247e-11 0.099952996
0.009773968 -5.1770175e-09 0.06452721 0.07738137 0.060111094 0.044761162 0.085044816 0.040008463
0.031440604 0.059344128 0.055017613 0.09085078 -0.00836412 1.839557e-11 0.05801298 0.044290412
3.656193e-11 0.08094901 0.0067670504 0.0150560895 0.007858905 0.034315094 0.0007823309 -4.2696815e-11
-4.967697e-06 -0.0015430665 6.085348e-11 8.562639e-08 -2.4929657e-11 0.05943725 0.025659787 -5.0534616e-08
0.057771083 -4.313239e-12 -0.028735436 -0.00083547056 9.085483e-10 -0.01218662 -6.402563e-06 -6.2056993e-10
-0.0007308121 -2.3174287e-06 -0.0010280743 9.712408e-12 0.016515035 0.008474707 -3.0718061e-10 0.00010663471
0.06579507 0.06575148 0.026930885 0.025909161 0.035712257 -0.0063026436 0.07978257 0.07838035
0.021748405 -0.0059009874 0.045237727 0.060894202 0.14002165 0.042225778 -0.023340436 -0.00284597
0.10076021 0.034350064 0.083793946 -0.0036079073 0.060983773 0.071636744 0.039286472 0.05007121
-0.006004906 -0.097667396 -0.16185336 -0.11981574 -0.07760862 -0.10939531 -0.18677539 -0.20524038
-0.059449717 -0.18794166 -0.11222092 -0.15890105 -0.06671934 -0.23198314 -0.22609703 -0.06929129
-0.029114733 -0.17908533 -0.11451827 -0.073323965 -0.041259523 -0.11282095 -0.1429869 -0.036972333
-0.13366474 -0.04655348 -0.11791988 -0.16629203 -0.18038689 -0.13934721 -0.043214675 -0.10247044
00000000: dc17 2cbc 4fab af3a 505a 593d 6a20 403b
00000010: 37ea 24bd 9e21 b3bc 9c5a 32bd 14e8 213d
00000020: c5ff 933d 2339 c33b 582e 563d 48f6 903d
00000030: 1838 0c3e 6517 043e 366a 6d3d f635 903d
00000040: 6893 083c ce95 833d 96f4 5b3d 0d52 44bd
00000050: ce48 413d e9d1 aa3c 061c 183d 40ff 7b3c
00000060: f68e efbc 7a5a 44bc cac8 f9bc 50cb 97bd
00000070: 0f5b 04bd 2302 283c 86dc 1abd be00 bebc
00000080: 49e4 21be 0244 2ebc 2c79 383d 4cf7 90bc
00000090: 09d1 b9bc 276b 98bc c5e2 99bd f8d5 aa3c
000000a0: eb8b 0dbc 3bf4 c7bc bcff b6bd 7af0 95bd
000000b0: f881 aabc f522 583d be3a 033d 5151 babd
000000c0: e46f 0d3d afba 3e3d e150 b0bc 03d2 e23c
000000d0: 6a4f 4abd 88d9 0a3c 856f f63d 02d7 66bc
000000e0: 469e 8a3b 2550 57bd e9bc 823d 7eb2 81bc
000000f0: dee9 1c3d ae78 a2bd bd08 9f3d 277b 13bd
00000100: 292b 90bd 9e47 54bd a012 08bc b260 b8bd
00000110: dff6 28bc 5589 e2bc 5d91 863c 4d34 ad3c
00000120: 42a8 71bd 02a2 713d f3f2 953d e052 5d3d
00000130: d67d 25bb 5af7 5d3c 1b59 973d d490 6eb9
00000140: 8fd8 3c3d 89cb bc3d 1776 413d 4cab 523c
00000150: 86cd 803d dd80 b03d 98de 793d 28d7 813d
00000160: 0f7b d53d fd61 5d3d e310 e83b 46cc caba
00000170: fe7a 183d 5747 1e3d 2aee fc3a 7a3c cd3c
00000180: a7f0 a73c dfe1 153c d375 233c 7c08 14bd
00000190: 70de 07bd d65e fa3b 5755 2fbb 6273 3b3d
000001a0: b4ea 453d 4b0c 573c 3faa f5bc 0d85 0ebd
000001b0: 5639 e3bc 5fda bf3c 4e2c d23c 2cf1 f33b
000001c0: 9380 5db9 fbb2 653c e54b 3f3d 19e8 4d3c
000001d0: 660a 42bd da6c 98bc c369 76b8 9e9f 24bc
000001e0: 0d18 f9ba 365d a23c 0722 6e3c 4115 0c3d
000001f0: 55fa ab3c 2e53 743d 9eae fdb9 456a fa3c
00000200: 4f8f 853c 6a2e ad3d 56ce c63c 4a99 97bd
00000210: 7fcf 06be 6035 37bd 4d09 66bd a470 acbc
00000220: ad6c dbbd 8309 2bbe 7b21 363d 5858 093d
00000230: d894 1ebc c461 21bd 50c9 27bd 00a9 1e3d
00000240: c230 c23c a7dd 133d 7754 1bbd 2991 b13c
00000250: 60d4 9a3c 374d 5a3c 8134 69ae 28b4 cc3d
00000260: fe22 203c 87e1 b1b1 d826 843d 207a 9e3d
00000270: 0d37 763d 7b57 373d fa2b ae3d eadf 233d
00000280: ddc7 003d d412 733d 265a 613d f90f ba3d
00000290: a909 09bc 24cf a12d 059f 6d3d dd69 353d
000002a0: 13cd 202e 98c8 a53d 22be dd3b d1ad 763c
000002b0: a3c2 003c fc8d 0c3d 5715 4d3a 57c8 3bae
000002c0: 31b0 a6b6 b840 caba 77d1 852e 9be1 b733
000002d0: 9948 dbad 7974 733d 7934 d23c 660b 59b3
000002e0: 5fa1 6c3d 34c2 97ac 9466 ebbc 7b03 5bba
000002f0: 67bd 7930 64aa 47bc 99d5 d6b6 ba94 2ab0
00000300: f893 3fba 1f85 1bb6 73c0 86ba ccdc 2a2d
00000310: 8a4a 873c 7fd9 0a3c d4df a8af 13a1 df38
00000320: 91bf 863d b6a8 863d 299e dc3c 733f d43c
00000330: 0447 123d 6886 cebb 0b65 a33d e085 a03d
00000340: b629 b23c 125d c1bb 324b 393d 336c 793d
00000350: d661 0f3e f0f4 2c3d 7134 bfbc 7483 3abb
00000360: 5e5b ce3d a7b2 0c3d 299c ab3d a472 6cbb
00000370: 1fca 793d 49b6 923d daea 203d 7817 4d3d
00000380: cdc4 c4bb d805 c8bd e3bc 25be f461 f5bd
00000390: 45f1 9ebd a60a e0bd 0c42 3fbe 892a 52be
000003a0: 8c81 73bd c773 40be 15d4 e5bd f5b6 22be
000003b0: 26a4 88bd fd8c 6dbe fb85 67be 98e8 8dbd
000003c0: 0582 eebc 2562 37be 8e88 eabd e02a 96bd
000003d0: bfff 28bd ac0e e7bd 286b 12be 4d70 17bd
000003e0: 69df 08be ddae 3ebd fa7f f1bd 7548 2abe
000003f0: 57b7 38be 09b1 0ebe df01 31bd 06dc d1bd

decoder.2.bias f4 [8]
0.03464262 0.22900729 0.036720417 0.009684839 -0.009189849 0.0512128 -0.15483832 -0.022522962
00000000: 6be5 0d3d e380 6a3e 2668 163d 29ad 1e3c
00000010: 0591 16bc 83c4 513d f08d 1ebe 1382 b8bc

decoder.4.weight f4 [8, 3, 2, 2]
0.18296534 0.058615267 0.19971327 0.19821644 0.04028451 0.08812289 -0.07097955 0.24786054
0.12847821 0.22799495 0.25377214 0.013386727 -0.020289855 -0.0056274594 -0.039229795 -0.06821754
-0.10100652 -0.20796967 -0.13837335 -0.26877505 -0.22407922 -0.020943986 -0.366381 -0.22652929
-0.12693982 -0.30138093 -0.17430271 0.11236974 -0.15196158 -0.1475396 -0.048539452 -0.0143990265
0.11446331 0.015381733 -0.20651034 -0.22022343 0.16498117 0.19421284 0.14488235 0.14902176
0.241199 0.21224919 0.294338 -0.011278506 0.123797044 0.052343305 0.011623571 0.1584357
0.18414342 -0.2959879 -0.3284626 -0.09715409 0.03506596 -0.16530834 -0.02193568 -0.08157834
-0.1678022 0.0039389706 -0.18248472 0.0039717476 -0.23759699 0.13558464 0.07118364 -0.2533711
-0.23086566 -0.081081085 -0.2662799 -0.18070275 -0.2595706 -0.33793852 0.064227164 -0.1042013
0.021305298 0.21209389 0.029994832 0.035305414 0.133208 0.10804455 0.2546792 0.22142708
0.0782979 -0.017567066 0.029104074 0.21375784 0.15141793 -0.100236 -0.21094906 -0.1507993
0.015453527 -0.08006386 0.17499311 0.130986 -0.13799693 0.0535085 0.03872393 0.073794596
00000000: 445b 3b3e 9016 703d a381 4c3e 40f9 4a3e
00000010: 5f01 253d c679 b43d ba5d 91bd 27cf 7d3e
00000020: cb8f 033e 8277 693e 6cee 813e 0154 5b3c
00000030: e936 a6bc 8d66 b8bb 6caf 20bd a3b5 8bbd
00000040: 82dc cebd 00f6 54be beb1 0dbe e29c 89be
00000050: 0675 65be b992 abbc 4a96 bbbe 4bf7 67be
00000060: 83fc 01be 9a4e 9abe 697c 32be 1b22 e63d
00000070: d19b 1bbe 9f14 17be 4ed1 46bd e5e9 6bbc
00000080: bd6b ea3d aa03 7c3c 7277 53be 4082 61be
00000090: d3f0 283e bbdf 463e 0a5c 143e 2999 183e
000000a0: dffc 763e da57 593e 78b3 963e 7cc9 38bc
000000b0: 4e89 fd3d ef65 563d ca70 3e3c f83c 223e
000000c0: 1890 3c3e ba8b 97be 402c a8be b9f8 c6bd
000000d0: 53a1 0f3d 9746 29be 75b2 b3bc 8b12 a7bd
000000e0: 57d4 2bbe 7b12 813b 46dd 3abe 6f25 823b
000000f0: a04c 73be b3d6 0a3e bac8 913d dbb9 81be
00000100: 0c68 6cbe d70d a6bd d755 88be 240a 39be
00000110: 70e6 84be 4706 adbe 8889 833d 7e67 d5bd
00000120: 7388 ae3c 242f 593e b9b7 f53c 699c 103d
00000130: ae67 083e 7646 dd3d 5065 823e c8bd 623e
00000140: a65a a03d cfe8 8fbc ab6b ee3c 56e3 5a3e
00000150: 4d0d 1b3e 8848 cdbd 0803 58be 226b 1abe
00000160: ca30 7d3c 85f8 a3bd 6531 333e 3221 063e
00000170: 114f 0dbe bb2b 5b3d fc9c 1e3d 9f21 973d

decoder.4.bias f4 [3]
-0.07152634 0.2159814 0.09449587
00000000: 677c 92bd 3a2a 5d3e 0d87 c13d
