conv_autoencoder-6.pth (torch_old, 26210 bytes, 10 tensors)

encoder.0.weight f4 [16, 3, 3, 3]
-0.2375567 -0.026288798 -0.04669555 0.06961417 -0.0665363 -0.242685 -0.13278511 -0.2727942
-0.03066451 -0.12288813 0.043558747 -0.008719235 -0.20350672 -0.21795392 -0.05411097 -0.11553126
-0.2883342 0.0725478 -0.27765897 -0.0134535385 -0.01641866 0.05330427 0.048792396 -0.18746413
-0.16187824 -0.015982272 -0.2204594 0.1953715 0.23889194 0.23254961 0.11204518 -0.049909435
-0.07496187 0.2197705 0.14968167 0.2488109 -0.08832869 0.1979576 0.08640813 -0.10385527
-0.07964658 0.22153316 0.14096837 -0.044534314 0.18295108 0.2487725 -0.07203733 -0.06199904
0.05359524 0.20719963 -0.0052228924 -0.09363156 0.22421326 0.15733375 0.13431817 0.14933284
0.12547714 -0.027974423 0.16493803 -0.09025995 0.22929406 0.0795465 -0.015601785 -0.061823953
0.07638792 0.050363477 0.050139524 0.16819866 -0.074814774 0.13021305 0.06535788 0.07654921
-0.04327922 0.2409165 0.09703226 0.017947929 0.08146458 0.23004687 0.18156515 0.24211435
-0.06266777 -0.17503516 0.06781352 0.04840945 0.029639067 -0.027725533 -0.10933143 -0.047912918
-0.08090483 0.028686507 -0.062386844 -0.24096778 0.056465693 -0.17325923 -0.03668058 0.023294693
-0.1688786 -0.26890346 -0.08227686 -0.24415058 -0.16921102 -0.12526013 -0.2735243 -0.31153175
-0.14973977 -0.20665212 -0.020089194 -0.15019184 0.0030909688 0.088142015 -0.18751705 0.08141123
-0.16895165 0.009433446 -0.10210064 -0.08952451 -0.17217757 -0.08678787 0.090522505 0.010649715
-0.06335602 -0.100864194 -0.04113647 -0.27954477 -0.23914446 -0.28851265 -0.20460226 0.0155772725
-0.12755547 -0.19861597 -0.1833611 -0.29431042 -0.02622351 -0.24160387 -0.016683374 0.11438212
-0.16233975 -0.23732191 -0.18263085 -0.22553854 -0.15811895 0.11161244 0.095157966 -0.0014502263
-0.010644434 0.036786564 -0.09154324 -0.2837595 -0.008650973 -0.09757472 -0.21860906 -0.26793882
-0.26673535 0.063130535 -0.2892303 -0.22928996 -0.10957501 -0.070692085 -0.17308855 -0.22990058
-0.0074187964 0.060823865 -0.07177879 0.094342254 -0.17068861 -0.24699868 -0.09411137 -0.014198672
-0.17236733 -0.24623322 -0.06457463 -0.0889885 -0.05765791 -0.09293666 -0.080974236 -0.19232282
-0.28056416 -0.28576195 -0.18438497 -0.27028814 0.052820664 -0.26829293 -0.20261821 -0.30684024
-0.16840546 -0.11072658 -0.20030455 0.04577861 -0.18113318 0.07662822 -0.07166004 -0.1995581
-0.2122678 -0.1425282 -0.22100388 -0.09142468 0.057892807 -0.18018223 -0.16323625 -0.03927306
-0.007887361 -0.28828463 -0.16661555 0.05821187 -0.24855554 0.05640188 -0.09329782 -0.26583216
-0.05712721 -0.23279917 -0.27197012 -0.26506406 -0.28067586 -0.17329669 0.0452181 -0.18258947
-0.1454418 -0.097503 -0.06461252 0.024329001 0.005663057 0.0027609766 -0.19054641 -0.023423795
-0.2734517 -0.08230898 -0.0070658894 -0.016602283 -0.11520798 -0.121028185 -0.14044678 -0.077005826
-0.20807402 -0.038982447 0.0037976562 -0.17725341 -0.27777576 -0.30088335 -0.17819123 -0.02841822
-0.2931689 -0.22236128 -0.30131698 0.06523666 0.09665396 -0.08527032 0.10227271 0.2166607
0.2615952 0.1643748 0.2259219 0.12132956 -0.04154407 -0.03444684 0.10589764 0.22765973
00000000: 1042 73be 9b5b d7bc d543 3fbd e091 8e3d
00000010: 2f44 88bd 6b82 78be d2f8 07be aeab 8bbe
00000020: 2334 fbbc c6ac fbbd a86a 323d 1fdb 0ebc
00000030: 1164 50be 502f 5fbe 77a3 5dbd a79b ecbd
00000040: 8aa0 93be f193 943d 5129 8ebe 3b6c 5cbc
00000050: 6d80 86bc 9455 5a3d 89da 473d 99f6 3fbe
00000060: 69c3 25be 41ed 82bc 1cc0 61be 770f 483e
00000070: 17a0 743e 7c21 6e3e f177 e53d d66d 4cbd
00000080: 9c85 99bd 850b 613e 2746 193e 49c8 7e3e
00000090: ace5 b4bd 66b5 4a3e bff6 b03d 12b2 d4bd
000000a0: bf1d a3bd 97d9 623e 035a 103e 9d69 36bd
000000b0: 8757 3b3e 38be 7e3e 4f88 93bd b5f2 7dbd
000000c0: af86 5b3d 242c 543e cc24 abbb e7c1 bfbd
000000d0: 2998 653e 191c 213e b48a 093e b5ea 183e
000000e0: 147d 003e 9e2a e5bc 84e5 283e 35da b8bd
000000f0: 10cc 6a3e 47e9 a23d a19e 7fbc 1d3b 7dbd
00000100: 4571 9c3d ef49 4e3d 1a5f 4d3d 453c 2c3e
00000110: 7d38 99bd 9256 053e 5ada 853d d5c5 9c3d
00000120: 8d45 31bd d1b2 763e d9b8 c63d 8907 933c
00000130: e7d6 a63d 6891 6b3e 37ec 393e d3ec 773e
00000140: f657 80bd 6b3c 33be d1e1 8a3d fd48 463d
00000150: a1cd f23c a820 e3bc 28e9 dfbd 5640 44bd
00000160: 6eb1 a5bd f7ff ea3c 5989 7fbd 42c0 76be
00000170: 9248 673d de6a 31be 603e 16bd 83d4 be3c
00000180: 83ee 2cbe b7ad 89be c580 a8bd 9c02 7abe
00000190: a745 2dbe 3144 00be 610b 8cbe 1781 9fbe
000001a0: 6255 19be 9d9c 53be 1892 a4bc e4cb 19be
000001b0: da91 4a3b cd83 b43d 7804 40be eeba a63d
000001c0: a901 2dbe be8e 1a3c 241a d1bd a058 b7bd
000001d0: 514f 30be d7bd b1bd dd63 b93d 247c 2e3c
000001e0: cdc0 81bd e391 cebd b77e 28bd 7e20 8fbe
000001f0: 49e2 74be eeb7 93be 4183 51be d137 7f3c
00000200: e79d 02be fc61 4bbe 03c3 3bbe dbaf 96be
00000210: b0d2 d6bc 0167 77be 92ab 88bc 2c41 ea3d
00000220: 643c 26be 8404 73be 9503 3bbe 93f3 66be
00000230: efe9 21be 1095 e43d 2ee2 c23d 8515 beba
00000240: fe65 2ebc 82ad 163d 067b bbbd ed48 91be
00000250: d0bc 0dbc 41d5 c7bd 0edb 5fbe 472f 89be
00000260: 8991 88be 954a 813d fe15 94be fdca 6abe
00000270: dd68 e0bd 03c7 90bd 203e 31be 0f6b 6bbe
00000280: 6019 f3bb 7222 793d c200 93bd 8336 c13d
00000290: ffc8 2ebe 39ed 7cbe 76bd c0bd 8ca1 68bc
000002a0: 1081 30be 9024 7cbe b43f 84bd 9a3f b6bd
000002b0: b32a 6cbd 9355 bebd d2d5 a5bd 46f0 44be
000002c0: 1ba6 8fbe 644f 92be 6acf 3cbe 3563 8abe
000002d0: 7b5a 583d b15d 89be 267b 4fbe 2a1a 9dbe
000002e0: 7b72 2cbe 9ec4 e2bd a31c 4dbe 5a82 3b3d
000002f0: fa7a 39be 42ef 9c3d 80c2 92bd f558 4cbe
00000300: bb5c 59be eaf2 11be d74e 62be dd3c bbbd
00000310: 0221 6d3d b181 38be 6727 27be cadc 20bd
00000320: fd39 01bc 0b9a 93be 449d 2abe 926f 6e3d
00000330: 5885 7ebe a805 673d ed12 bfbd 271b 88be
00000340: 39fe 69bd e862 6ebe ab3f 8bbe 7ab6 87be
00000350: bfb4 8fbe b074 31be 9d36 393d bcf8 3abe
00000360: b2ee 14be a7af c7bd 9253 84bd 9d4d c73c
00000370: 2a91 b93b 80f1 343b 991e 43be 42e3 bfbc
00000380: dc01 8cbe 9c91 a8bd fa88 e7bb 8301 88bc
00000390: 29f2 ebbd a0dd f7bd 48d1 0fbe 3bb5 9dbd
000003a0: 5b11 55be 0fac 1fbd 19e2 783b eb81 35be
000003b0: a038 8ebe 620d 9abe c377 36be 54cd e8bc
000003c0: 3c1a 96be adb2 63be 3846 9abe cc9a 853d
000003d0: 83f2 c53d 35a2 aebd 5b74 d13d 4ddc 5d3e
000003e0: ceef 853e de51 283e 1258 673e a27b f83d
000003f0: 1d2a 2abd 2118 0dbd dde0 d83d a21f 693e

encoder.0.bias f4 [16]
0.21760772 0.25958407 -0.07351122 0.07080257 0.02597836 0.15458238 0.016090533 0.0048402576
0.12673986 0.13641536 0.029724373 -0.07900802 0.38018766 0.37589324 0.15881631 0.098509915
00000000: 8fd4 5e3e 34e8 843e 0d8d 96bd f000 913d
00000010: 92d0 d43c d84a 1e3e 4bd0 833c 069b 9e3b
00000020: 18c8 013e 78b0 0b3e 8780 f33c f5ce a1bd
00000030: f5a7 c23e 1475 c03e bea0 223e 91bf c93d

encoder.3.weight f4 [8, 16, 3, 3]
-0.03074742 0.12596813 0.04331451 0.105014026 0.09673913 0.14702655 -0.053537376 0.057545595
0.016082628 0.23313081 -0.12222305 0.057005018 -0.081750765 -0.34586284 -0.18813144 0.22900556
0.008853554 0.088717006 0.22386062 -0.19484892 0.06702593 -0.06524305 -0.39582127 -0.21972798
0.24868397 -0.033033203 0.12760736 0.031894937 0.06280496 0.015774483 0.0508625 0.18391939
0.14282095 -0.032071702 0.046053838 0.002311933 0.024323147 0.14348447 0.035365053 0.05711379
0.121332936 0.17244947 -0.021402888 0.09568286 -0.0114547 0.09120741 0.06639617 0.09025179
0.17902277 0.19820336 0.16168481 0.10458803 0.07552967 0.13234565 -0.017219257 0.116865255
-0.015372841 0.10636447 0.23274301 0.17448474 0.07801569 0.16690463 0.12058723 0.08808715
0.12186007 0.01444783 0.108679526 0.17548887 0.08083867 0.055620763 0.16559766 0.08049063
0.09738796 0.15050387 0.09909526 0.041633558 0.19978291 0.18581238 -0.008866499 0.047500193
0.091093495 0.12553258 -0.10176966 0.08482214 -0.034037933 -0.40431908 -0.22271459 0.2173692
-0.08619403 0.20116909 -0.012614111 0.14703527 0.10086692 0.049657337 0.09095068 0.17316188
0.027841799 0.087846056 -0.024410138 0.11974595 -0.19061346 0.07537197 -0.1554443 -0.36018184
-0.14030081 0.20366195 -0.01017092 0.15302579 -0.035189323 0.07068938 0.08516214 0.051881872
0.25141564 0.15072918 -0.024043243 0.084126644 -0.013781451 0.08898463 0.04688166 0.052855305
0.12854946 0.13516515 0.12485221 0.0096662175 0.14495139 -0.021547597 0.12842438 -0.059726357
0.0649227 -0.12295586 -0.30573916 -0.12469885 0.21767524 -0.002917385 0.17553243 0.042485338
0.12817113 0.08081811 0.06389309 0.15678969 0.18152486 0.02822032 0.17305589 0.06188222
-0.1846925 -0.13400447 -0.23784715 -0.11526378 -0.035576556 -0.10991536 -0.11941649 -0.123523846
-0.17193921 0.032798864 0.070335366 0.021277135 0.093826346 0.08725896 0.088822655 0.10568253
0.0855023 0.071758956 0.042971723 0.025840953 0.011473038 0.023248319 0.08847515 0.100793384
0.05957974 0.102323234 0.09321777 -0.1776881 -0.19886567 -0.23421857 -0.13400097 -0.007176452
-0.17631161 -0.16921999 -0.1819216 -0.16302718 -0.14827119 -0.12224008 -0.17954199 -0.18325473
-0.053791728 -0.12866047 -0.08040585 -0.13984124 -0.16325374 -0.20753853 -0.15695474 -0.16002454
-0.14119253 -0.036363196 -0.16916388 -0.12930071 -0.1230347 -0.13208327 -0.080331475 -0.20674083
-0.115803294 -0.14608453 -0.031509385 -0.13371772 -0.10022459 -0.155313 -0.20437658 -0.109123416
-0.1880062 -0.16396153 -0.18750322 -0.08629732 -0.13599484 -0.11385123 -0.15002474 -0.14459
-0.088194795 -0.17435852 -0.13730513 -0.1466754 -0.0402062 -0.17371206 -0.17079373 -0.14953937
-0.17446718 0.1337941 0.05509028 0.09927633 0.046540342 -0.009617934 0.02779532 0.13099842
0.09881548 0.0046062996 -0.20889375 -0.09923416 -0.2143789 -0.14854833 -0.045125537 -0.14799252
-0.15139824 -0.19178735 -0.15486328 0.14160632 0.13066891 0.014137682 0.02738911 0.022267714
0.027545499 0.071303874 0.051914476 0.059004817 -0.20255473 -0.15830812 -0.2584708 -0.18304718
00000000: 03e2 fbbc cafd 003e 8e6a 313d 9811 d73d
00000010: 2a1f c63d 218e 163e 024a 5bbd eeb4 6b3d
00000020: b7bf 833c d8b9 6e3e 1450 fabd 187e 693d
00000030: f26c a7bd ef14 b1be 87a5 40be 6f80 6a3e
00000040: 7f0e 113c 43b1 b53d b83b 653e 7a86 47be
00000050: e444 893d 269e 85bd 16a9 cabe 5f00 61be
00000060: 03a7 7e3e d34d 07bd 81ab 023e 44a4 023d
00000070: e39f 803d 7d39 813c 3255 503d 5d55 3c3e
00000080: a83f 123e 9e5d 03bd f3a2 3c3d cd83 173b
00000090: 5641 c73c 98ed 123e f2da 103d 26f0 693d
000000a0: 677d f83d 9896 303e 1c55 afbc 60f5 c33d
000000b0: 7eac 3bbc f3ca ba3d b7fa 873d eed5 b83d
000000c0: bf51 373e d2f5 4a3e b490 253e 4032 d63d
000000d0: 4daf 9a3d 9e85 073e 660f 8dbc 0d57 ef3d
000000e0: 5ede 7bbc 9ed5 d93d 2f54 6e3e 21ac 323e
000000f0: b1c6 9f3d 0ce9 2a3e 70f6 f63d 0967 b43d
00000100: c691 f93d 97b6 6c3c 5f93 de3d 5bb3 333e
00000110: bf8e a53d 99d2 633d 6f92 293e 45d8 a43d
00000120: 5773 c73d b01d 1a3e 75f2 ca3d f387 2a3d
00000130: e493 4c3e 9a45 3e3e cb44 11bc 908f 423d
00000140: 3a8f ba3d 9d8b 003e 9d6c d0bd 3bb7 ad3d
00000150: 5c6b 0bbd e902 cfbe 4b0f 64be 0896 5e3e
00000160: 7f86 b0bd 45ff 4d3e 6bab 4ebc 6a90 163e
00000170: 5193 ce3d 7e65 4b3d 5a44 ba3d 5951 313e
00000180: 7c14 e43c a2e8 b33d c5f7 c7bc 5d3d f53d
00000190: 2d30 43be 9f5c 9a3d ca2c 1fbe c169 b8be
000001a0: 04ab 0fbe c28c 503e eea3 26bc cbb2 1c3e
000001b0: ae22 10bd 98c5 903d 7d69 ae3d 1682 543d
000001c0: 8db9 803e c058 1a3e 56f6 c4bc 974a ac3d
000001d0: 98cb 61bc 933d b63d fc06 403d ce7e 583d
000001e0: 78a2 033e bc68 0a3e 84b2 ff3d 0e5f 1e3c
000001f0: 236e 143e 9684 b0bc ae81 033e a0a3 74bd
00000200: 31f6 843d 48d0 fbbd d889 9cbe 1c62 ffbd
00000210: 42e6 5e3e 9931 3fbb c6be 333e 1b05 2e3d
00000220: 4b3f 033e f783 a53d 61da 823d 7a8d 203e
00000230: a7e1 393e 4d2e e73c 9035 313e 3678 7d3d
00000240: 0820 3dbe 7838 09be 348e 73be 6b0f ecbd
00000250: b9b8 11bd 4e1b e1bd a290 f4bd 12fa fcbd
00000260: d510 30be 1a58 063d fd0b 903d 634d ae3c
00000270: 0728 c03d d3b4 b23d a7e8 b53d 1570 d83d
00000280: d41b af3d 5cf6 923d 1e03 303d 68b0 d33c
00000290: 69f9 3b3c 4273 be3c 7632 b53d c36c ce3d
000002a0: e309 743d d88e d13d f5e8 be3d dff3 35be
000002b0: 71a3 4bbe fed6 6fbe 8d37 09be 7128 ebbb
000002c0: 088b 34be 0148 2dbe a849 3abe 99f0 26be
000002d0: 67d4 17be 0259 fabd dbd9 37be 21a7 3bbe
000002e0: b754 5cbd 92bf 03be d3ab a4bd 8b32 0fbe
000002f0: fd2b 27be fb84 54be beb8 20be 79dd 23be
00000300: c694 10be 93f1 14bd 4c39 2dbe 6867 04be
00000310: 9ef9 fbbd d640 07be d484 a4bd deb3 53be
00000320: 472a edbd 2f97 15be fc0f 01bd 4ced 08be
00000330: 8d42 cdbd 5f0a 1fbe 1848 51be 197c dfbd
00000340: b384 40be 88e5 27be d800 40be a6bc b0bd
00000350: 3b42 0bbe d52a e9bd 16a0 19be 670f 14be
00000360: 799f b4bd 0a8b 32be b799 0cbe 1332 16be
00000370: 42af 24bd 93e1 31be 8de4 2ebe d920 19be
00000380: 86a7 32be 5201 093e 58a6 613d 6351 cb3d
00000390: 16a1 3e3d 8a94 1dbc 03b3 e33c 7324 063e
000003a0: c55f ca3d 71f0 963b 3ee8 55be 473b cbbd
000003b0: 2486 5bbe 0e1d 18be 8ed5 38bd 5a8b 17be
000003c0: 2408 1bbe e763 44be 7b94 1ebe 3f01 113e
000003d0: 12ce 053e bca1 673c 205f e03c c86a b63c
000003e0: 19a7 e13c c407 923d 46a4 543d 09af 713d
000003f0: 826a 4fbe 861b 22be 4956 84be b870 3bbe

encoder.3.bias f4 [8]
0.16883862 0.07916587 0.10381649 0.08188403 0.17171225 0.06388988 0.13026497 0.087036274
00000000: 08e4 2c3e b721 a23d bd9d d43d d0b2 a73d
00000010: 56d5 2f3e b3d8 823d 2e64 053e 1340 b23d

decoder.0.weight f4 [8, 16, 3, 3]
-0.030823484 0.018564215 0.03783037 0.05048294 -0.0065651764 0.082481466 0.11186588 0.051515084
0.039782736 -0.14303218 -0.23841172 -0.020121621 -0.24829039 -0.11786661 0.0023027076 -0.16075744
-0.013086007 -0.044976275 0.018700348 -0.059724826 -0.07273676 -0.11348223 -0.04759921 -0.028224403
-0.11659429 -0.07008117 -0.037425984 -0.2016539 -0.041850295 -0.046773188 -0.1666297 -0.14866614
0.033946574 -0.15036264 -0.14163268 -0.014468149 -0.007837677 -0.08302617 -0.0868198 -0.05742196
-0.0071805916 -0.17088507 -0.040457256 -0.11226843 -0.10047562 -0.037307445 0.013258309 -0.017704802
0.008286876 0.15587717 -0.0151844155 -0.052384812 0.0136749465 -0.13912293 -0.00498465 0.006130338
-0.1511476 -0.11690884 -0.092264265 -0.10179481 0.07005749 -0.025645731 0.03188462 -0.17582904
-0.14265761 -0.1623838 0.017286241 -0.042649575 -0.10014815 0.10132102 0.14134781 0.09160776
-0.023419816 -0.0879186 -0.025183113 0.049940728 -0.00843907 0.05770934 0.13406149 -0.13589199
0.14825562 -0.026176592 -1.8845576e-05 -0.1285421 -0.113536984 -0.054174095 -0.04803943 0.015989339
-0.21692961 -0.2089838 0.008915231 -0.0017547099 -0.020542564 0.09740807 0.09453928 0.11362164
0.04086121 -0.0055965385 0.046483707 0.15578651 -0.045683477 0.123130545 0.20000976 4.3850878e-12
-0.18265086 -0.087147154 -0.025337053 -0.19783878 0.07950633 0.14020418 0.051293466 0.056696758
0.21471345 0.12806143 -0.040935274 0.09662189 0.030841127 -0.11054096 0.0771269 -0.106531955
-0.08271126 -0.2227193 -0.15458931 -0.097098544 -0.024356995 -0.06838756 -0.16186439 -0.040755153
-0.090179436 -0.15645926 -0.05332036 -0.17639154 0.036488764 -0.04865271 -0.017979525 0.0016269338
0.03739682 -0.06247161 0.027820736 0.100766785 0.0530043 -0.056961056 0.042664386 -0.0436648
-0.026992604 -0.02987559 0.029570213 -0.053543977 -0.0028537307 -0.08383646 0.021826895 -0.011701028
-0.015635265 0.061191756 0.12756023 0.045649417 0.0835306 0.1590495 0.043187555 0.07732785
0.0553169 0.058789305 0.09055241 0.13256332 0.03550831 0.13729812 0.13894537 0.08594566
0.051688727 0.044714265 0.041010007 0.0074894866 -0.0046961107 0.05486234 0.034638267 0.07139785
0.0659642 0.09002077 0.03208025 -0.026106741 0.076738134 0.035250533 0.12046883 0.13365744
-0.010005754 0.14754242 0.070035696 0.09685132 0.07861546 0.047245827 0.11859863 0.07483017
0.02167697 -0.056714907 -0.09248921 0.047636986 0.018945547 0.07539377 -0.004406964 0.08550713
0.012625885 0.025081998 0.108875066 0.1127373 0.035860643 0.055571463 -0.017978804 0.036790736
-0.007253591 0.0423948 0.060480606 0.11864443 0.105126835 0.02808087 -0.091823824 0.035930905
-0.010083295 0.12054799 -0.051077433 -0.06411713 4.1798052e-05 -0.021708867 0.011122206 0.14030842
-0.050770435 -0.0056300606 0.10622605 0.051067892 0.07180017 0.10989897 0.108523995 0.1297381
0.08664224 0.0346874 -0.11367435 2.056242e-09 -0.06175962 -0.07233822 -0.1899907 0.029716734
0.051487807 -0.0032171956 -0.023379326 0.004750463 0.0823547 -0.047003455 -0.076413274 1.6743893e-09
0.0046704924 -0.009867142 0.089108124 -0.024077727 0.034819644 -0.031648707 0.007822661 -0.009305735
00000000: 8881 fcbc fb13 983c 05f4 1a3d 33c7 4e3d
00000010: b120 d7bb 0bec a83d f019 e53d 7b01 533d
00000020: 39f3 223d 0777 12be 3422 74be 19d6 a4bc
00000030: d63f 7ebe 0d64 f1bd 06e9 163b 999d 24be
00000040: b166 56bc 0b39 38bd 7931 993c 05a2 74bd
00000050: 03f7 94bd 5f69 e8bd 64f7 42bd dd36 e7bc
00000060: fdc8 eebd b786 8fbd fd4b 19bd 5c7e 4ebe
00000070: 376b 2bbd 3e95 3fbd faa0 2abe f03b 18be
00000080: 900b 0b3d aaf8 19be 2808 11be d10b 6dbc
00000090: 9a69 00bc a009 aabd 94ce b1bd 4a33 6bbd
000000a0: 2b4b ebbb 7ffc 2ebe 82b6 25bd feec e5bd
000000b0: 29c6 cdbd b1cf 18bd 6139 593c a909 91bc
000000c0: adc5 073c 449e 1f3e 0ec8 78bc 7591 56bd
000000d0: e20c 603c 3e76 0ebe 4656 a3bb 01e1 c83b
000000e0: 70c6 1abe e76d efbd 0cf5 bcbd cc79 d0bd
000000f0: 4d7a 8f3d ff16 d2bc 7399 023d 870c 34be
00000100: d614 12be f047 26be e09b 8d3c 52b1 2ebd
00000110: 791a cdbd 6581 cf3d 7bbd 103e d99c bb3d
00000120: eada bfbc ab0e b4bd d14c cebc a68e 4c3d
00000130: 0644 0abc a160 6c3d 6a47 093e 4527 0bbe
00000140: 52d0 173e 4b70 d6bc 9116 9eb7 8aa0 03be
00000150: 1486 e8bd a8e5 5dbd fec4 44bd 13fc 823c
00000160: cc22 5ebe d9ff 55be 3011 123c 4bfe e5ba
00000170: e148 a8bc e27d c73d cf9d c13d 76b2 e83d
00000180: 165e 273d 2b63 b7bb b365 3e3d 8086 1f3e
00000190: 991e 3bbd de2b fc3d 5ccf 4c3e 5c49 9a2c
000001a0: d408 3bbe 357a b2bd a78f cfbc 4096 4abe
000001b0: 37d4 a23d af91 0f3e 1919 523d dc3a 683d
000001c0: d8dd 5b3e 8922 033e bfab 27bd b3e1 c53d
000001d0: 88a6 fc3c 4d63 e2bd b5f4 9d3d 6d2d dabd
000001e0: 8564 a9bd 8710 64be a94c 1ebe 9adb c6bd
000001f0: 5288 c7bc c70e 8cbd c7bf 25be e0ee 26bd
00000200: ffaf b8bd db36 20be 7366 5abd fc9f 34be
00000210: 3e75 153d 1048 47bd cc49 93bc d73e d53a
00000220: 682d 193d 3be2 7fbd 50e8 e33c d15e ce3d
00000230: 091b 593d ff4f 69bd dac0 2e3d dcd9 32bd
00000240: 981f ddbc a7bd f4bc 3b3d f23c ee50 5bbd
00000250: a805 3bbb 73b2 abbd 51ce b23c abb5 3fbc
00000260: 8715 80bc 35a4 7a3d 269f 023e e2fa 3a3d
00000270: 1712 ab3d dfdd 223e 6fe5 303d 105e 9e3d
00000280: f993 623d 0ecd 703d 8b73 b93d aebe 073e
00000290: 2971 113d e197 0c3e b247 0e3e 4704 b03d
000002a0: 8fb7 533d 4e26 373d 1cfa 273d 5e6a f53b
000002b0: d5e1 99bb 55b7 603d dbe0 0d3d 0939 923d
000002c0: 3d18 873d cf5c b83d 9566 033d cedd d5bc
000002d0: e228 9d3d dd62 103d 5db8 f63d 7fdd 083e
000002e0: 2def 23bc 5c15 173e e06e 8f3d fc59 c63d
000002f0: 2401 a13d d784 413d d7e3 f23d 8f40 993d
00000300: e793 b13c e44d 68bd fc6a bdbd 001f 433d
00000310: b133 9b3c 0d68 9a3d 4b68 90bb 5d1e af3d
00000320: cddc 4e3c c378 cd3c e4f9 de3d d0e2 e63d
00000330: 9ce2 123d e79e 633d 4948 93bc e2b1 163d
00000340: 88af edbb 2ba6 2d3d 83ba 773d dafb f23d
00000350: bd4c d73d da09 e63c 210e bcbd 492c 133d
00000360: 6834 25bc dde1 f63d 9236 51bd d84f 83bd
00000370: 5150 2f38 cbd6 b1bc ea39 363c 03ad 0f3e
00000380: a9f4 4fbd 5f7c b8bb 0b8d d93d 912c 513d
00000390: f80b 933d b612 e13d d441 de3d 11da 043e
000003a0: 7d71 b13d 6014 0e3d 19ce e8bd cb4d 0d31
000003b0: a8f7 7cbd 1026 94bd ec8c 42be 8270 f33c
000003c0: e1e4 523d 96d7 52bb 0086 bfbc c6a9 9b3b
000003d0: 95a9 a83d b286 40bd 907e 9cbd 5620 e630
000003e0: ee0a 993b cba9 21bc 527e b63d a73e c5bc
000003f0: 0b9f 0e3d 13a2 01bd 9e2a 003c 1577 18bc

decoder.0.bias f4 [16]
0.03761886 0.12322801 0.098440014 0.0408972 0.09908988 0.060037594 0.11102432 0.036106665
0.07259658 0.09431828 -0.015039035 -0.008782556 -0.034303192 0.007693048 0.08941175 0.08696113
00000000: 3c16 1a3d f85e fc3d eb9a c93d d383 273d
00000010: a3ef ca3d fbe9 753d b860 e33d 95e4 133d
00000020: 84ad 943d f129 c13d 4966 76bc b6e4 0fbc
00000030: 8181 0cbd f715 fc3b 821d b73d ad18 b23d

decoder.2.weight f4 [16, 8, 5, 5]
0.009658993 0.0041431044 0.08871267 0.049354352 0.03992903 -0.00068755745 0.08847375 0.029837914
0.044049527 0.022713214 0.0557169 0.06272096 0.08983348 0.056221902 0.06979742 0.0027221118
0.084816575 0.10007111 0.05228671 0.03262695 0.06771015 0.011599113 0.052521054 0.057394046
0.0767215 -0.05249704 -0.056685176 -0.047569923 -0.013122505 -0.032907404 -0.10811407 -0.11888986
-0.09840079 -0.0849789 -0.033382803 -0.045384023 -0.0644199 -0.086017296 -0.036931287 -0.014756852
-0.033713017 -0.11876753 -0.047009416 -0.0035081205 -0.057727773 0.044653684 -0.048827462 -0.027025769
-0.029850248 -0.0019577227 0.045374162 0.030268388 0.06899614 -0.018134668 0.04089673 0.040534206
0.06584358 0.067921154 0.056982473 0.002530093 0.04349603 0.093492374 0.124888845 0.03629701
0.08717983 0.04797639 0.0729563 0.06488645 0.03230924 0.053496834 -0.0011445145 -0.025182122
0.040922947 0.03361006 -0.0046309014 -0.064460434 -0.018750312 0.011460464 -0.07849828 -0.03050215
-0.0329872 -0.058233496 -0.0915396 -0.10193896 -0.050940767 -0.079204656 -0.008519776 -0.014929841
-0.12819321 0.005852181 -0.06738323 -0.11236532 -0.08486379 -0.06892772 -0.08121186 0.0011000849
-0.042927414 -0.030019382 -0.06561762 -0.09495748 -0.11777666 -0.07998964 -0.049908753 -0.10545637
-0.0037235033 -0.065111026 -0.06451524 -0.16886757 -0.13058726 -0.07459854 6.695356e-11 -0.0916605
-0.05362275 -0.025738824 -0.11377487 -0.13402654 -0.03994608 -0.032034848 -0.057589974 -0.037593655
-0.053087648 -0.08131659 -0.09609095 -0.11427588 -0.058552064 0.0072255344 -0.019625751 0.047303215
0.00950931 -0.01852548 -0.00907206 -0.0392351 -0.03446725 -0.028188247 -0.027849365 0.05896731
0.011958174 -2.841774e-05 -0.09577458 -0.013873065 0.006936739 0.010491206 0.0048470595 -0.02916545
-0.005992217 0.017137649 0.0076071196 0.0071657263 0.013569403 0.0041358913 0.0019136734 -0.044078674
-0.021719556 -0.04704676 0.017221645 -0.038021155 -0.0936939 -0.040095285 -0.017248008 -0.020109763
-0.061506353 -0.02806031 -0.02307266 -0.10588499 -0.021781119 -0.032864176 -0.07358972 -0.01798157
-0.032621816 -0.044780243 -0.02326867 -0.028601049 -0.064605206 -0.00792885 -0.04090897 0.006874882
0.03933293 -0.006495576 -0.042521525 -0.0033982852 -0.060277727 -0.02250748 0.026850697 0.03747886
-0.045351468 -0.04722356 -0.0010335688 0.023271527 0.008052595 0.030206142 0.0065796115 -0.06162271
-0.04467625 -0.013566137 -0.052925654 -0.05081801 -0.0038323533 -0.026123928 -0.045742247 -0.020510634
-0.03899164 -0.11028686 -0.037952382 -0.007809766 -0.04286127 -0.058143444 -0.12297597 -0.120950386
-0.089142166 -0.08962017 -0.048323624 -0.11618093 -0.07787562 -0.058909662 -0.055114757 -0.063052155
-0.083092295 -0.14367856 -0.123454325 -0.10176366 -0.059010446 -0.0757391 -0.06250095 -0.06685426
-0.011778802 0.018830474 0.08976409 0.07866484 0.034592487 0.054752123 -0.010505136 0.07382072
0.019030144 0.014427743 0.016148448 0.052688718 0.13216576 0.12208417 0.04631458 0.038882546
0.009165711 0.02324556 0.03350323 0.091532156 0.03450044 0.059672803 0.107450515 0.10325415
0.07221235 0.021391353 -0.046242382 -0.07313661 -0.043475904 -0.030062431 -0.029707966 -0.040992595
00000000: c140 1e3c e1c2 873b fdae b53d ca27 4a3d
00000010: 9f8c 233d 333d 34ba ba31 b53d a46e f43c
00000020: 476d 343d 1011 ba3c 6737 643d d973 803d
00000030: 9efa b73d f048 663d f3f1 8e3d 7565 323b
00000040: 50b4 ad3d 15f2 cc3d 972a 563d d6a3 053d
00000050: 9eab 8a3d 350a 3e3c 5120 573d 0516 6b3d
00000060: 2920 9d3d 2307 57bd b72e 68bd aed8 42bd
00000070: c6ff 56bc eac9 06bd e96a ddbd 877c f3bd
00000080: 5a86 c9bd 6b09 aebd 68bc 08bd 99e4 39bd
00000090: 95ee 83bd d629 b0bd 4345 17bd b9c6 71bc
000000a0: a916 0abd 643c f3bd f28c 40bd 7fe8 65bb
000000b0: f573 6cbd c8e6 363d 4eff 47bd 2565 ddbc
000000c0: 8288 f4bc 234d 00bb 42da 393d 69f5 f73c
000000d0: d94d 8d3d 288f 94bc 5483 273d 3207 263d
000000e0: 00d9 863d 3f1a 8b3d 7466 693d ebcf 253b
000000f0: e528 323d ee78 bf3d b9c5 ff3d 2cac 143d
00000100: 578b b23d e482 443d 1d6a 953d 30e3 843d
00000110: b256 043d 7f1f 5b3d 8903 96ba bd4a cebc
00000120: d29e 273d b4aa 093d d1be 97bb d503 84bd
00000130: 419a 99bc acc4 3b3c b5c3 a0bd a5df f9bc
00000140: 961d 07bd 3f86 6ebd 1d79 bbbd 60c5 d0bd
00000150: 44a7 50bd 0d36 a2bd 8896 0bbc 4b9c 74bc
00000160: 1545 03be a7c3 bf3b 3800 8abd ca1f e6bd
00000170: 11cd adbd fa29 8dbd 6752 a6bd b930 903a
00000180: a8d4 2fbd 35eb f5bc 8862 86bd 1179 c2bd
00000190: e434 f1bd 9cd1 a3bd 1f6d 4cbd 82f9 d7bd
000001a0: 0506 74bb ee58 85bd 9120 84bd 9feb 2cbe
000001b0: abb8 05be 1fc7 98bd 813b 932e 80b8 bbbd
000001c0: 87a3 5bbd 3ada d2bc cd02 e9bd 413e 09be
000001d0: 809e 23bd f936 03bd 77e3 6bbd cefb 19bd
000001e0: 6f72 59bd 5089 a6bd 55cb c4bd 7909 eabd
000001f0: 4ad4 6fbd 2dc4 ec3b 2fc6 a0bc 04c1 413d
00000200: f0cc 1b3c bfc2 97bc faa2 14bc fcb4 20bd
00000210: 882d 0dbd 0aeb e6bc 5a24 e4bc b587 713d
00000220: 38ec 433c a262 eeb7 7725 c4bd da4b 63bc
00000230: 964d e33b 4fe3 2b3c 15d4 9e3b 62ec eebc
00000240: 5c5a c4bb 4164 8c3c 2545 f93b 78ce ea3b
00000250: 3452 5e3c 5f86 873b 39d4 fa3a d78b 34bd
00000260: 36ed b1bc 1ab4 40bd 6814 8d3c 12bc 1bbd
00000270: 96e2 bfbd f43a 24bd b24b 8dbc 3bbd a4bc
00000280: 16ee 7bbd bcde e5bc e002 bdbc 3bda d8bd
00000290: 516e b2bc 969c 06bd 35b6 96bd 164e 93bc
000002a0: 749e 05bd 7d6b 37bd f09d bebc bf4c eabc
000002b0: bc4f 84bd 02e8 01bc 2a90 27bd b146 e13b
000002c0: 911b 213d d7d8 d4bb 0d2b 2ebd c4b5 5ebb
000002d0: c7e5 76bd 9b61 b8bc fef5 db3c 6f83 193d
000002e0: 76c2 39bd 7e6d 41bd d078 87ba eea3 be3c
000002f0: 08ef 033c df72 f73c c899 d73b 1868 7cbd
00000300: 72fe 36bd 8144 5ebc 92c8 58bd 8c26 50bd
00000310: 3828 7bbb d901 d6bc 395c 3bbd eb05 a8bc
00000320: b3b5 1fbd 14de e1bd f573 1bbd 11e9 ffbb
00000330: 4d8f 2fbd d227 6ebd d3da fbbd d6b4 f7bd
00000340: 2b90 b6bd c88a b7bd feee 45bd 44f0 edbd
00000350: 417d 9fbd 424b 71bd 03c0 61bd 7d21 81bd
00000360: 4b2c aabd 7920 13be 9fd5 fcbd 7769 d0bd
00000370: f0b4 71bd 1a1d 9bbd 8000 80bd e3ea 88bd
00000380: e0fb 40bc 5e42 9a3c 3cd6 b73d 081b a13d
00000390: dab0 0d3d c343 603d bc1d 2cbc 512f 973d
000003a0: 1be5 9b3c 5762 6c3c c049 843c 20d0 573d
000003b0: 7656 073e 4407 fa3d 5bb4 3d3d 4e43 1f3d
000003c0: c72b 163c 796d be3c af3a 093d 3675 bb3d
000003d0: 5550 0d3d 786b 743d 040f dc3d e976 d33d
000003e0: 12e4 933d eb3c af3c a768 3dbd a6c8 95bd
000003f0: ca13 32bd 7d45 f6bc 1f5e f3bc dae7 27bd

decoder.2.bias f4 [8]
0.00084251957 0.07470264 0.0010316243 0.071178116 0.04951431 -0.0078897 0.009185298 0.03164836
00000000: 88dc 5c3a b3fd 983d 9137 873a d5c5 913d
00000010: 84cf 4a3d cd43 01bc ef7d 163c b6a1 013d

decoder.4.weight f4 [8, 3, 2, 2]
-0.032546397 -0.29261014 -0.25553206 -0.37411666 -0.37614593 -0.12842692 -0.019404085 -0.036775496
-0.17099749 -0.19450584 -0.10114746 -0.2755996 0.26468948 0.060661066 -0.06522971 0.27339995
-0.18096282 0.3328451 -0.063849926 0.267368 -0.09023487 0.25936306 0.19422854 0.036124848
-0.19901231 0.014029208 -0.005509348 0.10068447 0.1329699 -0.08454023 -0.18290785 -0.17043684
-0.12951443 -0.10778608 -0.19347563 -0.029339153 0.2537363 0.03781933 -0.12394197 0.08887023
0.16843976 0.031909116 0.1695295 0.03218892 0.20954512 0.11059169 -0.043645702 0.23918824
-0.14150718 0.32957152 0.29269814 0.26319128 0.1456158 -0.13165833 0.059757125 0.14032768
0.1913785 -0.06203428 0.21348289 0.26501706 -0.07868639 0.1487863 0.19307704 0.11984092
0.26823813 0.076611735 0.18503414 0.10615935 0.1973928 -0.024239678 0.25447342 0.065521605
0.07687099 0.12807448 0.15790138 -0.15881075 0.13135317 0.02541101 0.13882436 0.20387726
0.0030369943 0.063508146 -0.17477669 0.13175702 -0.04209472 0.17170717 -0.22744079 -0.23588295
-0.2719051 -0.14304283 -0.09851755 -0.1335706 -0.104860514 0.12573072 -0.11436322 -0.059027247
00000000: 5f4f 05bd ffd0 95be 19d5 82be 388c bfbe
00000010: 3396 c0be 5982 03be 51f5 9ebc e7a1 16bd
00000020: f719 2fbe 8a2c 47be 6626 cfbd 641b 8dbe
00000030: 6185 873e bd77 783d 2797 85bd 14fb 8b3e
00000040: 514e 39be ac6a aa3e c0c3 82bd 75e4 883e
00000050: 0fcd b8bd 3ccb 843e d9e3 463e a6f7 133d
00000060: e2c9 4bbe c3da 653c c387 b4bb a933 ce3d
00000070: 4329 083e 6e23 adbd 324c 3bbe ff86 2ebe
00000080: 6e9f 04be f3be dcbd 7a1e 46be aa58 f0bc
00000090: b9e9 813e 71e8 1a3d 4ad5 fdbd 9801 b63d
000000a0: 797b 2c3e 22b3 023d 2499 2d3e 87d8 033d
000000b0: ff92 563e e57d e23d d6c5 32bd c3ed 743e
000000c0: 42e7 10be 99bd a83e 88dc 953e 02c1 863e
000000d0: 4f1c 153e 71d1 06be e3c3 743d 0fb2 0f3e
000000e0: baf8 433e a817 7ebd 429b 5a3e 51b0 873e
000000f0: 5426 a1bd 705b 183e fdb5 453e 286f f53d
00000100: 8256 893e 9de6 9c3d 9779 3d3e 136a d93d
00000110: 5721 4a3e 4a92 c6bc 574a 823e 3130 863d
00000120: 8a6e 9d3d f525 033e e6b0 213e 499f 22be
00000130: 7281 063e c02a d03c f927 0e3e 33c5 503e
00000140: 4f08 473b 8f10 823d a9f8 32be 50eb 063e
00000150: 836b 2cbd 01d4 2f3e 3de6 68be 4d8b 71be
00000160: 2537 8bbe d279 12be 92c3 c9bd bbc6 08be
00000170: 1cc1 d6bd 8ebf 003e 4437 eabd 8ec6 71bd

decoder.4.bias f4 [3]
0.32600245 0.12378134 0.28771573
00000000: cbe9 a63e 1281 fd3d 7a4f 933e
