conv_autoencoder-1.pth (torch_old, 26174 bytes, 10 tensors)

encoder.0.weight f4 [16, 3, 3, 3]
00000000: c995 3fbe 57ef 123d 77c1 54be d1bd 89bc
00000010: d6cd 11be 1bb6 b9bd e296 fdbd d24f 55bd
00000020: e39e 4dbe 7131 41be 1e5c f8bd 44ec c3bb
00000030: 644d 56be 375f 07be 63f0 53bb f5a0 8abc
00000040: 7c01 c3bb 530b 34be 309f 48be 3f8a 9f3d
00000050: b34d dcbd 741a 55bd df77 49be fbf8 0dbe
00000060: 7e1a 6bbc 1cea 35be 3240 aabd 8020 16be
00000070: 0a47 43bd 0e00 9dbd 7523 79be 1bff 8c3d
00000080: e5f6 833d 249f 61be 0630 79be 4e37 f1bd
00000090: 40e1 4fbe b6d5 08be 33a8 64bc fb0f 083d
000000a0: 6d12 55bd 768f 93bc e883 9a3d f8ef 20bd
000000b0: 8872 0ebe a3a6 ef3d a2e4 4b3d 02bd b3bd
000000c0: d387 d0bd db74 903d 2e65 e6bd 3848 65bd
000000d0: 8668 60be 40cb 3ebc 85c4 3e3d 485c f43d
000000e0: 1e9e 6a3e 5cfb aa3d 6565 403e d103 7b3e
000000f0: e6ab acbd 635f a9bd 9b82 593e bd7e 903e
00000100: c601 2b3e a5a4 683c 4b7c 4a3e 22b5 933c
00000110: dc69 8c3e 8586 273e 7bf7 553e 7009 503e
00000120: 2a69 a73c ce06 e33d eeb9 893e c0f9 1abb
00000130: 9ef5 6f3e b558 9a3e 8e56 923e 77d3 9f3e
00000140: c420 0d3e 6b59 dcbd 89fd b2bd c95f 4cbe
00000150: 02cc 3abc c704 5bbd 0c56 bfbc 5014 6bbe
00000160: 411c 73be 94b6 1cbe 4201 3bbe 8c7d 843d
00000170: 1be0 1bbe b996 42bc 809b c1bd 94e7 093d
00000180: b3b1 e33d 0256 b5bd 0eec d63d 997e 2dbe
00000190: 716e 01bd c9a7 60bc 6ed3 8abd 4da6 6a3d
000001a0: d0fe ffbc 06b9 68bd 2555 0f3e 7e3e c1bc
000001b0: f3b1 94bc e14a 0ebd 3efb 73be f0ec 6c3d
000001c0: 7fc8 8e3d 6ce5 0bbe 0bd2 4dbe 8f5c d43d
000001d0: 9d9d 70be dfe4 38bd 4dd1 e13d 643d 16be
000001e0: e5cf 883d 9e0f 68be 4ae5 9ebd a43c 5cbd
000001f0: 49e3 4dbe 2060 0cbe cb21 f3bd c770 c4bb
00000200: 20f3 26be 9e9d 33be 6196 febc 0954 ff3d
00000210: 101e f03d a0d7 fabd 7a15 59bd 047f 37be
00000220: a831 6cbe c70b cd3d de4d e6bc 6cc4 1abe
00000230: 6726 a2bd 8c71 1dbe 96fa 58bd 5507 62be
00000240: 5bf6 3cbe 3f6c 69be 11de ce3d bb51 ad3d
00000250: 2559 e93d 676b cbbd f884 843d aea8 e43d
00000260: c6e1 ba3d 38eb 33ba 86bf bfbd 7cfa efbd
00000270: 2989 52bd 560a 53be f258 b4bd 12f0 5fbb
00000280: 07ab 41be d4fe cd3d 3d35 583d e44d 39be
00000290: 90f4 80bd 6971 2ebe 712c 31bd a697 bebd
000002a0: 2e1e 1abe cd28 9dbd 8a1c 3c3d c56a f73c
000002b0: 2fe9 17bd 1377 4bbe 894b 4fbe 2fe3 3dbe
000002c0: 3fbd 3ebe d408 f3bd abfe 51be 4461 31bd
000002d0: 9e4c b93d acdc 843d 4dc2 46bd fb1d f3bd
000002e0: 0ec3 14be 4c6b 853b 4b99 8e3d 84f3 9b3b
000002f0: bb3c 30bd 0629 83bd 786a 3d3c b15d a8bd
00000300: d409 28be 7ae1 34bd 7e92 47be 5d60 81bd
00000310: bb7c 8cbd d843 0ebe 7954 b63d 12de bcbd
00000320: b499 13be ceb2 cebd aea0 c0bd 1033 f43d
00000330: 5c9a f9bd f434 46bd c618 183e b119 65bd
00000340: 288a d7bc f27f 0ebe b18e d83d bf84 1b3d
00000350: 7a65 aa3d d905 43be 0828 debd 5716 debd
00000360: 7a87 83be e302 17be e6bf 87be eacb 19be
00000370: 7355 613d c77c 85be 9af4 73bd 4186 81be
00000380: 8354 35bd 6174 023b c149 193d d71c 44bb
00000390: f111 56be d090 4ebe 651e 10be 7643 adbd
000003a0: 1a80 173c 43b3 bcbc 2912 e43c eb04 dfbc
000003b0: 9d5e 16be f76e 9b3d 9d1f f33d ef16 df3b
000003c0: 2b76 f9bd 9e3a 8d3d a6de 66be b7bb bd3d
000003d0: b51d 02bd 363c 903e bbdc 9c3c d806 2e3e
000003e0: 4fd9 373c df03 993e 1a1e 853d 8ac1 303d
000003f0: 4e79 8d3e d05c 223e afcd aa3d c9e5 a83c
-0.18709482 0.035872784 -0.20776926 -0.016814144 -0.14238676 -0.09067937 -0.12382294 -0.052078076
-0.20080142 -0.18866517 -0.12126945 -0.005979093 -0.2092796 -0.13219915 -0.0032339327 -0.016922453
-0.0059511047 -0.17582445 -0.19591975 0.0779004 -0.107570074 -0.05202718 -0.19674633 -0.1386451
-0.014349578 -0.17765087 -0.083130255 -0.14660835 -0.04767517 -0.07666026 -0.24329932 0.06884595
0.06443576 -0.22033364 -0.24334726 -0.11778127 -0.2030077 -0.13362774 -0.013956117 0.033218365
-0.052019525 -0.018012743 0.0754469 -0.039291352 -0.13910878 0.11701705 0.049778588 -0.08776285
-0.101821564 0.070535384 -0.11249767 -0.055977076 -0.21914873 -0.011645138 0.046574134 0.11931664
0.2291188 0.08348724 0.18788679 0.24513175 -0.084312245 -0.08270147 0.21241228 0.28221694
0.16699895 0.014199411 0.19773977 0.018030707 0.27424514 0.16359909 0.20895188 0.203161
0.020435888 0.11085282 0.26899666 -0.0023647398 0.2343354 0.30145803 0.2858166 0.31216022
0.1378203 -0.107592426 -0.08739764 -0.19958414 -0.011401178 -0.053471353 -0.02335646 -0.22956967
-0.23741247 -0.15304023 -0.18262199 0.06469259 -0.15222208 -0.011876755 -0.094534874 0.033668116
0.11117878 -0.08854295 0.104942426 -0.16942824 -0.031599466 -0.013711878 -0.06778608 0.057287503
-0.031249434 -0.056817077 0.13997324 -0.023589369 -0.018151259 -0.03473938 -0.2382631 0.05784315
0.06971835 -0.13661736 -0.20099656 0.10369217 -0.23497625 -0.045140143 0.11026249 -0.14671856
0.06680278 -0.22662207 -0.07758577 -0.05376877 -0.20106234 -0.13708544 -0.1187168 -0.0059948894
-0.16303682 -0.17540595 -0.031077566 0.124672 0.11724484 -0.122481585 -0.052998997 -0.17919546
-0.23065817 0.10012012 -0.028113302 -0.15113991 -0.07917481 -0.15375346 -0.052973352 -0.2207311
-0.18453352 -0.22795199 0.101009496 0.084628545 0.11393956 -0.09932595 0.06470674 0.111649856
0.09125094 -0.00068633584 -0.09362702 -0.11717698 -0.051400337 -0.20609412 -0.088060275 -0.0034170193
-0.18912898 0.1005837 0.052785147 -0.18096119 -0.062966466 -0.1703545 -0.043255273 -0.093062684
-0.15050575 -0.07673798 0.045925654 0.030202279 -0.037087616 -0.19869642 -0.20243658 -0.18543695
-0.18626879 -0.11866918 -0.20507304 -0.04330565 0.09047817 0.06487402 -0.048525143 -0.11870953
-0.14527532 0.0040716287 0.06962832 0.004759254 -0.043026667 -0.06404309 0.011561029 -0.08220995
-0.16409999 -0.044160344 -0.19489476 -0.06317208 -0.06859728 -0.13893068 0.08902831 -0.09222044
-0.14414102 -0.10092698 -0.09405647 0.11923802 -0.12187645 -0.048390344 0.148532 -0.055932704
-0.026310995 -0.13915995 0.10574091 0.037968393 0.08320136 -0.190452 -0.10847479 -0.10844105
-0.25689298 -0.14747195 -0.26513594 -0.15019193 0.05501313 -0.2607176 -0.059559442 -0.2529774
-0.04427005 0.0019905793 0.037423853 -0.0029924416 -0.20905282 -0.20172429 -0.14074095 -0.08460133
0.00924685 -0.023034697 0.02784069 -0.027224025 -0.1468453 0.07589524 0.11871264 0.006808154
-0.12180742 0.06895946 -0.22545871 0.092643194 -0.031766612 0.28170937 0.019148221 0.16994798
0.011221244 0.29885766 0.06499882 0.043153323 0.2763161 0.15855718 0.08340012 0.020617383

encoder.0.bias f4 [16]
00000000: 3b50 e2bd 745a 093e 149a 383e f00e 05be
00000010: 0347 11be 86d0 9f3c 9bf0 1dbe 508a 14be
00000020: e265 08bd a79f 0f3e 6fe0 e93d 15f3 17bd
00000030: 3a89 0cbe 1b9e 9b3d 959e 703d b123 523d
-0.11050459 0.13413411 0.18027526 -0.1299398 -0.14187245 0.019508611 -0.15423815 -0.14505887
-0.033300288 0.14025746 0.114197604 -0.037097055 -0.13724223 0.075985156 0.058744986 0.05130357

encoder.3.weight f4 [8, 16, 3, 3]
00000000: 9ec7 923d 3229 de3b 2348 003e ca85 c13c
00000010: aeb2 3abd f45e 823d d337 903a ed4d 7dbc
00000020: 769f ba3d 9850 c73d c6ed 98bd d69a 9e3d
00000030: 7b2f df39 abea 0dbe 7b1d 053d 24d1 093e
00000040: 3a83 89bd f195 e83d c3c5 c0bd 2bb8 28be
00000050: b89f 37be 5d66 53be abda 24be f3ab 2ebe
00000060: 0da8 2abe b739 dabd 50f3 c5bd e834 883d
00000070: 8fc4 6d3d cf9d 7c3d 170c 4c3a 8a43 25bd
00000080: 1831 7d3d b4b3 013e b823 8f3c 94c4 b13d
00000090: 00dc 193d c9b2 70bc 36be 8c3d 92eb 7ebd
000000a0: 051c 3bbe 1fc5 723d 1a74 ad3d 615d 153d
000000b0: bad9 bf3d c34f e23d b19d 80bc ed65 313d
000000c0: bbf9 02bd 7aaa ebbd 6abe 81bc 7f26 e83c
000000d0: 60ef e33c 0ee8 e03d 9a11 143d 0421 143a
000000e0: 650f ee3d 254a febc 7682 c6bd cd49 f43b
000000f0: 894b 393d 82b3 0bbd ac3c 803d 21d4 b53d
00000100: d299 a7bc 41ab 393d d1eb b83c 2824 c8bd
00000110: d69e b43c 3cc9 923d 7300 a13c 35e8 1c3e
00000120: 57e3 d33d 2f6a da3c aff7 0c3e 8503 9ebd
00000130: 3321 3fbe 6de0 5f3d 0dbf 8c3d 747a 5d3d
00000140: 7516 193e eb1c d6bd a11a 29be 2141 4fbe
00000150: 2e9a 11be 81f0 0dbe 1ff5 47be 1871 26be
00000160: 0a33 3abe 2382 4abe f3fe 693d bb2b a0bc
00000170: b241 4b3c 6899 44bd 1b97 6ebd d617 8fbd
00000180: fce6 d03d bbdb c3bc 0082 f13c 66f4 1abe
00000190: 6534 5abe 5ed4 42be bea0 21be e869 37be
000001a0: 2574 42be de16 d6bd 31d6 01be 3d4b 52be
000001b0: 47f6 413d 512f f0bc e64f fe3c 4143 20bd
000001c0: bf95 2bbd 85d4 e9bc 8058 d73d b1fc 0ebd
000001d0: 59d5 893d 086e 7c3c 52f6 11bd 375a b33c
000001e0: 90fb 48bd a7ad acbd 9f85 693d 3bae f63c
000001f0: 3a00 693d ca98 d13d ed72 53be 7e05 8fbe
00000200: 71e8 76be 1b68 83be ddc5 5fbe 4c0c 56be
00000210: db25 8bbe 3361 7abe fe49 83be c08e f43d
00000220: 8b76 483d ad95 1a3c 1587 23bd 0a23 ecbd
00000230: 94fd 59bd 0db9 253d a18a 8e3d 66b8 1e3d
00000240: 5a88 35bc ba08 773d 8fb3 553d aedf 68bc
00000250: 90b8 b9bc b5b2 c03d 41bd d43d ed17 203e
00000260: 45aa 9d3d d16d 9e3d aaa4 183d 55a8 553d
00000270: 9c2b a03d a394 c23c 14d5 8e3d 132c b93c
00000280: 65d7 bb3c 3da9 ac3b fd12 aabd 9669 b8bd
00000290: 8382 10be ce16 30be f879 88bd 0098 a4bd
000002a0: b1d0 c5bd 11ed 12be 8fc1 fabd 941e 1f3d
000002b0: 8141 0e3d 8c3f 1f3e d85d d23d df0f 083e
000002c0: 6abb c03d 1664 0f3e d9d8 263d 028c cc3c
000002d0: 45ec 843d 64dd 033e 750c 203e 5d0c 0d3e
000002e0: 29da 163e 0d36 d93d 67b8 373d abb2 413e
000002f0: d567 dc3d 7cff 8c3c 8f15 ec3d 3df1 463d
00000300: 9132 483d 1539 db3d 00d0 be3d 1cac 7e3d
00000310: d2c5 873c 0fab b53b 96db 8a3d 7fde 953d
00000320: 37e7 193e a3fe 453d 3552 9e3d 078a 003e
00000330: 88c2 083e 3a3e 1f3d 2657 c73d 4536 2b3d
00000340: 62a5 003e 681e 563d d5fa f73d d00d e33d
00000350: d96f 413e 4671 993c 7131 1c3d 80a5 0b3e
00000360: 269a c73d e2c1 303e 9253 ea3d a7cc e43d
00000370: dc42 693d cc44 e43d e7eb 0f3e 6bd1 aa3d
00000380: 83ee 1c3e 2bcd a4bd 60cf 23be b285 0ebe
00000390: 9198 7abd dd5f 87bd e3b5 31be 4df5 99bd
000003a0: 71c6 20be 1c1f 08be e20c cb3c bbef 173c
000003b0: f04e 5f3d 37c7 703d 1521 803d 865d d23c
000003c0: 52c4 b03d b55d 073e a998 8d3d bd87 c7bc
000003d0: b9bf ecbd 7bde afbd 0b7c fbbd 76e2 69be
000003e0: 0494 94bd e48d 2abe 57ec 15be 68a9 f3bd
000003f0: 5ca1 af3d 111f 0b3e e54c dd3c 8ed2 1d3c
0.0716698 0.006779813 0.12527518 0.023623366 -0.04558056 0.06365767 0.0011002965 -0.0154604735
0.09112446 0.09732169 -0.07467227 0.07744376 0.0004256925 -0.1385905 0.032498818 0.13458687
-0.067144826 0.11356724 -0.0941272 -0.16476505 -0.17932022 -0.20644517 -0.1609904 -0.17057781
-0.16665669 -0.106555395 -0.09665549 0.06650716 0.05804878 0.061673936 0.0007783784 -0.040347613
0.061814398 0.12666208 0.017473087 0.086800724 0.037563324 -0.014691063 0.06872217 -0.062236376
-0.18272407 0.05927002 0.0846941 0.036466006 0.093677 0.110503696 -0.015700193 0.043310095
-0.031976443 -0.11507125 -0.015837867 0.028338669 0.027824104 0.10981761 0.0361496 0.00056506717
0.1162403 -0.031041214 -0.09692852 0.007455087 0.04523805 -0.03410674 0.06261572 0.08878351
-0.02045909 0.045329336 0.022573384 -0.09772521 0.022048395 0.07167289 0.019653535 0.15322955
0.10346096 0.02666196 0.13766359 -0.07715515 -0.18665008 0.05465739 0.068723775 0.05407186
0.14949973 -0.104547344 -0.16514064 -0.20239688 -0.14218971 -0.13861276 -0.195271 -0.1625408
-0.18183532 -0.19776206 0.057127904 -0.019552102 0.0124058 -0.047997862 -0.058249574 -0.06986968
0.10200307 -0.023908487 0.029480934 -0.15132293 -0.2130905 -0.19026324 -0.15783975 -0.17911494
-0.18989618 -0.1045358 -0.12679364 -0.20536514 0.04735401 -0.029319437 0.031043958 -0.03912664
-0.041890856 -0.02854372 0.10514927 -0.034908954 0.06730146 0.015407093 -0.0356353 0.021893604
-0.049068034 -0.08431559 0.057012197 0.030112376 0.05688498 0.1023422 -0.2064931 -0.27933878
-0.24112107 -0.25665364 -0.21852823 -0.20903128 -0.2717732 -0.24451141 -0.2564239 0.1194129
0.048941176 0.0094351 -0.039923746 -0.11530121 -0.053220347 0.04045968 0.06960035 0.038750075
-0.011079872 0.060311057 0.052173194 -0.014213486 -0.022671014 0.09409086 0.1038766 0.15634127
0.07698492 0.077357896 0.03726641 0.052162487 0.07820818 0.023752516 0.06974235 0.022604024
0.022929857 0.005269198 -0.08304403 -0.09004514 -0.14112286 -0.171962 -0.06663889 -0.08036804
-0.09658945 -0.14348246 -0.122439496 0.03884752 0.03473044 0.15551585 0.102718055 0.13287304
0.094107464 0.14003024 0.040734146 0.024969105 0.06490377 0.12877423 0.15629752 0.13774247
0.14731659 0.106060125 0.044853594 0.18915813 0.10761992 0.017211668 0.115275495 0.048569907
0.04887635 0.10704247 0.093170166 0.062175855 0.01657382 0.0055440734 0.06780164 0.073178284
0.15029608 0.048338544 0.077305235 0.12552653 0.13355458 0.038877703 0.09733419 0.041799802
0.12563089 0.05227509 0.12108389 0.11086619 0.18890323 0.01873077 0.03813309 0.13637352
0.09746198 0.1726146 0.11441721 0.11171847 0.056948528 0.111459345 0.14054833 0.083407246
0.1532536 -0.08046945 -0.15997076 -0.13918188 -0.061180655 -0.06610081 -0.1735454 -0.075174905
-0.157007 -0.13293117 0.024786416 0.009273465 0.05451864 0.058783736 0.0625631 0.025679361
0.08631195 0.1321934 0.06913883 -0.024356717 -0.11560006 -0.08587357 -0.12279519 -0.22840294
-0.07254794 -0.1665569 -0.14640938 -0.11897546 0.08575699 0.1358607 0.027014205 0.00963272

encoder.3.bias f4 [8]
00000000: a3fb dbbd 35ef 1dbd fb5d 5abd 818e 20bb
00000010: f6cd 37bd ce37 31bc 7783 f7bd fe89 39bd
-0.10741355 -0.038558204 -0.053312283 -0.0024499001 -0.044874154 -0.0108165275 -0.12085622 -0.045297615

decoder.0.weight f4 [8, 16, 3, 3]
00000000: 7db8 8fbc bc07 64b6 6d91 433d 589a fd3d
00000010: 3f32 b3b8 1043 0c3e 4850 133d 995c a9bc
00000020: a067 a0bb 1c13 533d 9130 573c fef7 913d
00000030: a882 38b9 ea71 04b5 7001 2738 a748 0bbd
00000040: e8d9 a23c 2967 4dbd 69d9 833d 1dc2 993d
00000050: 4311 703d 5650 27b5 df2a 403e eb8e 16bc
00000060: 2889 97bd 6532 143e b5dd 4ebd 8ea4 0ebb
00000070: 478c cd3c aa99 c0bc cfcc fa3c 2e9a 04be
00000080: f0e3 fcbc 8f44 e3bc f036 4abd 376c acbd
00000090: fa09 133c 2f00 d93c ff04 1d3d 7fd8 143c
000000a0: 1414 1d3e 0f14 c9bb 99f0 babc 3841 31bd
000000b0: e3a8 2ebd d1a8 8b3d 6cb1 7abd 987c 923d
000000c0: bdc3 8cbd 837f cbbd dfb3 323c 1618 e6bd
000000d0: d933 ab3d 5163 2cbd 55f5 4f3d 2ad3 2d3d
000000e0: 43a9 153d b7e5 1e3c 98db 573d 426d 41bd
000000f0: f3d9 65bc 7318 883d 1d6b 1e3c 4b56 a23c
00000100: fd21 b2bd 8dc1 dabb ac3c 04be 90e9 ddbd
00000110: db3c 0a3e 1d5e 1e3d 35d4 993d f58a 94bd
00000120: 81ac 503b 4981 953d 5a66 d23b dd23 3d3e
00000130: 5b33 513e 2bdf ab3d 9669 5b3d b371 943d
00000140: c11e a03d ee46 e53b 37ad bf35 72dc 943b
00000150: bd9d b13d c0cd 00b5 91d8 9b3d 5294 b33d
00000160: 1573 4335 ccb5 c63c d032 57b5 b329 ff3d
00000170: e733 81bb fe13 7fb8 51f9 0d3e 66c6 f0b4
00000180: 18d7 94bb ce48 8a3c fb85 51ba a0d5 da3c
00000190: 9a98 e43d 1008 1c3d dc5c 49b4 b58b e634
000001a0: 72ef 5bb5 38ed 22bc 0fb6 ec3d b938 7ebc
000001b0: e0a9 9cbc bd8c dd3d e01a db3b d7fa 9ab4
000001c0: c0b2 3a3e a643 dab4 a58b 40bc 2e89 263e
000001d0: f707 dbbc 3024 0c3d cd0a ac3d 86cb a43d
000001e0: 47b7 513c 1125 debd 3f02 37be 944c 183c
000001f0: f668 d2bd c238 8c3d 6bc2 4b3d 5bbe a73c
00000200: 8533 c33c a4f4 723d 5e4c d13c b6ec e43c
00000210: a9d0 e93d c175 ba3d ffba 543d 8893 3bbd
00000220: d3a7 03be e3a6 61bd e1fd b7bd 1118 26be
00000230: 517e 5ebc 653b 943d 2139 6f3d cd65 173e
00000240: 1812 633d 93da db3b fc66 953c 6c68 973d
00000250: e894 95bb e6a1 f13d 92f7 6bbd 91e8 2fbd
00000260: 079a 7c3d 6f4f 263c 2211 9d3d 4315 963c
00000270: 93bb 9737 0936 2730 7a8e 8838 4773 193d
00000280: 9c10 b93d 3253 cc3d 8d64 33bd b8aa 08bc
00000290: 6b9f 8e3d 6a8b 8bb6 6f39 463d 2d75 09bc
000002a0: 8e64 02bd ea34 b83d 4374 ab3d cce5 66bd
000002b0: 0431 173d b9cc 27bd e912 97bc 9c75 463d
000002c0: b550 733b ac86 66bd b0e6 c9bd ba11 bfbd
000002d0: 6b41 45bd 081a 033d 8c58 193d 8473 2a3d
000002e0: 2c4e 243d ad88 4dbe df86 7cbd bca8 30be
000002f0: 1544 2f3d b701 ab3c a324 d6bd f2fb 063e
00000300: ff1c 32bd ec06 8bbb 61b3 363c cb3b 1ebe
00000310: 967a 703d 557c e0bd 30a9 08bd 648c eebc
00000320: 6c61 da3c ee30 1dbc 12cf a53d 84a2 133d
00000330: 247e 30bd 6b08 53bd 0c82 39bd fb7b b13d
00000340: d509 03be 5930 95bd c07f 22be a667 513b
00000350: eea5 f33d bbba 883d 7448 863d a283 4dbd
00000360: 76db c23d 7fdc d1bc 736d 6a3d 415c 023e
00000370: a7f1 b13d f16e 863c 6627 803d 0ad2 ad3d
00000380: 0167 913c 46cc b8bc 532c 8339 e89e 19bd
00000390: 42dc d13d 6ba5 b935 fcb8 193e 431a 0fbb
000003a0: 0833 b1b7 051a d13c 26ee 46bc cf82 e8bc
000003b0: 2f34 01bd f4db 833c 1e4c 0a3d 9633 e5ba
000003c0: cd94 2bbd a46c 3f3d 6591 5c3c f54c a03d
000003d0: 77a7 593d fed8 c63c e09c a036 173f 2d35
000003e0: 4b16 2dba f41b a7bd 5d43 9b3c ce7f 2b3c
000003f0: 312b 11bd 45d3 ecbb b84c e33d 29e3 0db5
-0.017544026 -3.397915e-06 0.04774611 0.12382954 -8.544744e-05 0.13697457 0.035965234 -0.020674037
-0.0048951656 0.051531896 0.013134138 0.07127379 -0.0001759628 -4.93396e-07 3.981724e-05 -0.034004834
0.019879296 -0.05014721 0.06437952 0.07507727 0.058610212 -6.232925e-07 0.18766354 -0.009189348
-0.07399207 0.14472349 -0.050504405 -0.0021765563 0.025091304 -0.023510773 0.030615238 -0.1294944
-0.030870408 -0.027742652 -0.0493688 -0.08419078 0.008974547 0.026489345 0.038334843 0.00908482
0.1533969 -0.0061364244 -0.022819804 -0.043275088 -0.04264153 0.068193085 -0.06120436 0.071526706
-0.068732716 -0.0993643 0.010907142 -0.11235063 0.083594985 -0.042086903 0.050771076 0.04243771
0.036538374 0.009698323 0.052699655 -0.047223337 -0.014029014 0.06645288 0.0096690925 0.019816538
-0.08697889 -0.006675905 -0.1291377 -0.10835564 0.13499777 0.038663972 0.075111784 -0.072530665
0.0031841102 0.0730005 0.0064208927 0.18470712 0.20429747 0.08392175 0.05356749 0.07248249
0.07818366 0.006996981 1.4281021e-06 0.0045428807 0.08672664 -4.798312e-07 0.07609666 0.08768524
7.281063e-07 0.02425661 -8.0167683e-07 0.12459125 -0.003942955 -6.0815357e-05 0.13864638 -4.4847837e-07
-0.0045422427 0.01688042 -0.0007992682 0.026713192 0.11161919 0.038093626 -1.8753366e-07 4.294249e-07
-8.1932296e-07 -0.009944253 0.115581624 -0.015516453 -0.019123971 0.10817859 0.0066865534 -2.8867245e-07
0.1823225 -4.0654885e-07 -0.011752044 0.16263267 -0.026737196 0.0342142 0.084004976 0.080466315
0.012800044 -0.108469136 -0.1787195 0.009295601 -0.10273926 0.06846763 0.04974596 0.02047651
0.023828277 0.05931534 0.02554911 0.027944904 0.11416752 0.09104491 0.051936146 -0.045794994
-0.12856989 -0.055090796 -0.089839704 -0.16220118 -0.013579921 0.07237891 0.05840409 0.14784928
0.055437177 0.0067094057 0.018237583 0.07392964 -0.00456487 0.11798458 -0.05760915 -0.042946402
0.06167033 0.010150774 0.076692834 0.018320685 1.8087949e-05 6.0831035e-10 6.511524e-05 0.037463453
0.09036371 0.09976806 -0.043797065 -0.008341484 0.06964 -4.1587527e-06 0.048394617 -0.008389753
-0.031834178 0.089944676 0.083717845 -0.056371495 0.03691198 -0.040966723 -0.018441634 0.048452005
0.0037126963 -0.056280777 -0.09858453 -0.09329553 -0.04815809 0.032007247 0.03743796 0.04161407
0.040113613 -0.20071669 -0.06165206 -0.17251867 0.042789537 0.020874841 -0.10456207 0.13182047
-0.043484684 -0.0042427685 0.011151166 -0.15452497 0.058710657 -0.109612145 -0.033364475 -0.029119678
0.026657782 -0.009594185 0.08096136 0.03604366 -0.043089047 -0.0515217 -0.045290038 0.086662255
-0.1279672 -0.07284612 -0.15869045 0.0031952648 0.11896883 0.06676241 0.06556788 -0.050174363
0.09514515 -0.025617836 0.057233285 0.12730505 0.0868867 0.016410323 0.06257515 0.084873274
0.017749311 -0.022558343 0.0002501929 -0.03750506 0.10247089 1.3831717e-06 0.15011972 -0.0021835722
-2.1123808e-05 0.025525102 -0.01214174 -0.028382687 -0.031543907 0.016096093 0.033763997 -0.0017486687
-0.041889954 0.046734467 0.013462399 0.078271784 0.053138223 0.024273392 4.7866342e-06 6.453933e-07
-0.0006602748 -0.081596285 0.01895302 0.010467483 -0.03544158 -0.0072273337 0.11098617 -5.2857155e-07

decoder.0.bias f4 [16]
00000000: 1b8e b8bc c989 cebd 56b8 97bd c3cb bf3d
00000010: 8eb3 cabd eb66 5d3c e74b a93c edec 3e3d
00000020: 835c c4bb b455 c8bd 799c 14bd 19db b7bd
00000030: 33eb b2bd ddf6 dc3d 084b 923d db58 fb3d
-0.022528699 -0.10084874 -0.07408206 0.09365036 -0.098975286 0.013513307 0.020666076 0.04661267
-0.0059924736 -0.097819716 -0.036282036 -0.089773364 -0.08736267 0.10789273 0.07143217 0.12272807

decoder.2.weight f4 [16, 8, 5, 5]
00000000: adfc b43c 39b4 8b3d 291a 103c 7607 dfba
00000010: fa03 873d eeab 223c 7fa1 c33c bf67 78bc
00000020: 656b de3b c44d 0b3d a6ac 673d df52 5b3d
00000030: 5616 ae3d ae06 04bb 6c3d a53d 9764 7f3c
00000040: 7c59 5dbd fe56 78bc d1e0 68bc 2302 6a3c
00000050: 0b71 87bd 36c3 5ebd d554 82bc faac ac3b
00000060: a2af 8bbc f834 e2bc 4a59 9a3c fb7a f934
00000070: 4417 353c eaac fa3c 3ce7 fc3c 341f cd3d
00000080: 2e5d 5b3d 9bd1 ed3c 140e a93d 11d5 0b3d
00000090: 1687 21bc 7d8c ea3d ea49 1c3d d679 0a3d
000000a0: 7543 3fbd f1a6 3e3c 2002 a333 2568 8f3c
000000b0: 767e 20bc bace 533d 17d4 9ebb 64e6 353d
000000c0: c243 9c3d 633a 7b3d cc3f 49bd 6232 c1bc
000000d0: bd5c babc f5f4 543c ba90 993c dab2 233d
000000e0: a466 a9bc 0b1a 6cbd b4eb ad3c 14bb d53c
000000f0: 9445 873c 8fd7 9c3c 4f2d 23bd d2c1 e63b
00000100: 4c72 c23d fcca 573d 6fdc a9bd 653d c03b
00000110: 74ab a23c 8427 03bc 7bb5 633d 0f28 54bc
00000120: e8f3 e6bc 1e63 a2bb 9a7f cb3c 9a9f 98bd
00000130: 3ccd 30bd b700 33bd 096f 08bd d427 17bc
00000140: c837 4ebc c6b0 51bd 0109 2a3d 71d8 ffbc
00000150: 75d7 90bc cd07 593d ad58 fd3c b631 723c
00000160: 1ea0 883c db89 ea3c 1173 213d 9f17 243d
00000170: 5f24 c3bc f838 943c c8e5 ad3c f1d0 a8bb
00000180: e65e 1f3d 6955 d1bb 82e1 7abd d905 e0bc
00000190: 3702 533d b9c7 9c3c 932c bf3d fe8d a53d
000001a0: e41f 243d a4e5 a1bb 75d8 df3d ed5d f5bc
000001b0: 2d99 f7ba 5da4 9d3d 4f73 9e3c b6ed 113d
000001c0: c56d d83d 71bb 0e3e 7ccb a73d 707c dd3c
000001d0: 413e 0a3d e86f 283e 35ad 043d d9ad 363c
000001e0: 0a68 193a 3dc0 823d 0946 89bd f57c 55bc
000001f0: df0b 7e3d 4f2c 59bc 59c2 cc3b 8d6b 963d
00000200: ef8e a3bd e196 9c3c 3afb 843d 9a36 86bd
00000210: 9b7f c43c 2986 56bc cfeb 12bd dd2e 423d
00000220: e919 323d c8e9 9e3d e5d4 853c 393f d93c
00000230: e6f3 28bd aa35 64ba 1868 35ba cbff 3dbc
00000240: 6d76 d3bd 9d81 ea3c b630 73bd f73f 833d
00000250: 1141 78bd 277a 073d 20da 783c f0b4 903c
00000260: a924 983c be4e a23c 0603 b03c b096 2d3c
00000270: c325 a0bd 69ad 4fbd d760 b7bc b0c9 9abc
00000280: 404b 5dbd d837 b6bc de34 2fbd 17bd 1a3c
00000290: 5c76 90bd f4a3 6ebd b1f2 213b 354c 5fbd
000002a0: f00f 6abd cf67 d53c 3a98 2abc 96ec 97bd
000002b0: 4c67 2c3b 1384 6fbd fa1b 63bc 9d3e 523d
000002c0: ac29 5d3c e5c5 23bd 23e9 883c 56e5 803d
000002d0: 937c f6bc dcda 83bc 6fca 1bbc 039a f0bb
000002e0: d233 ee3b 7f58 123d 8d34 05bc 69c3 78bc
000002f0: 7c47 563c 8ec9 cb3c dd16 e5bc 8221 1b3c
00000300: 3850 05bc b050 8dbc 74b6 03bd f1f9 7439
00000310: 4c2a 8ebc 1d02 2c3d 5552 1dbd 987e 6e3d
00000320: db74 963c 699d 33bd 5cf6 a4bd 138c c5bd
00000330: 1282 08bd 8848 abbc c2b8 a5bc c24c 4cbd
00000340: 2154 a1bb d0ab a43c 4bc7 de3c 313e 88bc
00000350: 789b 753d 4855 bcbd dec8 943d 4d2e 2ebd
00000360: bbaa 69bd b10a 87bc ac97 96bd 6f4f 88bd
00000370: 645a 59bd f94a 39bd a2b3 b1bc 20d2 5dbc
00000380: 3b99 36bd 0c3d 4b3d 8444 fd3b a836 88b3
00000390: f3fe c8bc 7271 583d 2970 5bbc ab7e aa3d
000003a0: b8f5 6d3d 8999 fb3d 8806 a0bc bdea f8bc
000003b0: c2f5 743d f712 363c 5992 0e3d d0d8 acbc
000003c0: 2cd2 253d 7d76 6d3d f983 5a35 65ed 1c3d
000003d0: 093e b4bb 54c0 803d 9d91 2e3d 8c6b 933d
000003e0: 8244 a03c 43d6 adbc db22 79bd 9031 3cbd
000003f0: d603 8b3c 9552 bdbc b031 edbc 5133 2b3d
0.022093141 0.06821484 0.0087953 -0.0017015773 0.06592555 0.009928687 0.023880718 -0.015161454
0.006787705 0.03400971 0.056561135 0.05354583 0.08500354 -0.0020145583 0.08068356 0.015587947
-0.054040417 -0.015157459 -0.014213757 0.014282736 -0.06613358 -0.054385386 -0.015909592 0.005269644
-0.017051522 -0.027613148 0.018841404 4.6469344e-07 0.01105291 0.03060003 0.03087198 0.10015717
0.05355566 0.029030612 0.08254638 0.034138743 -0.009858867 0.11452577 0.038156427 0.033807598
-0.04669519 0.011636482 7.5906655e-08 0.017505715 -0.009795776 0.05171082 -0.0048470604 0.04440917
0.07630111 0.06133498 -0.049133107 -0.023583595 -0.0227493 0.012997855 0.018745769 0.039965488
-0.020678826 -0.057642024 0.021230556 0.026090182 0.01651267 0.019145755 -0.03983813 0.007042148
0.09494457 0.052683815 -0.082939975 0.005866694 0.019857146 -0.008005027 0.055592995 -0.012949004
-0.028192475 -0.0049556633 0.024841119 -0.074523166 -0.043164477 -0.043701854 -0.033309016 -0.009225804
-0.0125865415 -0.051193975 0.041512493 -0.031231137 -0.017680863 0.052985955 0.030926073 0.01478236
0.016677912 0.028630188 0.039416377 0.04006159 -0.023821054 0.018093571 0.021227732 -0.005151861
0.03890886 -0.0063883555 -0.061250217 -0.027346538 0.051515784 0.019138204 0.09334674 0.080837235
0.040069476 -0.0049407054 0.10929958 -0.029952014 -0.0018890254 0.076973654 0.019342093 0.03562709
0.10567812 0.1393869 0.081931084 0.027036875 0.033750776 0.16448939 0.032391746 0.011149847
0.000585199 0.06384323 -0.06702811 -0.01303028 0.06202304 -0.013255193 0.006248754 0.073447324
-0.07986247 0.019114913 0.0649323 -0.06553383 0.023986628 -0.01309351 -0.035869416 0.047407974
0.04348174 0.07759434 0.016336868 0.026519405 -0.041248225 -0.00087055063 -0.0006920113 -0.01159663
-0.10325322 0.028626258 -0.059372626 0.06408685 -0.060608927 0.033075478 0.015188724 0.017664403
0.018572168 0.019812938 0.021485817 0.010595009 -0.078197025 -0.050702486 -0.022385044 -0.018895
-0.054026842 -0.022243425 -0.042775027 0.009444497 -0.07053825 -0.058261827 0.0024711306 -0.054516036
-0.057144105 0.026050476 -0.01041227 -0.07418172 0.0026306687 -0.058475565 -0.013861651 0.051329244
0.013498705 -0.03998365 0.01671273 0.06293742 -0.030088698 -0.016095571 -0.009508713 -0.0073425784
0.007269361 0.035728928 -0.008130205 -0.015183308 0.013078567 0.024876382 -0.027965004 0.009468438
-0.008136801 -0.017250389 -0.032156423 0.00023362764 -0.017354153 0.041994203 -0.038408596 0.058226198
0.018366268 -0.04385129 -0.08054802 -0.09645858 -0.03332717 -0.020908609 -0.020229701 -0.04987789
-0.004923359 0.020101458 0.02719464 -0.016631218 0.05996272 -0.091959536 0.07264875 -0.042524625
-0.057047587 -0.01648459 -0.07353148 -0.06655776 -0.05306472 -0.045237515 -0.0216921 -0.013538867
-0.044579726 0.049618766 0.007729115 -6.3429354e-08 -0.024535632 0.052842565 -0.01339344 0.08324941
0.058095664 0.12285144 -0.019534364 -0.03038537 0.059804685 0.01111292 0.034807537 -0.021099478
0.04048364 0.057974327 8.1403374e-07 0.038312335 -0.005500559 0.06286684 0.042619336 0.07198247
0.019563917 -0.021220332 -0.060824256 -0.045945704 0.016969603 -0.023110667 -0.028954357 0.041796986

decoder.2.bias f4 [8]
00000000: b9e4 b03d 5a34 dabd 35eb 893c e3d2 193d
00000010: dfe3 afbd 3ff2 4eba 9265 d33b e221 7e3d
0.086373754 -0.106545165 0.016835788 0.037554633 -0.08588385 -0.0007894374 0.006451317 0.062044032

decoder.4.weight f4 [8, 3, 2, 2]
00000000: c2bd 583e f53c 713d 41ea 943e 6654 08be
00000010: 31c0 83bd 1bc8 a93d bd5d 3cbc a185 293e
00000020: 7e14 913e f6e7 febd 969c 8d3e 439f 9a3e
00000030: 840b 74be 8e21 b7be e8bc 7ebe 658f 7fbe
00000040: aaf7 86be 7083 90be 5bab c8bc 62bd 83be
00000050: 00de 40be b8bf 63be 3938 72be 2763 48be
00000060: 1cc9 8a3d 17e2 71bb 4d2e 593c 98e4 0c3e
00000070: da03 1a3e cb56 413e 4340 3e3e 2e20 003e
00000080: d7f3 16bc 6684 9d3d 8edc 4d3e 0b0c c53d
00000090: 643d 20be 41f9 4a3c fdbc e7bd d272 533e
000000a0: ed84 b63e 6473 933e a96a 643e 9443 303e
000000b0: 883f fabd 21e4 c93e 877b 5abd 5dc5 dc3b
000000c0: 0db6 47be 6bb5 82bc c48b b6bd 300f b0bd
000000d0: 1e4b 98bd 9723 dabd c0a7 fdbd 4a99 bcbd
000000e0: 2f16 59be d2e5 84bd e6ae b5bd 9f1f 2abe
000000f0: be7f 1ebd eae6 50be 118f 30be 2118 41be
00000100: 5494 6cbe 9edd 8abd ccb6 cebd d37c 37be
00000110: 3431 bfbd cecb 34be ab2e 16be 4189 723d
00000120: 9bf7 11be 2f91 efbd fc8a 943d e26a 633d
00000130: 9893 0c3d eb08 02be ef84 263e 4f45 ac3d
00000140: 0d9b 453d 1966 663d b666 82be 5239 923d
00000150: d355 953d e20a 1b3e bd7b 1abe 077d 593e
00000160: 89ba 88bc ca74 6fbe b81e 343d 0681 54be
00000170: 8158 9d3e 19b5 ae3e 0f8a 0d3e 0c74 033d
0.21166137 0.058896024 0.29084972 -0.13313445 -0.06433142 0.0829012 -0.011496958 0.16554882
0.28335947 -0.12446587 0.27658528 0.30199632 -0.23832518 -0.35767788 -0.2487675 -0.24957044
-0.26360828 -0.2822528 -0.024495771 -0.25730425 -0.18834686 -0.22241104 -0.2365426 -0.19569074
0.0677664 -0.0036908442 0.013255668 0.13759077 0.15040532 0.18880765 0.18579201 0.12512276
-0.009213409 0.076912686 0.20103666 0.09621438 -0.15648419 0.012388528 -0.113153435 0.20649269
0.3564829 0.28798974 0.22306313 0.17213279 -0.12219149 0.3943186 -0.05334046 0.0067373947
-0.1950304 -0.015955647 -0.08913377 -0.08596647 -0.074362025 -0.106513195 -0.123855114 -0.09208925
-0.21199869 -0.06489147 -0.0887125 -0.16613625 -0.038696043 -0.20400587 -0.17242076 -0.1885686
-0.23103458 -0.067805514 -0.100934595 -0.1791871 -0.093355566 -0.1765587 -0.1466624 0.059212927
-0.1425461 -0.116976134 0.07253072 0.055521853 0.034320444 -0.12698714 0.16261648 0.08411657
0.04824357 0.05624971 -0.25468987 0.07139839 0.0729176 0.1514087 -0.15086265 0.212391
-0.01669051 -0.23384395 0.04397461 -0.20752344 0.30731586 0.34122542 0.13822196 0.032093093

decoder.4.bias f4 [3]
00000000: c870 793e 0a9c 833e ae4d a6bd
0.24359429 0.25704986 -0.08120285
