conv_autoencoder-7.pth (torch_old, 26174 bytes, 10 tensors)

encoder.0.weight f4 [16, 3, 3, 3]
000000 ee 82 15 3e 97 73 ce bd f3 e2 86 bd 03 9f a0 3d
       0.14600727 -0.10080641 -0.06586256 0.07842829
000010 47 cc 6c 3e ca 21 91 3c 6f 44 b9 bd 56 a9 96 bc
       0.231248 0.017716307 -0.09046256 -0.018391293
000020 4a 66 a8 bd e5 bb dc bd e2 c8 0f 3d 8e 73 4d 3e
       -0.08222635 -0.107780255 0.035103686 0.20063612
000030 a8 28 da 3d b8 a0 d1 bd d9 cf a6 bc bd 5e 5e 3e
       0.10652286 -0.10235733 -0.020362781 0.21715827
000040 9d e6 6d 3d c1 f8 9d bd 36 d1 b8 3c 24 5b de 3d
       0.058081258 -0.07713462 0.022560697 0.108572274
000050 08 d0 49 3e ab bc 8b 3d 11 8a c5 bd fc f0 ac 3d
       0.19708264 0.06823095 -0.09645475 0.084444016
000060 eb 16 0a 3e 21 14 22 3e 6d 63 05 3d d5 2d 65 3e
       0.13485305 0.15827991 0.032565523 0.22380765
000070 fb dc ae bc 65 0d 59 3e c5 f1 83 bb 71 42 59 3e
       -0.021345606 0.21196516 -0.004026624 0.21216752
000080 69 39 c2 bc 86 63 25 3e 98 b5 81 3e 08 47 03 3e
       -0.023709016 0.16151246 0.25333858 0.12820065
000090 bc dd 84 3c a0 6c 0a 3e 66 2d 1d 3e 54 ec eb bd
       0.016219012 0.13518 0.1534935 -0.115196854
0000a0 07 30 60 bd 54 ce 0b 3e 57 6f 35 3e 62 de 1e bd
       -0.054733302 0.13652927 0.17718254 -0.0387863
0000b0 4b ee 01 be 86 84 1a 3e 14 ed 9b bd 11 c7 26 3e
       -0.12688558 0.15089616 -0.076135784 0.16286875
0000c0 32 1a 90 bc f5 e6 62 3e ea d2 28 bd 59 88 b2 bd
       -0.017590616 0.22158416 -0.04121677 -0.087174125
0000d0 25 94 21 3e 1e 63 a7 3d da ff 8f 3c 2a 06 2b 3e
       0.15779169 0.08173202 0.017578054 0.1670157
0000e0 51 8e 41 3e e3 a4 ae 3d a7 60 9c 3d 71 50 2e 3e
       0.18901946 0.085275434 0.076356225 0.17022873
0000f0 25 b7 1d 3e 4d 75 73 3e 62 6a ce ba 07 53 3f 3e
       0.15401895 0.23775215 -0.0015748257 0.18684016
000100 09 95 3f 3e 5a 74 f2 bd 4d fd 95 3d f6 8a 81 3d
       0.18709196 -0.118385985 0.07323704 0.06325333
000110 6c 29 73 bd 7b 27 9b bd b8 8c 1c 3d 12 90 fd 3d
       -0.059365675 -0.0757589 0.038220137 0.12380995
000120 35 bb 4e 3c 7e 30 a8 3d d3 68 f4 bd 33 d4 21 3e
       0.012617876 0.08212374 -0.11934056 0.15803604
000130 5a d5 50 bc 03 84 7f 3e e6 0c 56 bd 0f 84 08 3c
       -0.0127461795 0.24952702 -0.052258395 0.0083322665
000140 bb c7 82 3d cb 11 e4 bd b0 11 3a 3e 27 73 83 bd
       0.06385752 -0.11136206 0.1817081 -0.06418448
000150 1b 3a 6c 3e 2a 93 4b 3e 65 27 79 bd ba dd a2 3d
       0.2306904 0.19880357 -0.060828585 0.07952447
000160 bf d4 4f 3e 36 cc 02 bd 92 da 0e 3b d8 ab 76 3b
       0.20296 -0.031933032 0.0021797759 0.0037639048
000170 b6 47 e4 3d 45 69 2b 3e bf 9b 07 3e 2f a0 f6 bc
       0.1114649 0.16739376 0.13243006 -0.030105678
000180 54 dd 69 3e 9b c2 77 3e 19 27 99 bd f5 b6 c3 bd
       0.22838336 0.2419533 -0.074781604 -0.09556381
000190 47 ce 80 3d 99 62 92 39 d7 26 8f bd a3 3c 31 3d
       0.06289344 0.0002792075 -0.0698983 0.04327072
0001a0 06 fe 76 3e fb ed 57 3e ba 81 82 bc d3 42 a6 3d
       0.2412034 0.21086876 -0.015931 0.081182145
0001b0 93 15 91 be 98 22 a6 be 60 19 61 bd ba 7c 78 be
       -0.28336772 -0.32448268 -0.05495584 -0.2426633
0001c0 ee 70 af be c9 2b 9a bd fd b2 9a be ca ed 63 be
       -0.34265846 -0.075278826 -0.30214682 -0.22258678
0001d0 1e c9 2d be 77 aa a6 be 76 25 9a be 45 31 32 3c
       -0.16971251 -0.3255193 -0.30106705 0.010876005
0001e0 11 ce 34 bd fc db ac be 43 9b 44 be 94 42 ae be
       -0.044141833 -0.33761585 -0.19199853 -0.3403517
0001f0 a3 a6 84 be 95 78 af be 77 29 b5 be 80 fe 23 be
       -0.25908384 -0.34271684 -0.35383198 -0.16015053
000200 3f f6 da bd a1 aa 27 be 53 69 90 be 1d 7c f6 bd
       -0.10691499 -0.16373684 -0.28205356 -0.120353915
000210 8b fc ca bd 11 f0 a8 bc cb ec a4 be 9d c2 5e be
       -0.0991145 -0.020622285 -0.3221191 -0.21753927
000220 04 7a 38 bd 52 f2 0d 3c f2 bf 7f bd aa 05 9b be
       -0.04503824 0.008663731 -0.062438913 -0.3027776
000230 4d ab 8d be 53 26 4f bd 89 56 6c bd 5b c8 85 be
       -0.27669755 -0.05057366 -0.057699714 -0.26129422
000240 03 17 4f be 9f 21 57 be 74 39 a9 bd 8e d1 b2 be
       -0.20223622 -0.21008919 -0.082629114 -0.34925503
000250 bc b6 b0 be cf 48 19 be 46 81 81 be 38 25 2b bd
       -0.34514415 -0.1496918 -0.2529394 -0.04178354
000260 18 27 9d bd 67 3a 38 be 61 79 97 bd 09 6b 31 be
       -0.07673472 -0.17991029 -0.07396198 -0.17325987
000270 85 ba 74 be 38 16 c2 be 76 28 b3 bd 14 81 3b be
       -0.23899277 -0.37907577 -0.08747952 -0.18310958
000280 65 f8 42 be 55 dc b8 be 25 3f 27 bd af 9d a3 3c
       -0.19040067 -0.361056 -0.040831704 0.01997265
000290 cb 5e 30 bd 0b 1e 68 3e 36 21 94 3c a1 5a 20 3e
       -0.04305915 0.2266771 0.018082242 0.15659572
0002a0 a1 7a e3 3d 80 03 40 bd 28 53 5d 3e be 73 d4 bc
       0.11107374 -0.046878338 0.21613753 -0.025934096
0002b0 06 59 1c bd 39 06 ec 3d 00 4c 6a 3e 1f ab 67 3e
       -0.038170837 0.115246244 0.22880554 0.22623871
0002c0 0c ae 13 3d 52 d5 07 be 99 25 76 3e cb 11 08 3e
       0.036054656 -0.13264969 0.2403778 0.13288037
0002d0 78 50 52 3e 8a ec 3b 3e 39 5b ee 3d 6d 7b 0e 3e
       0.20538509 0.18351951 0.11638493 0.1391427
0002e0 df 37 2b bd d3 c7 9d bd 92 77 ba bd 70 d4 52 3e
       -0.04180133 -0.07704129 -0.091048375 0.20588851
0002f0 61 72 70 bd cf fc ca bd cc 17 6a bc 53 45 71 3e
       -0.05870283 -0.09911501 -0.0142879 0.23561601
000300 e8 85 8f bb ae 5f 2b 3e c6 a7 0b be 30 ec 1e 3e
       -0.0043799765 0.16735718 -0.13638219 0.15519786
000310 19 ee 10 3e 75 32 28 3d a3 2f b8 3b 0e 14 83 3a
       0.14153327 0.041063745 0.005620913 0.0010000484
000320 18 08 75 3e de 48 d8 bc 76 16 d8 3d df 72 b0 3d
       0.23928869 -0.026401933 0.10551159 0.0861566
000330 f7 f9 32 bd 17 9a c2 3c 5c c0 3d 3d 54 27 6d 3e
       -0.043695416 0.023755116 0.046326026 0.23159534
000340 1e ab 59 3d c6 6b b3 3d 8f 81 28 3d c8 ab 5e bc
       0.053141706 0.087607905 0.04113918 -0.0135907605
000350 e6 06 93 3d 0d 6e 6d 3e 30 a4 7b 3e d4 bc 08 3e
       0.0717905 0.23186512 0.24574351 0.13353282
000360 3a d2 01 3d 46 1f 08 3e b3 a6 40 3e 76 aa 88 bd
       0.03169463 0.1329318 0.1881359 -0.06673138
000370 4d 25 36 3d 56 8c aa 3c 90 6a ea 3d 8c 9d 45 3d
       0.044469167 0.02081887 0.114461064 0.04824595
000380 b2 da 18 bd 17 f7 c8 3d bb dd 4a bc 5a 35 e4 3d
       -0.03731794 0.09812754 -0.012381966 0.111429885
000390 ad 90 6c 3e 64 d2 aa 3c f1 11 6b 3e b4 f1 74 3c
       0.23102064 0.020852275 0.22956063 0.014950205
0003a0 a2 5b 93 bd 8b 50 a9 bd 98 de 3a 3d 0a 49 4f 3e
       -0.07195212 -0.082673155 0.04562244 0.20242706
0003b0 08 15 e8 bb b0 cf 54 3e 87 6a a4 3d 03 1e 43 3e
       -0.0070825852 0.20782351 0.08028131 0.19054417
0003c0 68 8f 42 3e 2d 3b 1b 3e 94 3b 9b 3d 33 3b b2 bd
       0.19000018 0.15159293 0.07579723 -0.087026976
0003d0 f9 cc 05 bd a2 a5 e6 3d 81 0e 54 3b ad 31 12 3e
       -0.03266618 0.11262061 0.0032357278 0.14276762
0003e0 78 ee d5 bd d6 47 05 3e 27 14 80 3e bc d8 6f 3e
       -0.10445875 0.13015684 0.25015375 0.23422521
0003f0 04 0b 6c bd 95 10 1d 3e bb fe f6 3c f3 c6 23 3e
       -0.057627693 0.15338357 0.030150762 0.15993862

encoder.0.bias f4 [16]
000000 59 f0 33 3e 91 45 e6 3c 69 74 3d 3e 78 81 ed 3d
       0.17572154 0.028109344 0.18501438 0.1159696
000010 b8 5a a3 3e 32 1e 8f 3e b9 78 a6 3c fc e8 2a 3e
       0.3190515 0.27952725 0.020321237 0.16690439
000020 85 99 71 bc 1b 9b 18 bd d0 44 b5 3e 96 84 2a 3d
       -0.014746075 -0.037257295 0.35404062 0.04163035
000030 d5 7a 61 3e 98 83 16 3f c3 8a 71 3e 14 aa fd 3d
       0.22019513 0.58794546 0.2358809 0.123859555

encoder.3.weight f4 [8, 16, 3, 3]
000000 b1 08 81 ba 0e 76 08 3d da 2b 9b bc 3e 61 c9 3c
       -0.0009844509 0.03331571 -0.018941808 0.024582502
000010 33 62 73 bc 2c 0e c2 bc 8e 14 5d 3d 55 0d aa 3d
       -0.0148549555 -0.023688398 0.05397468 0.08303324
000020 58 2d 90 3d 1f 5e 5c 3b fd 08 2a 3d 9d f0 bf bb
       0.07039899 0.0033625436 0.04151248 -0.0058575408
000030 b7 0a 88 3c 8b 61 96 3d b7 c0 8f 3d b1 0c da 3d
       0.016606672 0.073428236 0.07019179 0.10646952
000040 fb c6 dc 3d a1 c6 b0 3c 03 49 63 3d 8c d6 ab 3c
       0.1078014 0.021579089 0.05548955 0.020976327
000050 d3 99 58 3d 2f d1 1d 3d 9b 56 4b 3d bc 70 43 3d
       0.052881073 0.03852957 0.04964314 0.047714934
000060 37 e3 91 3d 8f f4 59 3d 18 93 bc 3d 0e 33 af 3d
       0.07123416 0.053211745 0.092077434 0.0855466
000070 0a 38 c0 3d 23 58 57 3d 1b 71 d4 3d 7c e7 04 3e
       0.093856886 0.052574288 0.10373136 0.1297893
000080 85 50 86 3d 49 ae 7d 3d ca 77 df 3d 7e 6b 9a 3a
       0.06558327 0.06193379 0.1091152 0.0011781303
000090 f2 28 1d be d7 ab 83 be 22 17 3d be 03 7b 74 be
       -0.1534765 -0.2571704 -0.18465856 -0.2387505
0000a0 8c 4b f7 bd 0e e5 70 be 65 4f aa bc 94 41 1f be
       -0.12074956 -0.23524877 -0.020789811 -0.1555236
0000b0 0b 21 14 be 4f f5 8b be a4 6d 4c be 45 15 1a be
       -0.1446573 -0.27335593 -0.199637 -0.15047176
0000c0 ed 21 46 be dc 01 17 be c1 70 38 be 58 95 40 bd
       -0.19348879 -0.14746803 -0.18011762 -0.047017425
0000d0 5a d8 32 be 48 cd fc bd a5 33 42 3c bb 96 09 3c
       -0.17465344 -0.12343842 0.011853133 0.008397753
0000e0 c5 a2 fd 3d 20 85 47 3b d0 39 51 3d 40 a1 a4 3d
       0.123845614 0.003044434 0.051080525 0.080385685
0000f0 8c 08 43 bc aa d1 83 3d 6b de 17 3d 51 32 b4 3d
       -0.011903893 0.064364746 0.03707735 0.087986596
000100 13 f5 44 3d 10 7f 1f bc 92 90 44 3d 3e fb 01 bc
       0.048085283 -0.009734884 0.047989435 -0.007933436
000110 24 56 4a 3d 49 b3 26 3d 34 c7 f8 3d 18 aa 61 3d
       0.049398556 0.040698323 0.1214737 0.055093855
000120 dc 4e 0d 3d 6c 91 e9 bb fa d5 af 3d 15 cc 36 3d
       0.034499034 -0.0071279313 0.08585735 0.04462822
000130 45 50 c5 bc 7a 29 96 3c 27 53 02 bc d3 61 a3 3d
       -0.024086127 0.018330324 -0.007954395 0.07977643
000140 e9 cc a3 3d 9a 37 9d ba 46 a1 db 3d fd 71 a0 3d
       0.07998068 -0.001199472 0.1072412 0.078342415
000150 8b 0d c1 3d 52 bf 55 bc 81 0c 4a 3d 39 58 7a 3d
       0.09426411 -0.013046103 0.04932833 0.061119292
000160 44 29 a7 3d e8 3f 91 bb 76 b8 43 be c7 a7 80 be
       0.08162168 -0.004432667 -0.19113335 -0.25128004
000170 d2 58 3f be 45 69 39 be e1 c1 07 be 1c 52 35 be
       -0.18686226 -0.18106563 -0.13257553 -0.17707103
000180 a0 c2 02 bd f3 25 2a be 71 e7 16 be d3 0d 9e 3c
       -0.03192389 -0.16616039 -0.14736725 0.019293701
000190 dc 72 a1 bd 96 d4 50 3d d4 01 b5 bb 72 38 a8 bd
       -0.07883236 0.050983988 -0.0055238996 -0.08213891
0001a0 c0 0e 1d bd f7 59 57 3a 37 1f b3 bc 84 6e d9 bc
       -0.038344145 0.0008215005 -0.02186547 -0.026541956
0001b0 62 ea e8 3d 77 c6 d8 3d d1 ee cb 3c c0 a3 13 3d
       0.1137283 0.10584729 0.02489415 0.036044836
0001c0 0a 89 c2 3d bd 55 45 3d cb b8 90 3d 07 62 64 3d
       0.094987944 0.04817747 0.070664965 0.05575755
0001d0 92 29 8c 3c 41 80 0e bd 2c eb 8d bd 03 dd 18 bd
       0.017109666 -0.03479028 -0.06929621 -0.03732015
0001e0 82 61 13 be 74 a5 93 bd 3e 7b 79 bc 53 8a 2c 3d
       -0.14392665 -0.07209292 -0.015227137 0.042124104
0001f0 66 8d f2 bd cf 38 a4 bc ce 89 18 3d ad 45 05 bb
       -0.11843376 -0.02004662 0.037240796 -0.002033572
000200 54 f0 0d 3d ba ce e3 3d ff d7 d4 bc fb a7 16 3d
       0.034653023 0.11123414 -0.025981901 0.036781292
000210 aa d0 44 3d 33 96 ee 3d ef 6c 51 3c fc 52 2f 3d
       0.04805056 0.11649742 0.012782319 0.04280375
000220 e0 57 a6 bc da 22 8f 3b 9f 57 96 3c c7 a3 5e 3d
       -0.020305574 0.0043681683 0.018352328 0.05435541
000230 6e 7f 27 3c 62 2d fe 3d 37 b5 a6 ba 5f 2b 57 3c
       0.010223253 0.12411 -0.0012718801 0.013132899
000240 99 64 f7 3d 3a 2f 81 3d b4 5e dd 3d ae 1b 13 3e
       0.12079734 0.06307836 0.10809079 0.14366028
000250 53 69 71 3e 2e 17 9c bc 7e 74 bd bd 9f 65 bd bd
       0.23575334 -0.019054022 -0.09250735 -0.09247898
000260 7d c8 f0 bd 94 82 f8 3d 79 11 9f bb 8c 66 e0 3d
       -0.1175699 0.12134281 -0.004854378 0.10957059
000270 30 c0 9f 3d 3c 75 06 3e 91 23 9b bd 68 e0 88 bd
       0.07800329 0.13130659 -0.07575143 -0.06683427
000280 49 9c 74 bd af fd 4b bb cd b5 d1 bc d7 63 47 3c
       -0.059719358 -0.003112655 -0.025599385 0.0121698
000290 ed a7 bc 3d cf 4f ef bc e5 a4 56 bb 2c bd 63 bc
       0.09211717 -0.02921286 -0.0032752093 -0.013900083
0002a0 ce 56 07 bd 09 8f cd 3c b5 2e c4 bd 28 48 eb 3d
       -0.033041768 0.025092619 -0.09579221 0.11488372
0002b0 32 32 68 bc 5b bb e5 3d 87 4d 84 3d c4 a1 cd 3d
       -0.014172124 0.11217376 0.064601 0.1004062
0002c0 c8 77 87 3d 36 2d e3 bd d0 0f 1f 3c b3 57 45 bc
       0.06614643 -0.11092608 0.00970836 -0.012044835
0002d0 08 58 59 3e 3b 14 2f 3e 78 03 49 3e 84 64 00 3e
       0.21224988 0.17097561 0.1963023 0.12538344
0002e0 2c da 4c bd 09 ff 75 3d 07 2c 89 3e 84 ba 73 3d
       -0.050012752 0.060057674 0.26791403 0.059504047
0002f0 2c b0 51 3e 44 db 6e 3e 27 02 17 3e 39 28 29 3e
       0.2047736 0.2332583 0.14746915 0.1651925
000300 1b 2c c0 3d b7 8d b9 bd b1 5b b4 3c 15 01 6f 3e
       0.093834125 -0.09060233 0.022016378 0.23340257
000310 c6 d8 9f 3c 2c 06 2b 3e e0 53 1a 3c b1 3d 1e 3d
       0.019512545 0.16701573 0.009419411 0.038633052
000320 2e 2a 3f 3c 95 66 23 3d cf a7 6e bb 01 4f 60 bd
       0.011667771 0.03989275 -0.003641594 -0.054762844
000330 07 71 4d 3d 9a e1 d8 3b 8f 66 85 3c 2d 4d 95 3d
       0.05015662 0.0066186907 0.016284255 0.07290111
000340 81 9a 07 3c 5b 72 d2 3d e8 22 9c 3d c0 2c c7 3d
       0.008276583 0.10275718 0.07623845 0.09725332
000350 2c cd 03 3d 47 f9 83 3b 93 9c 64 bd 14 ed 97 bd
       0.03217809 0.004027519 -0.055813383 -0.07418266
000360 5e 8c be 3d fa 2a ee bb 58 d4 35 3d e4 be fa 3c
       0.09304117 -0.007268307 0.04439196 0.030608602
000370 99 88 a1 3d 72 6f f0 3c 92 e4 7c 3c 6e ed e1 bc
       0.07887382 0.029350016 0.015435355 -0.027579036
000380 a5 cf 6e 3b 76 46 aa 3d 7c f3 69 3c c1 e1 25 3d
       0.0036439684 0.083142206 0.014279243 0.0404985
000390 a5 f1 13 bd b2 42 f7 3d b7 6d 2c bd 4a 56 14 bd
       -0.036119122 0.12073268 -0.04209682 -0.036215104
0003a0 9b 11 4d bd 43 dc 9f bd f8 af 6b 3e 21 29 16 3e
       -0.050065618 -0.078056835 0.23016346 0.14664127
0003b0 c7 fd 35 3e 0a fb 98 3d a6 1e 7e bd b0 2a 97 3d
       0.1777259 0.07469757 -0.062040947 0.07381189
0003c0 c7 59 6e 3e 54 b0 2e 3d 13 6f 33 3e 7e 07 8f 3e
       0.23276435 0.04264863 0.1752284 0.27935404
0003d0 d0 25 be 3d 40 d5 01 3d 8b d7 b3 3d 01 15 53 3e
       0.09284556 0.03169751 0.08781346 0.20613481
0003e0 7e 21 d5 3b 0e 8c 7d be 4a fa 41 be d9 16 24 be
       0.0065042367 -0.24760458 -0.18943134 -0.1602434
0003f0 e1 36 8a 3d 17 57 97 bb 8f 58 49 3d 91 fb 91 3c
       0.067487486 -0.004618536 0.04915672 0.017820152

encoder.3.bias f4 [8]
000000 f3 ef 31 3d a1 57 eb bd ec 2c cb 3d 5a 29 b1 3d
       0.043441724 -0.11491323 0.099206775 0.08650465
000010 57 16 86 3e ae 81 c9 bb 3b b1 a7 39 e6 f9 d4 3b
       0.2618892 -0.006149492 0.0003198477 0.006499517

decoder.0.weight f4 [8, 16, 3, 3]
000000 80 92 5e 3d e6 dd 1d 3e 15 15 a9 3d 27 c2 94 bc
       0.054338932 0.15416679 0.08255974 -0.018158985
000010 ae c4 54 3e f0 1e 53 3e c5 e4 cb 3c 96 ee 68 3d
       0.20778152 0.2061727 0.02488936 0.05686816
000020 0b 9b 03 3d 9e f5 80 3d 2e ee 31 bd cf 81 9d 3d
       0.032130282 0.06296848 -0.043440036 0.07690775
000030 f2 71 71 3c 89 a1 28 3d 35 6a ff 3d 7f d1 14 3d
       0.014736639 0.041169677 0.12471429 0.036332604
000040 c9 19 3a bb 49 dc 7b 3d 6f f0 c5 3c b5 46 ad 3d
       -0.0028396717 0.061489377 0.0241625 0.08460752
000050 e0 0e 9a bb 7c c9 d2 3d ae d1 07 3e e5 7b ed 3d
       -0.0047014803 0.10292336 0.1326358 0.11595897
000060 8f 36 60 3d 02 cd c8 bb 4d e9 cf 3d b4 47 05 39
       0.05473953 -0.0061279545 0.101519205 0.0001271058
000070 0a bd 1b 3d 55 7e 03 bd c1 71 60 3d 50 d3 50 3e
       0.03802208 -0.0321029 0.054795984 0.2039311
000080 88 4e 30 3d 70 46 a8 3d ff 1c c5 3c 79 11 97 3d
       0.043043643 0.0821656 0.024061678 0.073763795
000090 6f 0e 40 3d d9 3b 54 a1 a5 0f 8a 3d 6e 9c 89 3d
       0.046888765 -7.19076e-19 0.06741265 0.0671929
0000a0 b3 a6 05 28 ee 8a 91 3d 36 1b 5d 3d 62 b8 24 26
       7.41913e-15 0.07106577 0.05398103 5.7148815e-16
0000b0 c0 34 03 3d 25 bf d1 3d 69 76 71 bd 8c 7a f3 3c
       0.03203273 0.10241536 -0.058950815 0.02972152
0000c0 0e 25 a5 3d 4e 54 3a 3d 30 07 8b 3d ee d9 35 3d
       0.08063708 0.045490555 0.0678848 0.044397287
0000d0 7d 06 7b 3d 48 11 01 bc f6 fe ae bc 54 00 c5 bd
       0.061285485 -0.007877655 -0.02136181 -0.09619203
0000e0 fc c2 14 bc be fa 57 bd be 05 02 be ae 92 72 bd
       -0.009079691 -0.05272936 -0.12697503 -0.059221916
0000f0 c2 e0 e4 38 b6 64 bb ba e2 d3 90 bc 03 55 2b 3c
       0.000109137516 -0.0014296982 -0.017679159 0.01045728
000100 32 30 05 3e 00 ea c8 3d 70 59 c7 3d c4 ae 05 bb
       0.13006666 0.09810257 0.09733856 -0.0020398358
000110 b9 48 a8 3d 96 b6 8f 3c 52 70 f7 3b 04 19 d9 bb
       0.08216996 0.017543118 0.0075512314 -0.0066252965
000120 53 3a 81 3d cb ac c3 3d e0 80 e3 3d 6c b4 c4 3d
       0.063099526 0.09554442 0.11108565 0.09604725
000130 77 bb f0 26 bf 5a fe 3d 09 ba b7 3d e8 63 a1 3d
       1.6704158e-15 0.12419652 0.0897103 0.07880384
000140 9c 7a 49 3d 57 83 68 3d ae ba e6 3d e7 c4 59 3d
       0.049189195 0.05676588 0.11266075 0.053166296
000150 44 58 00 3e ff fe ef 3d 91 d0 fe 3d 88 1a 02 3e
       0.1253367 0.117185585 0.12442125 0.12705433
000160 53 94 90 bd af 91 e7 bc 85 72 8a 3d ea 7d df 3d
       -0.070595406 -0.02826771 0.06760124 0.10912688
000170 1c 52 c1 bc 41 85 8c 3d 88 cd c9 3d 4b cf 17 3c
       -0.023598723 0.06861354 0.09853655 0.009265731
000180 ec 0d 65 bc 83 23 96 3a 3e d8 18 3d 36 c1 5a bd
       -0.01398037 0.0011454675 0.0373156 -0.053406917
000190 5b 54 ea bd d2 2f 89 bd 14 75 8f bc 9f 2c cb a9
       -0.11441871 -0.06698574 -0.017511882 -9.0227515e-14
0001a0 89 29 0c b2 df 87 4c bd 3d 4c b1 3d f9 68 89 bd
       -8.1585165e-09 -0.049934264 0.086571194 -0.06709475
0001b0 c8 76 9b bc 66 45 49 bd 6d 3a 93 3d 74 af 84 3d
       -0.018977538 -0.04913845 0.07188878 0.064787775
0001c0 23 64 4a 25 90 37 7f 3d 76 3c 26 3d 95 2f 98 3d
       1.7554635e-16 0.062308848 0.040585004 0.074309506
0001d0 3d ea e2 3c b4 19 a2 bc 59 d4 e0 3d 93 b2 9d 3d
       0.027699584 -0.019787647 0.10978002 0.07700076
0001e0 a9 3d ac 3c 20 60 25 3e 8e b7 9a 3d af 72 ed 3c
       0.021025496 0.1614995 0.075545415 0.02898535
0001f0 6e 51 e9 3d 81 61 3d 3d b4 f9 03 3c 65 4d 95 3d
       0.113924846 0.046235565 0.008055139 0.072901525
000200 3c d8 b1 3d 1c c0 e9 3d 72 b2 b2 a6 cb df d2 3d
       0.086838216 0.11413595 -1.2399599e-15 0.10296591
000210 59 e1 84 bc 8e 6e 89 bd 1a 0b ad 3d d2 62 15 3d
       -0.016220735 -0.0671054 0.08449383 0.036471196
000220 36 55 12 3d ce 49 bd 3d 3d 00 3c 3e 20 d8 96 3d
       0.035725795 0.09242593 0.18359466 0.07365441
000230 89 91 f9 bc 5a 87 81 bc 3b ae 28 3e e7 12 f7 bc
       -0.030464904 -0.015811611 0.16472714 -0.03016038
000240 c9 7a 87 3e 71 1c 61 3e 69 f3 0f 3e 70 62 c1 be
       0.26460865 0.21983506 0.14057697 -0.37770414
000250 93 44 b2 bd b4 51 38 be 94 1e 61 3e 29 94 a3 3d
       -0.08704486 -0.17999917 0.21984321 0.07987244
000260 47 57 10 3e e7 06 35 3e 7b 04 dd bc 55 6f 95 3d
       0.14095794 0.17678414 -0.026979676 0.072966255
000270 d2 55 89 3e eb 76 09 3d 72 2a 14 3e 5b d6 2d 3e
       0.26823288 0.033560675 0.14469317 0.16976301
000280 99 2f 53 3b 03 5a 7d 3d a9 32 26 be 67 b0 9b 3e
       0.0032224415 0.06185342 -0.16230263 0.30408022
000290 1e 8a cb bd 5f 22 15 3e 70 b6 07 3e 75 27 0b 3e
       -0.09938453 0.14563893 0.13253188 0.1358927
0002a0 35 99 68 bd 4c 81 ba 3d 5e 3f f4 3c e2 4b 5b 3e
       -0.056786735 0.09106693 0.029815372 0.21415666
0002b0 d6 7b 3a 3e c6 66 b5 3c b6 51 81 3e 83 0a af 3d
       0.18211302 0.022143733 0.25257653 0.08546927
0002c0 b1 24 12 3e b5 ae 68 3e b8 69 3f 3e 81 38 64 be
       0.14271809 0.22722895 0.18692672 -0.2228718
0002d0 04 b9 3a 3c 09 7a be 9f fe 81 0d 3d d5 d2 94 3e
       0.01139665 -8.067002e-20 0.0345478 0.29067102
0002e0 5a c6 80 a5 ea 04 f2 bc f3 70 10 bd 82 72 8c a4
       -2.233887e-16 -0.029543359 -0.035263967 -6.0909305e-17
0002f0 ee 8e 89 bc f6 c2 03 be 4b 8e 47 be 0a 08 a3 3b
       -0.016791787 -0.1286734 -0.19487874 0.0049753236
000300 d3 a0 f1 3d d4 b2 ec bd 80 29 06 3e 5d 82 0d be
       0.11798253 -0.11557546 0.13101768 -0.13819261
000310 54 29 28 3e 27 a8 df 3d c2 fa 82 be 8c 45 79 be
       0.16422015 0.109207444 -0.25581938 -0.24342936
000320 17 d4 39 be f3 4c 60 bd d7 78 61 3e 45 49 9c 3a
       -0.18147312 -0.054760884 0.22018753 0.0011923691
000330 f5 23 0a 3d 45 fd fe 3d 78 30 e1 3d 35 ce 9e 3e
       0.033725698 0.12450651 0.10995573 0.31016698
000340 19 ee 8c 3e c5 d7 7e 3c bb b7 53 3e ed cd d9 a7
       0.27525404 0.015554373 0.20675556 -6.0452864e-15
000350 09 fa 23 3e 14 70 84 3e 33 d5 2d 3e 8c fc dc 3d
       0.1601335 0.2586676 0.1697586 0.10790357
000360 9f 63 52 3e a0 95 b6 3c d7 c4 50 3e ff cd 30 3e
       0.20545815 0.022288144 0.20387588 0.17266081
000370 f5 45 98 b8 5e a7 51 3d 0e 1b 61 3c 49 eb e0 3d
       -7.260955e-05 0.051185004 0.0137393605 0.10982377
000380 5c 51 3d 3e 29 4f 4a 3e 8e 0c 82 bd 61 24 fd 3d
       0.18488067 0.1975676 -0.06350051 0.12360454
000390 06 e1 58 3e 25 23 47 3e 74 39 5b 3e d9 ca 99 bc
       0.2117959 0.19447 0.21408635 -0.018773483
0003a0 fa 51 0c be d9 3d da 3d e7 28 81 3a 72 7b 48 3e
       -0.13703147 0.10656328 0.0009854109 0.1957834
0003b0 cb fe d7 3d ca ea 38 bd 32 10 0d 3d 46 8c af 3e
       0.10546645 -0.045145787 0.034439273 0.34286708
0003c0 3d 9d 5e be 53 dc cc 3d 89 86 6a bc fa ae 56 3e
       -0.21739669 0.10002961 -0.014314302 0.20965186
0003d0 97 fd bd bd c9 af ef 3d 52 2a 73 3d a3 9c a4 bc
       -0.09276884 0.1170345 0.05936653 -0.020094221
0003e0 bc b8 f1 bc fd 6e 80 3e a5 49 8c 3e b6 41 c0 3d
       -0.029507034 0.25084677 0.27399936 0.09387533
0003f0 2c 72 c4 bd 8f 88 15 be 58 e7 29 3b 93 01 6e 3d
       -0.09592089 -0.14602874 0.0025925245 0.05810697

decoder.0.bias f4 [16]
000000 fb b3 b1 bd 56 01 d1 3d 48 d6 d3 3d ab 1c a0 3a
       -0.08676907 0.10205333 0.10343605 0.0012215575
000010 a0 07 9a bc 76 8e 0f 3d 27 c9 5a 3d 86 26 ee bc
       -0.018802464 0.03504797 0.05341449 -0.029071104
000020 fa 0c 94 3d 3c 55 ac 3b 44 9f 1d 3d 01 bc 07 bd
       0.072290376 0.005259184 0.038481966 -0.03313828
000030 ee f1 13 3b 42 0c ed 3d 08 0f 8f 3d 2f 1a 44 3d
       0.0022574621 0.115746036 0.06985289 0.047876533

decoder.2.weight f4 [16, 8, 5, 5]
000000 9e 40 d8 bd 1f 10 0e 3c 04 eb bf 3c a0 71 87 bb
       -0.105592 0.008670836 0.023427494 -0.004133418
000010 0e ea 0f bd ca bf a0 bd d7 aa 8f bd ad 4f 8c bd
       -0.03513532 -0.07849081 -0.07015007 -0.068511344
000020 22 8c 57 bd 7e 1d ab 3a 4a 05 77 bd 32 11 1a be
       -0.052623875 0.0013055054 -0.06030778 -0.15045622
000030 63 f1 69 be c5 0e 17 be 3a 9b b8 bd 8e 41 af bd
       -0.22845988 -0.14751728 -0.09013982 -0.085574254
000040 f2 14 39 be fd 02 58 be b1 89 57 bd 53 a9 15 bd
       -0.18074396 -0.2109489 -0.052621547 -0.036538433
000050 7c d6 4b bd cd 25 ba bd 47 00 99 bd a6 3d 12 3d
       -0.049765095 -0.09089241 -0.07470756 0.035703324
000060 52 4b aa ba e8 bc 19 be d6 f2 0b bd e9 c6 ee ba
       -0.0012992418 -0.15013468 -0.034167133 -0.0018217239
000070 39 d3 9a 3d 2c 05 51 3d f8 a0 22 bd 64 67 6b bc
       0.07559819 0.051030323 -0.039704293 -0.014367912
000080 d7 9f 09 bd bf 02 a4 3d e0 15 3b 3b 5a 53 53 bd
       -0.0335997 0.08008336 0.0028546974 -0.051593162
000090 64 3c 83 bd ad c4 30 a8 07 2b 2d 3e 68 c0 47 3c
       -0.06408003 -9.81261e-15 0.16910945 0.012191869
0000a0 4b 5c 5a 3a 86 3b e2 3d 64 5b 68 3e ca 4b 44 3e
       0.0008329793 0.110465094 0.22691113 0.19169536
0000b0 66 ae db 3d 73 73 74 bd bf 48 51 3d e5 6c d6 3d
       0.10726623 -0.059680413 0.051094767 0.10469989
0000c0 42 b6 15 3e a5 9c 38 3d 59 75 64 bd 26 9b 58 3d
       0.14620307 0.045071263 -0.055775974 0.052882336
0000d0 4c b0 9e 3b 74 1e 1c bd 4c 38 5e bd f2 20 ee bc
       0.0048427936 -0.03811498 -0.054252908 -0.029068444
0000e0 ba 50 ca bd 29 eb de bc d0 94 97 bd 71 9f 03 be
       -0.098786786 -0.027211742 -0.074014306 -0.12853791
0000f0 e7 01 ba bc f0 79 69 bd b6 3d 0a be 43 3c 0a be
       -0.022705985 -0.057001054 -0.13500103 -0.1349955
000100 a2 eb 6d bd f0 db 7d bc 3d 38 02 bd d0 6f 3e bd
       -0.058086045 -0.015494332 -0.031791914 -0.04649335
000110 f0 33 28 bd 89 4f 96 3c 92 7b 1a 3b 39 04 74 3c
       -0.041065156 0.018348472 0.0023572189 0.014893585
000120 ee cd 34 bb 41 91 c4 bb 68 c2 87 bd b7 f1 8c 3d
       -0.0027588564 -0.005998761 -0.06628877 0.06882041
000130 d4 32 b5 3d 5b 55 be 3d ed 56 64 3d 69 c3 ba 3c
       0.08847585 0.09293624 0.05574696 0.022798257
000140 ea 98 4a 3d 00 28 b0 3d 89 bf 4d 3e ad 18 ae 3d
       0.049462236 0.086013794 0.20092596 0.085008
000150 24 f2 9b bd 06 9e a4 3d a8 fa ec 3d d8 57 b5 3e
       -0.07614544 0.08037953 0.115712464 0.35418582
000160 30 64 38 3e e0 5a b3 3d 11 2d ae 3d 3c 84 38 3d
       0.18006968 0.087575674 0.085046895 0.045047984
000170 42 cc 12 3e 4d e1 83 bb 24 9b 2c 3d b4 d3 3f bd
       0.1433573 -0.0040246607 0.04214014 -0.046832755
000180 e3 35 c4 bb 31 1a c9 3c 07 35 c7 3c 86 0c 1c be
       -0.005987869 0.024548622 0.024317278 -0.15239152
000190 06 d6 48 bd 79 4f 8b 3d ec 73 dd 3d c6 71 a9 3d
       -0.049032234 0.068022676 0.10813126 0.08273654
0001a0 e0 b3 0d bd ae a8 7c 3d f4 d9 27 3e d8 d4 87 3e
       -0.03459537 0.061684303 0.16391736 0.26529574
0001b0 97 f2 22 3e 39 40 87 3d e2 34 80 3d 90 28 8a 3e
       0.15912853 0.066040464 0.062600866 0.26984072
0001c0 45 44 b3 3e a4 28 81 3e 54 59 3b 3d d9 b0 75 3d
       0.35013023 0.2522632 0.045739487 0.05998311
0001d0 82 a9 5c 3e 85 8e b8 3e 5e 05 1e 3e 0d 3c a7 3b
       0.21549037 0.36046234 0.15431735 0.005103594
0001e0 24 bb b9 bd 01 4a 2f bd 00 8f 13 3e 02 09 90 3d
       -0.09068897 -0.042795185 0.14410019 0.07032968
0001f0 6c fe ef bd bb ee ea bd 59 6e 03 3e b8 03 39 3e
       -0.11718449 -0.114713155 0.12835063 0.18067825
000200 6b 4f 0c 3e 12 28 4e bd 0b 81 52 3d 1f c2 2a 3e
       0.1370217 -0.050331183 0.051392596 0.16675614
000210 a3 13 a8 3e f1 92 09 3e 55 62 8a 3d c1 26 f0 3d
       0.32827482 0.1343496 0.067570366 0.11726142
000220 d4 db 4d 3e b2 05 be 3e a2 86 91 3e 4c 98 c2 3d
       0.20103389 0.3711372 0.2842303 0.095017046
000230 07 b9 b4 bd 50 10 29 3e 35 08 92 3e 5a 65 02 3e
       -0.08824354 0.16510129 0.28521886 0.12733975
000240 55 f6 46 bd 0b bb b0 bd 8b c4 4c bc 86 cf 6b 3d
       -0.048574764 -0.086294256 -0.012498031 0.057570957
000250 79 b7 5a bd 1b 2e ad bd 04 f7 80 be 54 39 00 3d
       -0.05339763 -0.084560595 -0.25188458 0.031304672
000260 88 d1 1d bd 69 ae ae 3d c2 91 36 be 21 6d 8c 3a
       -0.038529903 0.0852936 -0.1782904 0.0010713675
000270 d8 b4 20 39 58 e2 43 3e 59 54 ae 3d b6 d4 a8 3c
       0.00015326159 0.19129312 0.08512182 0.020609241
000280 fd 61 bc 3c f2 6a 3d 3e 8a 48 99 3d f7 af 70 3e
       0.022995943 0.18497828 0.07484539 0.23504625
000290 6a 8f 15 3d 3f fd 50 bc ef 9e bc 3d ea 11 34 3e
       0.036513723 -0.012755691 0.09210002 0.17584959
0002a0 63 d7 3f 3e 7f 04 83 bc 60 1e fe bd 27 7f 96 bb
       0.18734507 -0.015993355 -0.12408137 -0.0045927945
0002b0 b5 3e 97 3d a4 5d 47 3d df a8 d2 3c 4a 92 29 bd
       0.07385007 0.048673287 0.02571529 -0.041399278
0002c0 ba ee e4 bc ad 1e ca bc 4c d4 c6 3d 58 1c 11 3d
       -0.027945865 -0.02467283 0.09708461 0.03542742
0002d0 e4 5b 3c bd 50 07 4f 34 84 1e 68 bc 09 63 72 3e
       -0.04598607 1.9281038e-07 -0.014167432 0.23670591
0002e0 33 9f 90 b0 3c 06 a3 3c d7 1a b8 3d 71 3f 4e 3e
       -1.0522626e-09 0.019900434 0.08989494 0.20141388
0002f0 3a 22 89 3e 9c a0 0a 3d 6b 6d 88 3d 61 f6 39 3e
       0.26783925 0.033844575 0.06661495 0.18160392
000300 ee b0 06 3e bb ed 7b 3e 0d 62 12 3e ec c7 8d bd
       0.13153431 0.24602406 0.14295216 -0.06922898
000310 47 73 bd a8 19 3b e3 bc eb fb 65 3e 15 aa 0c 28
       -2.1033209e-14 -0.02773814 0.2245938 7.808442e-15
000320 cd d7 c1 3d 07 52 b0 3d 85 e6 1f bd 09 96 47 bd
       0.09464989 0.086093955 -0.0390382 -0.04872707
000330 14 a4 98 bd c2 86 11 3d dd 21 c6 bc 5f b3 32 bd
       -0.074531704 0.035528906 -0.02418607 -0.043628093
000340 e7 ce d7 bd 3c aa 88 bd 93 9a 19 3d f5 81 7d bd
       -0.1053751 -0.06673095 0.03750093 -0.061891515
000350 f0 d9 0f be 09 20 84 bd cf 09 80 3d 38 aa e8 3d
       -0.1404798 -0.06451423 0.06251871 0.11360592
000360 94 1a b3 bc 8d b0 8d bd 06 ca 94 bd 37 7a f2 bc
       -0.02186326 -0.0691844 -0.072650954 -0.029599292
000370 7b 89 df 3c 25 05 df bb 49 20 48 3c fa e8 3e bd
       0.027287235 -0.006806033 0.012214729 -0.046608903
000380 3b b5 9c 3c 2c 18 41 3c b8 40 75 3c 40 97 cc ba
       0.019129386 0.011785548 0.014969043 -0.0015609041
000390 61 a1 8d 3b 48 b8 78 bc 76 5f a2 bc 3e 79 93 bc
       0.0043222164 -0.015180655 -0.01982091 -0.018002149
0003a0 93 9d 94 bc 09 68 0c 3b 41 10 a7 bb ad a7 8d 3c
       -0.018141543 0.0021424314 -0.005098373 0.017291868
0003b0 93 63 cc bc 51 fa cc a4 84 eb 5d 3c e1 c1 84 3d
       -0.024949824 -8.889495e-17 0.013544921 0.06482292
0003c0 50 c7 bf 3b dd 8c c3 bc 68 ad 2d 3d 1a af a7 3c
       0.0058526173 -0.02387088 0.0424017 0.020469237
0003d0 97 78 e3 3b be 65 2d 3d 5a 8a 03 3c 66 51 8a 3c
       0.0069418657 0.042333357 0.008028591 0.016884517
0003e0 bf a9 94 3d e2 87 26 3d 6b 9e a1 bc f1 de 5d bd
       0.07258939 0.04065693 -0.01972886 -0.05416769
0003f0 36 14 14 bd e8 24 55 bd ac 57 8e bc 2d 6b 1b 3d
       -0.036152087 -0.05203715 -0.01737579 0.037944008

decoder.2.bias f4 [8]
000000 c1 51 0c bc 85 5a ab bd 58 b9 d5 3b 15 1f c1 3b
       -0.0085644135 -0.083668746 0.006522339 0.005893598
000010 4a bf 90 3d b9 83 c8 3d 5a 1c 9f 3c 36 0c 92 3d
       0.070677355 0.09790749 0.019422699 0.07131235

decoder.4.weight f4 [8, 3, 2, 2]
000000 f7 87 23 be d3 d5 16 be e1 98 5c bd 64 6f 29 be
       -0.15969835 -0.14730005 -0.053856734 -0.16546398
000010 49 72 82 be b9 5e b5 be 57 bf 97 be f8 91 ff bd
       -0.25477818 -0.3542383 -0.29638168 -0.12479013
000020 0f 00 27 be ed 3d b9 be b2 37 5d bd db 86 79 be
       -0.16308616 -0.36180058 -0.054008193 -0.2436785
000030 14 9f 44 3e bc e3 06 bd c1 12 7f be 86 81 14 be
       0.19201308 -0.03293203 -0.24909498 -0.14502534
000040 6e cd 16 3d 85 ba 06 be b6 82 10 be 09 24 5b be
       0.036817007 -0.13157089 -0.14112362 -0.21400465
000050 3e 56 92 3c 3d 5c aa be c6 f6 e3 bd 8e c2 5b be
       0.01786339 -0.33273497 -0.11131053 -0.21460935
000060 63 3b 47 be 05 a7 25 be 02 22 95 be 98 78 df bd
       -0.19456248 -0.16176994 -0.29127508 -0.10911673
000070 58 f3 27 3c 80 6c 50 3e 7e 58 01 3e 14 81 02 be
       0.010250889 0.2035389 0.12631413 -0.12744552
000080 a2 62 6e be 46 3d 10 3e 5d d0 ba be 41 03 d1 bc
       -0.23279813 0.14085874 -0.36487094 -0.025514247
000090 a2 bb 0d be 53 38 04 3e 6b 98 44 3e 1c 36 01 3e
       -0.13841107 0.12912111 0.19198768 0.12618297
0000a0 25 4d a4 3e 9a 5c d4 bd 2f 1d 7d bd fb 14 0d 3e
       0.32090107 -0.10369225 -0.06179541 0.13777535
0000b0 3b a8 0e be f8 5b 41 3e 47 01 72 3e 98 0e e4 3d
       -0.13931362 0.1888274 0.236333 0.11135596
0000c0 c9 6b 24 3e ac aa 94 3e 46 65 40 3e 93 c6 d9 bc
       0.16056742 0.29036462 0.18788633 -0.026583945
0000d0 d3 ac d5 3c 76 80 e7 3c 18 75 93 3e 90 c5 2c 3e
       0.026083386 0.028259497 0.28800273 0.16872239
0000e0 31 63 1a 3e 57 7b 6b 3e 84 48 f9 bd 01 ad 0a bd
       0.15076901 0.22996269 -0.121720344 -0.033856396
0000f0 cd c2 72 3e cc 19 33 be 5f 37 8b 3e 06 65 6e 3e
       0.23707123 -0.1749031 0.27190682 0.23280725
000100 29 d0 16 be 78 d9 64 3e d7 3e 12 3d 91 f5 15 3e
       -0.14727844 0.22348583 0.03570446 0.14644457
000110 e8 b8 3d 3e df 0e 80 3e b6 c0 92 3e ad c0 7a 3e
       0.18527567 0.25011346 0.28662652 0.24487562
000120 4e c0 ee bd c0 2b 40 3e 0e 52 7e 3d 32 d9 ce 3d
       -0.11657773 0.1876669 0.062089972 0.101000205
000130 47 cd a8 3e ca 2d 94 3e 75 c2 36 3e d7 0d 0c 3c
       0.32969114 0.28941184 0.17847617 0.008548222
000140 0e d6 60 3e 0a 1c c3 3d 35 d7 d9 3d a0 a4 27 3e
       0.21956655 0.095268324 0.106367506 0.16371393
000150 38 c0 fb 3c 8a 08 2a 3e 05 4d b7 3d 70 b1 3e be
       0.030731305 0.1660482 0.08950237 -0.18622375
000160 2d 82 f3 3d 51 c2 88 3e 65 9f 79 3d e2 88 98 3c
       0.118900634 0.26710752 0.060943026 0.018619958
000170 fd cc 2c 3e 10 32 17 3e 53 1e 23 3e a8 37 34 be
       0.16875072 0.14765191 0.15929537 -0.17599356

decoder.4.bias f4 [3]
000000 cc 2d 09 be 2e 45 61 be ef 3b 77 be
       -0.13396376 -0.21999046 -0.24143957
