conv_autoencoder-3.pth (torch_old, 26192 bytes, 10 tensors)

encoder.0.weight f4 [16, 3, 3, 3]
00000000: d3d0 353e 6172 543d f8da 8fbd 62f7 0dbc
00000010: d64f 2bbd 9f87 16bd 05fb 61bc 31d9 16bd
00000020: 0900 753e 42d1 5d3e f8b8 4dbd 69a8 0cbd
00000030: d8e7 633e b272 84bd 8b39 3d3e d267 08ba
00000040: 5634 f83b 4fea 123d cb3b 483e 4969 6c3e
00000050: 4941 1a3e 03c1 02be 7ad8 2a3c 1836 3c3d
00000060: e7f7 0d3e f5d3 5e3e 3959 183e 0cd7 e63d
00000070: 3218 843e 5497 a13d 2d6b 4b3e 9224 c1bd
00000080: b6a5 a53d 53bd 8c3d 3f3b 763e 1600 3fbc
00000090: 725a 8e3d aed2 aabd 2421 963d d843 293d
000000a0: 82b4 dfbb 0bfa 73bc 3276 bd3d 417e a7bd
000000b0: cb2a e7bd 5f92 663e 4104 033e 26f3 6b3e
000000c0: db42 753e ad37 babd d269 683e fbd1 6abd
000000d0: 54ff 423e b9a4 593c e106 5cbc db2d 8cbe
000000e0: 2f68 923d 1008 90bd 18e1 f8bd 8916 833d
000000f0: b8e8 473d 211e 32bd ba9e 90be 3d05 613d
00000100: 113a a23d ab25 5bbe 8c3d 7ebe 1bb0 05be
00000110: 099e 90be 2327 1bbb 8c0d 3c3c b204 3ebe
00000120: 0d56 1bbd d933 43bd 5c59 36be 497e 24bd
00000130: 882d 483d 8bc7 54be 58ff 46be b0c7 c1bd
00000140: aa28 28be 0d0a 183e 8f0c a93d f88e 533e
00000150: dccd 6d3c b465 023c f0f4 533e df3f 823e
00000160: 3a37 813e c271 7b3d c520 163e ab7d 29bd
00000170: cc83 aa3d e3e5 e63d 7464 3ebd a4d7 603d
00000180: 967f 83bd d0cc 3a3e 8d3f af3d ffaa 9a3d
00000190: 50cc 0fbd c1e7 b63d 6c71 003e 3f27 4a3e
000001a0: 43a8 a93d aee8 823d bdd4 8c3d 7339 743e
000001b0: c5aa 8abe a1b6 c13c 5a0c 84be f979 51be
000001c0: 8555 01bd fa37 41be d810 57be 3a6f a7bd
000001d0: 7e4e 8abe 89ec 77bd 807e f83c b66c 8abd
000001e0: 40dc cd3c ff8b 73be 7286 75be 8870 2fbd
000001f0: 8981 4dbe dedc 83be 068b 8fbe 04e8 87be
00000200: 5ecf a7bd f0be 34be c919 00be a7b7 31be
00000210: 12f2 1abe b18d d9bd 4a52 8ebe 64d9 15be
00000220: f065 203e e805 b33c 7978 013e a3c5 50bc
00000230: 3701 b43c 90a8 e93d ba9a febd dfee a9ba
00000240: 78bb 913d a609 0a3d d1d6 74bd 5f87 343e
00000250: 2d3c 26be 8ba5 48bd 5822 24be 80df a9bd
00000260: e608 0dbe 3438 883d c3ca 34bb 210e 3d3e
00000270: 36aa 11be eb49 213e e0fb 07be c63a 913d
00000280: 5868 a2bc c16f 863c 6d70 3dbd 78f2 2bbe
00000290: 6133 3cbe 912e 2fbe e8f5 dabd 6497 f13c
000002a0: 669e e03d 26ed 53be 7881 9bbd 9ea4 a7bd
000002b0: b6c2 81be b14b 67be bbc2 f5bd 241d f3bd
000002c0: c730 49be e242 b1ba ced1 4fbe a7a2 51be
000002d0: b159 a73c 50e8 36be 78d5 0abe 7df1 213c
000002e0: 5d10 8dbd ecb1 d6bd cdd6 68bd d69f 89be
000002f0: 47d7 50be bb0a 2bbc 88d7 20be 9c50 87be
00000300: a736 3bbe 154f 89be 57ce 12be de8a 6dbe
00000310: 5cef cebd cd12 ba3c 048b afbd 0366 51be
00000320: e3ae 5c3d 704b 293d 3695 a1bd c0e5 8fbe
00000330: 3fe8 17bd 3d9a da3c 87d1 933d 4dc9 56be
00000340: 4d9d e3bd 50c9 50be 4a1c 81be 021b 17be
00000350: 03d0 f6bd a6f7 8abd 4b9e 733d bd3e 843c
00000360: 71bf 6f3e ecc7 823e a9bd 583e 8a3c 333e
00000370: 41d8 883d 2e62 d23d a42a df3d 2c55 b9bd
00000380: 35c2 833c 0843 673d a9cb 0cbd b662 6e3e
00000390: d413 a2bd 4293 c13d 3492 12bd 8174 9c3d
000003a0: 4fe4 90bb df82 ac3b cd5a ecbc f836 6cbd
000003b0: f77d fcbd 0ae7 da3d e132 7e3e 2a6a c0bc
000003c0: fdb4 c1bd e81d 8fbb a5b8 a63d e0dd 7a3e
000003d0: 47a8 bb3d 3923 5dbd dd96 573e c296 e33b
000003e0: f174 2f3e 480e 3d3e bb88 be3d 3a78 143e
000003f0: e5ae 2a3e afd4 1cbc fdb8 dcbd 059b a33d
0.17755441 0.051866893 -0.07024187 -0.008664938 -0.041824184 -0.036750432 -0.013792758 -0.036828224
0.23925795 0.21661857 -0.050225228 -0.034340296 0.2225641 -0.06467189 0.18478982 -0.0005203459
0.0075745983 0.035867985 0.19554059 0.23087038 0.15063967 -0.1276894 0.010427589 0.045950025
0.13864098 0.21760543 0.14877786 0.11271486 0.2579971 0.07890192 0.19865103 -0.09430803
0.080882475 0.06872048 0.24046038 -0.011657735 0.06950845 -0.08340965 0.0733054 0.041324466
-0.006826938 -0.014891158 0.092510596 -0.08178378 -0.11287459 0.22516774 0.12794591 0.23041973
0.23951285 -0.090926506 0.22696617 -0.05732916 0.19042712 0.013283902 -0.013429374 -0.27378735
0.07148778 -0.07032788 -0.12152308 0.064007826 0.048805922 -0.043485764 -0.282461 0.054936636
0.079212315 -0.21401088 -0.24828166 -0.1305546 -0.2824557 -0.002367445 0.011477839 -0.18556479
-0.03792386 -0.047656868 -0.17807525 -0.040159497 0.048871547 -0.20779245 -0.19433343 -0.094619155
-0.16421762 0.14847584 0.082543485 0.20660007 0.014514413 0.007958818 0.20698905 0.25439355
0.25237447 0.061387785 0.14660938 -0.041379612 0.083259195 0.11274316 -0.04648252 0.05489315
-0.064208195 0.18242192 0.08557043 0.07552146 -0.035106957 0.08930922 0.12543267 0.19741534
0.082840465 0.063920364 0.06876514 0.2385004 -0.27083412 0.023646655 -0.25790673 -0.20456685
-0.0315757 -0.1886901 -0.21002519 -0.08175512 -0.2701301 -0.060528312 0.030333757 -0.06759016
0.025129437 -0.23783873 -0.23977068 -0.042831928 -0.20068945 -0.25754446 -0.28035754 -0.265442
-0.08193849 -0.17650962 -0.12509836 -0.17355214 -0.15131405 -0.106227286 -0.27797157 -0.14633709
0.15663886 0.021853402 0.12643613 -0.012742433 0.021973236 0.11409104 -0.124318555 -0.0012964866
0.07115835 0.033700608 -0.059775177 0.17629765 -0.16233893 -0.048986 -0.16028726 -0.08294582
-0.13772926 0.06651345 -0.0027586676 0.18462421 -0.14225087 0.15750854 -0.13279676 0.07091288
-0.019825146 0.01641071 -0.046249796 -0.16791713 -0.18378974 -0.17107607 -0.10691434 0.029491134
0.10967712 -0.20695934 -0.075930536 -0.08185695 -0.25343865 -0.22587468 -0.120000325 -0.118707925
-0.19647513 -0.0013523961 -0.20294878 -0.20472203 0.02042851 -0.17862058 -0.13557994 0.009884235
-0.06887887 -0.10483155 -0.056845475 -0.26879758 -0.20394622 -0.01043957 -0.15707219 -0.26428688
-0.18282567 -0.26818147 -0.14336525 -0.23197505 -0.10104248 0.022714043 -0.08571437 -0.2044907
0.053877722 0.04133171 -0.07889788 -0.28104973 -0.03708672 0.026684875 0.072176985 -0.20975228
-0.11113987 -0.20389295 -0.25216895 -0.14756396 -0.12051394 -0.067855164 0.05947713 0.016143197
0.23412873 0.25543153 0.211661 0.17503563 0.06681872 0.102726325 0.10896805 -0.09049448
0.016083816 0.05646041 -0.034373913 0.23279843 -0.07913938 0.09451915 -0.03578396 0.07639409
-0.0044217478 0.0052646245 -0.028851891 -0.05766961 -0.123287134 0.106885985 0.24824096 -0.023488123
-0.09458349 -0.004367579 0.08140687 0.24498701 0.09162956 -0.05398867 0.21053644 0.006945462
0.17134453 0.18462479 0.09303423 0.14498988 0.1666828 -0.009572192 -0.10777471 0.07988552

encoder.0.bias f4 [16]
00000000: 4d04 3c3e ab4c cbbd d8d3 6c3e 99c2 5dbc
00000010: 6a1d 7c3c 8099 1ebe 3c24 6f3e 0436 81bd
00000020: 3550 483e 1b5f 053e b948 8c3e 9473 c3bc
00000030: f6fa 7b3e df98 423e f355 983e aa91 313e
0.18361016 -0.09926733 0.23127687 -0.013535165 0.015387872 -0.15488243 0.23353666 -0.06309131
0.19561847 0.13024561 0.27399233 -0.023858823 0.24607453 0.19003628 0.29753074 0.17340723

encoder.3.weight f4 [8, 16, 3, 3]
00000000: 218c 153e 2562 d73d 2793 053d c7b0 003e
00000010: ff99 003e d5c7 f53d 3e43 92bb 7fe6 103e
00000020: 5ea1 1a3d 4885 4a3d 9277 acba 1241 0e3e
00000030: db27 813d e187 353c 71ae ddba 346f f73d
00000040: e827 b73d 1173 9a3d dda8 e6bd 4df9 eb3c
00000050: 7cc8 b5bd 29fc 74bd 5103 bdbd 04e0 81bd
00000060: 8ee2 0fbd e99b 2a3d 9439 40bc e77e 1d3e
00000070: 50b2 1f3d 7def 823d e8d7 0c3d 5765 603d
00000080: 9dc6 103e 1eb9 753d 8fed 193e 7755 ed3d
00000090: 013e f3bd c441 52bd 520a 52bd ab16 e5bd
000000a0: 04e6 20be 7b66 dabd a507 25bb d739 b0bd
000000b0: 2dd3 493a fb47 b43c 3e9f f8bc 2d3b 983c
000000c0: 49e9 e8bc 2a3e d5bd 31fc 20bb 80ae 003c
000000d0: aae8 0c3c adda 683c 80b4 ddbd 583a 85bd
000000e0: 8281 6cbd c19b 08be d589 a1bd 5896 8cbd
000000f0: 2c55 3d3c 6e9a b1bc 24cb a7bd 01c2 88bd
00000100: 2df2 20be 0077 97bd 0af9 30bd 867c 9bbd
00000110: b556 00be 4b52 17bd cf9b cebd be47 fcbd
00000120: f04b 073e 5c1e a43d 5925 08bc fecd 6a3c
00000130: cf3f 413c de30 b53c a6a6 e63d 41d3 833d
00000140: 0bcb 183e cc13 153e c6a0 a63d b6e3 0f3e
00000150: 57a2 c63d 4ef5 fb3d f300 213d e14c ee3d
00000160: b213 953d 8eb7 813c 8ed7 11bc 86cf a3bd
00000170: b88b 1dbe 87d7 47bd 865f 84bd 7cb3 1fbe
00000180: 4fa4 bebd 72d9 0fbd 3b5a 39bd 3dd1 14bd
00000190: c437 8dbd 2226 c3bd 125d 84bd 0b1d 03be
000001a0: c54d 8ebd 8652 1bbd 5c9c 31bc 3405 86bd
000001b0: 2e47 85bb b585 db3d 262c b13d d083 5f3d
000001c0: 5723 f83d 454a a23c 43b5 e23d a5b0 01bc
000001d0: 7c83 f03d f640 ee3d 2a6b ff3d 4830 633d
000001e0: 68e7 3c3d 4083 9b3d 9a90 f33d e4a8 c33d
000001f0: c70e f33d 850c 1b3d c48f b8bd a9f4 30be
00000200: 2145 c6bd 0c25 89bd dc69 59bd bc96 0cbe
00000210: 622c d9bb 1d9e e6bd f958 5dbd 5f96 01be
00000220: 8a77 bcbd db20 06bc fe8b bbbd a9a7 a4bd
00000230: acba 11bc 2179 6abd 1b0f 5a3c 199b a5bd
00000240: efac c63d 6417 0c3e c86e aa3d 1a90 e5b9
00000250: 0e11 713d 10c6 ac3c 7e1c e13d 232d e73d
00000260: 012c 923d 8fe9 4b3d 7518 353d 0ccb 49bc
00000270: bdd5 7a3c b05b c73d fb63 f03d 103f 123e
00000280: a1cf 8e3c c0e3 083d 03cd fc3c 652a 7b3c
00000290: 6ad1 1bbd f2aa 07be 37a9 f9bc af73 62bd
000002a0: 444b d13c 72e6 aebd 76d3 c7bd 8288 fb3d
000002b0: e731 053e 0cf3 f63d 4a70 613d 8ee0 dd3d
000002c0: f2ec 063e ea57 1e3d 8195 073e 6337 723d
000002d0: 1b97 80bc 7f0b 47bd c998 07bd aa52 16bd
000002e0: eace 11be 6440 e4bb 4f13 a7bd 660b 0bbd
000002f0: 19e2 8dbb d487 33bd 95e6 b2bd 829d 67bc
00000300: 38da bfbd b2d6 b7bd d108 12bd 70ed 10bd
00000310: a6d6 7dbd 2518 a43c 6c8c 1ebe d153 b3bd
00000320: a986 eabd f3a5 a3bc 1bfc aebd 3aad e6bc
00000330: c27a 2bbd 6ec3 a0bd 1473 9b3c a0a7 44bd
00000340: a9af fdbc 2636 0e3c 2af5 01be bf1e dfbd
00000350: 849c 61bd ef5c 71bd 14d9 93bd 20ba b9bd
00000360: a3c5 d339 d124 f83d 9902 693c 5637 babc
00000370: 58f9 8b3c 1a5c fc3d 103d e13d b40b 8f3c
00000380: 92b2 e63d bb13 003e b36e a83d 5f60 de3d
00000390: 7bee 833d b0cc 973d 0af2 e7bc c109 4a3d
000003a0: 19f2 593d 0a98 c03c 9de2 1fbe cbb9 2dbb
000003b0: 0b13 0fbe 4bf6 85bd 2d8e 5abd d04f abbd
000003c0: a50f 8fbd 21ea 0cbe 4027 c5bd f2a4 6cbd
000003d0: 2651 0bbe 1d49 69bc 6ff4 a6bd f6de 4bbd
000003e0: f2f8 14bd e4c0 f5bd 683f cebd 4b92 7fbd
000003f0: 8327 e23d 74ec bd3d 8540 fd3d e499 e8bb
0.14604236 0.105167665 0.03261104 0.12567435 0.12558745 0.120010056 -0.0044635823 0.14150427
0.037751548 0.049443513 -0.0013158193 0.1389201 0.0630643 0.011079759 -0.001691295 0.12081757
0.089431584 0.075414784 -0.11262677 0.0288054 -0.0887613 -0.05981079 -0.09229148 -0.06341556
-0.03512817 0.041652594 -0.011732478 0.1538044 0.03898841 0.06393335 0.03438559 0.054784145
0.14138265 0.059990995 0.15032028 0.11588567 -0.11877061 -0.05133225 -0.051279373 -0.11185964
-0.15712744 -0.10664078 -0.0025181558 -0.08604782 0.0007699009 0.02200698 -0.03034937 0.018582905
-0.028431552 -0.104122475 -0.002456438 0.007854104 0.008600393 0.014212293 -0.10825443 -0.06505269
-0.057740696 -0.13340665 -0.078876175 -0.06864613 0.011555951 -0.021680083 -0.08193043 -0.06677628
-0.15717383 -0.07395744 -0.043206252 -0.0759211 -0.12533076 -0.036943715 -0.10088312 -0.12318371
0.13212562 0.08013603 -0.008309686 0.014331339 0.011794998 0.022118028 0.112622544 0.06436778
0.14921205 0.14558333 0.08136134 0.14051709 0.096989326 0.123026475 0.039307546 0.11635757
0.07279147 0.015834596 -0.00890149 -0.07998566 -0.1538533 -0.048789527 -0.06463532 -0.15595812
-0.09308683 -0.03511948 -0.045252066 -0.036332358 -0.06895402 -0.09528758 -0.06463064 -0.12804048
-0.06948427 -0.037920497 -0.010840502 -0.06543961 -0.004067323 0.10718862 0.08650999 0.054569066
0.121161155 0.019810805 0.11069729 -0.0079156505 0.11743829 0.11633484 0.12471612 0.055465966
0.046119124 0.07593393 0.11892815 0.09553698 0.11868053 0.037853736 -0.09011796 -0.1728083
-0.09681154 -0.06696519 -0.05307947 -0.13729376 -0.0066276053 -0.112606265 -0.05403993 -0.12655018
-0.09202488 -0.008186544 -0.09157561 -0.08039791 -0.008894604 -0.057244424 0.0133092655 -0.08086223
0.09700953 0.13680798 0.08321911 -0.00043785648 0.058854155 0.021090537 0.109917626 0.11287906
0.07137299 0.049783286 0.044212777 -0.012316477 0.015309748 0.09734285 0.1173782 0.14281869
0.01743299 0.033420324 0.030859476 0.015329932 -0.03804151 -0.13248804 -0.030476196 -0.055286106
0.025548585 -0.08540048 -0.0975713 0.12281896 0.13007317 0.12058076 0.055038728 0.10833846
0.13176325 0.03865806 0.13240625 0.059134852 -0.015697053 -0.048594948 -0.03310469 -0.03669993
-0.14239088 -0.006965684 -0.0815798 -0.033946417 -0.0043299315 -0.043830708 -0.08735386 -0.014136674
-0.09367794 -0.08976497 -0.03565294 -0.035382688 -0.061972283 0.020031044 -0.15483254 -0.08756221
-0.11451466 -0.019976592 -0.08544179 -0.028158773 -0.041865118 -0.07849775 0.018975772 -0.048011422
-0.03096755 0.008679902 -0.12691179 -0.10894536 -0.055080906 -0.05892652 -0.07219139 -0.09068704
0.00040392307 0.12116397 0.014221811 -0.022731464 0.01708667 0.123222545 0.10997975 0.017461635
0.11264528 0.12507527 0.08224239 0.10858225 0.06441971 0.07412088 -0.028313655 0.04932571
0.053209398 0.023509998 -0.1561379 -0.0026508446 -0.13972108 -0.06541117 -0.053358246 -0.083648324
-0.06985406 -0.13761188 -0.09626627 -0.05777449 -0.13605174 -0.014238623 -0.08152091 -0.04977318
-0.036370225 -0.119996816 -0.100706875 -0.062395375 0.110426925 0.092736155 0.12365822 -0.0070984233

encoder.3.bias f4 [8]
00000000: fd48 bebb 4076 f339 0cb4 ed3c 992b b8bc
00000010: 247b 873d d022 053e dde6 b83d 2c3c e63d
-0.0058070407 0.00046436675 0.029016517 -0.022481726 0.06615284 0.13001561 0.09028409 0.112419456

decoder.0.weight f4 [8, 16, 3, 3]
00000000: d75f 87bd 2558 dabb 18a5 a4bd d5f4 cfbc
00000010: 49ec 44bc a95b d2bb 7936 7bbd 098f ce3d
00000020: cd14 62bd cade bf3d c622 2eb8 fd81 a63d
00000030: 23b8 d5bb f50d 723d 4f64 56bd 9201 d83d
00000040: 2185 d3bb 5889 b93d 8cba ab3c 82bd ed3d
00000050: e02f bbbc d842 c03d 97ed 943d cab6 8c3d
00000060: 1aa9 123e 03bd 0d3e 4fe3 583c d02d f53c
00000070: 32e8 8c3c 3c23 a73c 8f19 0fbc 253a 91bc
00000080: 0e4d 99bc fa61 d1bc bbf5 3abc 8b58 543d
00000090: 978e 13bd 6dff f63c 0a06 933d 804e 8e3d
000000a0: 8ac0 76bd a24c a93d 4987 45bd c0c8 0abc
000000b0: 8545 8e3d ffd0 5bbb 7ef4 bdbd 7090 28bc
000000c0: 3a2b 13bc c151 5e3c cf52 c1bc c571 ba3d
000000d0: fd5c 1a3d 7d83 7ebc 75d5 b23d e79c 013e
000000e0: cb8e 703d 008b a0b8 d40b c73d fbac 89bc
000000f0: d1ab c03c 190a 6f3d fa0d 8ebc 6392 1dbd
00000100: 6739 0f3c d45b e33d 2047 bd3d 21ed 233e
00000110: 1b93 403d 9c2f c23d 8314 a03d c29a ba3c
00000120: b96d de3d 475e 703d 50be f23d 582e 5e35
00000130: 4b71 02b9 2741 1936 3f05 d03d 70be 353d
00000140: 57c1 fabc b3f7 f03c 0abf 343d ccc2 53bc
00000150: 27e9 88bb d106 753c f494 8a3d bd4b 943d
00000160: 5883 723d 7ab0 fbbc f0dc b3bd 8fea ebbb
00000170: 4ec6 813c c732 263d dc11 1a3e 51c3 9e3d
00000180: 87ec b73d 4eb6 753d 1557 453c f71d 04bc
00000190: f3df c83d 4c78 6e3c b982 bd3c 1267 b3b6
000001a0: 4805 ec3d fad3 663d df1b 153e a56a bfbc
000001b0: 5d81 7e39 a179 f23c f223 813d 9bf6 bf3d
000001c0: 0903 bc3d 429f 443d 0cc4 ec3d da89 71bb
000001d0: 6ab1 c23d bb5a 493d c706 873d 3c4c b23d
000001e0: fca2 2339 99fe a63d e807 f23c 9a37 84bb
000001f0: 81c2 5a3d f955 ad3d 0c2a 1f3b 9787 f13d
00000200: ffdb bf3c ce0d 323d 8b61 f33d a70d 853d
00000210: 8e9d 23bc 83bb 0e3e 3665 47bd 536d c93c
00000220: 5927 58bd d67b 8a3d fe1d c93d 37d0 013e
00000230: 4c67 b23d 1014 b13d 8c35 25b8 e7f8 843d
00000240: 7773 76bd 52f4 383d 6586 b1bd 2b13 e6bb
00000250: 8a97 2cbc c956 6ebc 9abf 66bd 613f 123d
00000260: 4001 68bd a104 a9b9 8031 67bb 03d6 623d
00000270: 1247 0abd a184 d83d 4549 57bc 7bf1 0cbd
00000280: bbd8 55bc 8585 debc ab3e ca3b 3e3c d93d
00000290: 4888 abbd a6d4 d33d 3fc6 df3d 5111 6c3d
000002a0: e458 ab3d c985 0b3d 9af4 a63d 9137 c63d
000002b0: b047 c83d 78d9 5a3d 64b7 643d 40fd 9539
000002c0: d2f8 e13c 85e8 923d 6dec f63d 959d c93c
000002d0: f2e0 60bc e0b5 86bc ac4d 803d 15cb 903d
000002e0: cc21 2b3c e86e b73c 1526 1d3d 932a 433d
000002f0: 9cf7 9d3d 7d2e 4b3d 20d2 06bd 621d ff3c
00000300: 7726 48bd 9587 0dbb f32b 3abb 3526 0fbd
00000310: 8102 bfbd f4f1 173d fb82 4e3c 06a7 a23d
00000320: 7625 9c3c 898e f6bb 4433 333d 84e2 e6bc
00000330: d300 e6bc 6071 81bc dda4 ed3d 63ce c53d
00000340: 1012 613d 5448 e9bc b518 fc3c f203 743c
00000350: fc52 863c 46f5 8d3c 57cc 083e 3c93 713d
00000360: 83e9 bb3c 4c1f a13d 7784 be3d 6417 1939
00000370: 8bdb b532 04e7 2732 4698 693d a16a ef3d
00000380: 0a50 793c a4ae fb3c 8de0 5abb d6f4 f93c
00000390: 982f 0e3b 4470 193e 7494 f83d 2ff5 28bc
000003a0: 9caf 163c 36e3 2e3c 05a5 dfbd bfc7 693d
000003b0: 1221 fbbd 5916 143e 196f 7e3d de20 bd3d
000003c0: 2070 923d c05f c83d 4e41 873c ebfa 853d
000003d0: 9c1b 963d c168 a33d 1e6b 783d 3dbe 8a34
000003e0: 39c2 9f3d 19b3 233b c029 f83d 2155 c53d
000003f0: cda8 e53d ed7a d53d 5ce2 963d 118a 0a3e
-0.06610077 -0.0066633397 -0.08039302 -0.0253853 -0.012019225 -0.006419618 -0.061331246 0.100858755
-0.05519562 0.093686655 -4.1517218e-05 0.08130262 -0.006522195 0.05909534 -0.052341755 0.105471745
-0.006455079 0.09059399 0.020962976 0.11608411 -0.022849977 0.093877494 0.07271879 0.06870802
0.1432232 0.13841633 0.013237788 0.029929072 0.017200563 0.020402543 -0.008734121 -0.01772792
-0.0187135 -0.025559414 -0.011411126 0.051842254 -0.036024656 0.030151093 0.07178886 0.069485664
-0.060242213 0.0826657 -0.04822472 -0.008470714 0.069468535 -0.003354132 -0.09275149 -0.010288343
-0.008982474 0.013569296 -0.023599057 0.09103731 0.037686337 -0.015534279 0.0873212 0.1265751
0.058729928 -7.655285e-05 0.09719053 -0.016806116 0.023519428 0.05835924 -0.017340649 -0.038469683
0.008741713 0.11101499 0.09242082 0.16008426 0.04701529 0.09481737 0.07816412 0.022778872
0.10860772 0.05868366 0.118527055 8.2768884e-07 -0.00012439971 2.28367e-06 0.101572506 0.04437107
-0.03060977 0.029414987 0.0441275 -0.012924861 -0.0041781846 0.014955238 0.06766692 0.072410084
0.05920729 -0.030723799 -0.08782375 -0.0071995924 0.01584163 0.04057577 0.15045875 0.077520974
0.08980661 0.059988312 0.012044688 -0.008063785 0.0980834 0.014555048 0.023133622 -5.3466147e-06
0.11524445 0.0563545 0.14561413 -0.023366282 0.00024271519 0.029599013 0.06305684 0.09373208
0.091802664 0.048003443 0.115608305 -0.0036855848 0.09506495 0.049158793 0.065930896 0.08705947
0.00015605608 0.081540294 0.029544786 -0.0040349485 0.05340815 0.084636636 0.0024286536 0.1179344
0.023420332 0.043470196 0.11883839 0.064967446 -0.009986294 0.13938718 -0.048680507 0.024588263
-0.0527719 0.06761901 0.09820174 0.12677084 0.087111086 0.08646405 -3.9388935e-05 0.06492787
-0.06016871 0.045154877 -0.08668212 -0.007021328 -0.010534177 -0.014547058 -0.05633507 0.035704974
-0.056641817 -0.0003223764 -0.0035277307 0.05537988 -0.033759184 0.10572172 -0.013140027 -0.03440998
-0.013052161 -0.027163276 0.0061720214 0.106071934 -0.08375603 0.10343294 0.10926484 0.0576337
0.08366564 0.034063134 0.08152123 0.09678567 0.09779298 0.05343005 0.055838957 0.0002860818
0.027584467 0.07173256 0.120568134 0.024611274 -0.013725506 -0.016444147 0.06264815 0.07069985
0.0104450695 0.022391751 0.038366396 0.047648024 0.07713243 0.04960488 -0.032915235 0.03114194
-0.048864808 -0.0021595706 -0.0028407543 -0.034948546 -0.093266495 0.03709598 0.01260447 0.079420134
0.019060832 -0.0075243157 0.043750063 -0.028184183 -0.028076565 -0.015801132 0.11603711 0.09658506
0.054948866 -0.028476872 0.0307735 0.014893519 0.016396992 0.01732887 0.133592 0.058978304
0.022938496 0.078672975 0.093026094 0.00014599931 2.117101e-08 9.773206e-09 0.057029985 0.1169026
0.015216837 0.030722924 -0.0033398003 0.030512255 0.0021695849 0.14984232 0.1213769 -0.010312363
0.009197142 0.0106742885 -0.10920147 0.05707526 -0.12262167 0.1446165 0.06211767 0.092347845
0.071502924 0.09783888 0.016510632 0.065419994 0.07329485 0.079789646 0.06064903 2.584292e-07
0.07800717 0.0024978577 0.12117338 0.09635378 0.11213837 0.10423837 0.073673934 0.1352923

decoder.0.bias f4 [16]
00000000: 5427 953d 10e0 1e3d f330 5b3d 0bdc 263d
00000010: fbcf cd3c e11a 2d3d cdc1 7f3d d613 db3d
00000020: 43b2 01bd fa20 ee3d 92da 9b3d 813f 54bc
00000030: e34b c73d f577 6c3d 1433 443d 7d6d 043e
0.07282892 0.0387879 0.05351348 0.040737193 0.025123587 0.04226196 0.062440682 0.10697143
-0.031664144 0.116273835 0.07610048 -0.012954594 0.09731271 0.057731587 0.047900274 0.12932391

decoder.2.weight f4 [16, 8, 5, 5]
00000000: 1215 5bbd 5619 37bd ffb6 92bd 5813 64bd
00000010: 5baf 58bd 537c 45bd 3949 08bd 8c0a c0bd
00000020: 678e b8ba 706b b1bc 303a 79bd b5eb a6bd
00000030: 88f5 9dbd 9d34 b6bd 7768 72bd f80d 353c
00000040: 9f39 41bd caac 63bd a807 8dbd 9959 92bd
00000050: b73a 2fbb f438 82bc f9e0 07bd 3d2d 05bd
00000060: a178 99bd 6411 b1bc a917 b2bc 4e6c e2bc
00000070: 9663 e3b6 9a56 793c c086 c1bc 21c7 ac3a
00000080: cb7b 17bb 2337 45bd 7180 26bd 4962 c23b
00000090: 6ea1 433c ccd8 7ebd b5bf 873b 9c40 dbbc
000000a0: 04d4 1037 9034 183c 56c3 abbc 7357 c2bc
000000b0: faae dfbb 954d b1bc f0f8 91bd 0097 6abc
000000c0: 7dc7 dbbb 2c8f 4bbd d55c 93bd 6bca 2ebd
000000d0: c584 83bc 8324 bcbd a68a cdbc 9d52 efbc
000000e0: d259 30bd 921a 1ebd 2699 8abd ae89 41bd
000000f0: db20 15bd 25fd 263c e496 2abd 93b6 d3bc
00000100: bbd9 a0bd 71e6 5bbd 648a 61bd b2c5 15bd
00000110: ea8b 50bd 8049 6bbd c32c 6e3b f7a9 40bd
00000120: dcbc 8abd 05c9 09bd c782 83bd 5dba 92bd
00000130: 1550 ecbc 9f62 80bd d187 3fbc 3d57 0b3c
00000140: 5619 1bbb 8408 6fbd aedc c0bb 65dc 0e3c
00000150: edce 91bd 096f 7dbc 1dca 8cbd 7d45 d7bc
00000160: 677c 30bd b193 abbd bc8f b9bc ab69 a7bd
00000170: b1b5 033b 425a 8e3a ed33 03bd a593 8dbd
00000180: 03cf 88bd 20e3 913a dd76 67bc 18d3 1fbd
00000190: b0b7 0cbd 46f7 c3bc 2a23 d2bc b4ec 81bd
000001a0: 70bd b9bd c534 a7bd d97a cabd 8ad8 7abd
000001b0: c4e4 c2bc b8f3 aabd a136 5abd 50bd fbbd
000001c0: 19bf a7bc 7cab 64bd afbf b6bd 76ed d8bc
000001d0: 82e5 dbbc 64fc 83bd ac7f 4fbd ca9e 8bbd
000001e0: 43a7 a6bd 662e 65bd 53ae 91bd 06d2 10bd
000001f0: b7e1 a4bc 45dd a93d d16c b23d a090 613e
00000200: 6c58 d03d 5dfc fa3d 6586 b93d 5273 d73d
00000210: 5f11 3a3e 73c7 dd3d 894f d53d c0ad 313e
00000220: 2a2e 4e3e fdd6 423e eedf 483e 39cb 443e
00000230: acad c63d 67cf c73d 274f 433e 10ae c53d
00000240: 242d f03d fc14 be3d d8e8 e83d 610c 353e
00000250: 1114 d73d 7088 d73d 3195 a5bd 9ed9 68bc
00000260: 48d1 7ebd 11f2 98bd 91ac 66bc 5880 343b
00000270: 4854 023d 4e57 6fbd b832 07bd d743 26bd
00000280: aa6e 773b 5049 26bc 6a2c 75bd 15b1 693c
00000290: be3d 23bd 9247 3cbd d6c1 cabc a072 8bbd
000002a0: d9b8 4cbd 2eea debc d974 22bc 0a20 61bc
000002b0: 9306 2bbd a73a 0abd 2b5f 063c b9b1 43bc
000002c0: e0dc f9bc e2bf acbc 12c0 8e3c c1e7 49bc
000002d0: e787 aebd 6c27 d7bc f735 01bd db32 80bc
000002e0: cc39 01bd 7fb9 b7bc 7c81 c0bc 999b 1abd
000002f0: a932 cabc ada2 4e3a bd26 93bd 8520 bc3c
00000300: 4a6a 44bd ae3a c6bc afef b13c 6c21 90bd
00000310: 868b a9bd a3d1 45bd 95a3 8b3b 5e13 52bd
00000320: 39fb 41bd 8c05 423d a295 b6bc bba1 033d
00000330: 1219 09bd 89a7 b03c dc12 3bbd 69cb 43bd
00000340: 40d5 6cbd c6de 51bd 0962 55bc 6d30 72bd
00000350: 6d66 70bc 8822 2abd b074 f13c f2b2 b73b
00000360: 6168 61bc 14d5 68bd 7e6f 343d 7c58 40bd
00000370: 0bdc 57bd f36a 98bc 5304 ed3a e707 023d
00000380: a429 3fbd e11d 043c 5892 fd3c 6c05 13bc
00000390: 28e0 38bc 52d2 793c 7334 793d 731f 173d
000003a0: 599a 9f3d 49e2 d03c 65d9 883d 56f2 9b3d
000003b0: 1231 f43d 75e2 97bc 787c af3d 2455 673d
000003c0: 548c b9bb c5ed f93d 56fd 9ebb 61a3 76bb
000003d0: 6ec5 aebc e4f0 0bbb 2c10 b03d aba6 8b3d
000003e0: 9884 fa3d 4d64 cf3d d034 633d 5426 08bc
000003f0: 99d3 a73c de10 d13c 6017 823b 6580 a53d
-0.05348689 -0.044701897 -0.0716381 -0.05568251 -0.052901607 -0.048214268 -0.033272956 -0.09377012
-0.0014080525 -0.021657676 -0.060846508 -0.08150426 -0.07712847 -0.08896754 -0.059181657 0.011050694
-0.047174092 -0.055584706 -0.06886226 -0.07145996 -0.0026737878 -0.015896298 -0.033173535 -0.032513846
-0.07493711 -0.021614738 -0.021739798 -0.027639534 -6.7767205e-06 0.015218401 -0.023623824 0.0013181904
-0.0023114558 -0.048148286 -0.040649835 0.0059321267 0.011940343 -0.062218472 0.0041427263 -0.026764207
8.632433e-06 0.009289876 -0.020967167 -0.02372334 -0.0068262788 -0.02164344 -0.07127559 -0.014318228
-0.0067071305 -0.049697086 -0.07195441 -0.04267351 -0.01605452 -0.091866516 -0.025090527 -0.029214198
-0.04305441 -0.03859956 -0.06767492 -0.047250442 -0.036408287 0.01019219 -0.041647807 -0.025843894
-0.07854029 -0.053686563 -0.05506362 -0.03656549 -0.050914682 -0.057443142 0.0036342598 -0.04703709
-0.06774303 -0.033638973 -0.06421428 -0.07164452 -0.02884678 -0.062688105 -0.011690096 0.008504686
-0.0023666224 -0.05835773 -0.005885682 0.008719538 -0.07119546 -0.015468367 -0.068744875 -0.026278252
-0.04308739 -0.08377779 -0.022651546 -0.081744514 0.002009731 0.0010860639 -0.032031942 -0.069129266
-0.06680109 0.0011130311 -0.01412746 -0.039019674 -0.034354866 -0.02392162 -0.025651533 -0.06343976
-0.090693355 -0.08164362 -0.098867126 -0.061241664 -0.023790725 -0.08347267 -0.053274754 -0.12291968
-0.020476865 -0.055827603 -0.089232795 -0.026480418 -0.026842836 -0.06444624 -0.050658867 -0.06817396
-0.081373714 -0.055952452 -0.07113328 -0.035356544 -0.02012716 0.08294157 0.08712161 0.22027826
0.10173115 0.12255166 0.09058837 0.105200425 0.18170689 0.108290575 0.10415561 0.17351437
0.20134798 0.19027324 0.19616672 0.19218148 0.09701094 0.09756356 0.19073163 0.096523404
0.1172736 0.09281346 0.113725364 0.17680503 0.10501874 0.1052407 -0.08085097 -0.01421204
-0.062211305 -0.074680455 -0.014079229 0.002754232 0.031818658 -0.05843287 -0.033007354 -0.04059204
0.003775517 -0.010149315 -0.05985681 0.014263411 -0.039853804 -0.045966692 -0.024750631 -0.06808972
-0.049980972 -0.027211275 -0.009915554 -0.013740549 -0.041754317 -0.03374734 0.008201401 -0.011944228
-0.03050083 -0.02108759 0.01742557 -0.012323321 -0.08522015 -0.026263915 -0.031545606 -0.01564925
-0.03154926 -0.022427319 -0.023499243 -0.037746046 -0.02468236 0.0007882517 -0.07185123 0.022964725
-0.047952928 -0.024197903 0.021720735 -0.07037625 -0.08278565 -0.04829563 0.004261444 -0.051288
-0.047358725 0.04736857 -0.022288147 0.03213666 -0.033471175 0.021564262 -0.045672283 -0.04780141
-0.05782056 -0.051237844 -0.013023862 -0.059128214 -0.014672858 -0.041536838 0.029474586 0.0056060487
-0.013757796 -0.056843832 0.04405164 -0.046959385 -0.052700084 -0.018605685 0.0018082954 0.031745818
-0.04667057 0.008063764 0.030953571 -0.008973461 -0.011283912 0.015247898 0.060841035 0.036895227
0.07793111 0.025498526 0.0668209 0.07614581 0.11923422 -0.0185406 0.085686624 0.05647768
-0.0056624804 0.12203554 -0.0048519773 -0.0037634003 -0.021334376 -0.0021353299 0.085968345 0.06818899
0.122323215 0.10126553 0.055470288 -0.008309919 0.02048664 0.025520738 0.0039700717 0.0808113

decoder.2.bias f4 [8]
00000000: d911 243d 6f4f 7a3d e8fd 933c e813 b13d
00000010: aaa0 9a3d 64a8 e23d 5793 123d aa89 a63d
0.040056083 0.06111091 0.018065408 0.08646375 0.075501755 0.11067274 0.035785045 0.08131726

decoder.4.weight f4 [8, 3, 2, 2]
00000000: 6bb8 15be d016 73bd 6d5e 883e 6829 c8bd
00000010: 97d5 653e 3984 cdbd 5b50 9dbd c4ba f4bd
00000020: 252f a93e ca0c 4c3e b174 583e cb1c 403e
00000030: 3c84 31be 5546 843e 5c18 babd 8aec 013e
00000040: 6c65 04be b49b 71bd 2957 843e 3a43 a63e
00000050: 508b 943c 5db1 f53d 80e7 45be 2661 b23b
00000060: bd8a a63e 7850 023e ae51 893e 1f1a 463e
00000070: 6abf 603e 2209 973e 41f9 76bd 5192 3dbc
00000080: 6159 643e 02eb 333e 3c1f 953e a4ff 29be
00000090: a867 5f3e c64c 7a3e 3993 973e 9dea 8b3e
000000a0: 8f41 123d 0316 e8bc 90e4 b63d bf71 c8bd
000000b0: 9910 5a3e b599 e7bc 3ab4 9f3e 1f72 ad3e
000000c0: 84d1 473e d41f a63e 3e98 133d b955 f03c
000000d0: 0956 8b3e 0385 643e 8e27 4d3e 0d1d e1bd
000000e0: e7c1 90bd c862 953e 3091 37be e7c3 b63e
000000f0: bdc3 7bbd cc71 0bbe c2ae 16be a9be 01be
00000100: 1def 89be 97a9 55be 54c3 3bbe 82dd 86be
00000110: 09c2 a2be 968d a1bd 5952 a2be 348f 22be
00000120: fae3 8c3d 838e 9ebd 3350 4e3e e959 efbd
00000130: 3292 893e f833 36be a651 a73e c832 10bc
00000140: b2cd 583d 70fa 9a3d 79f0 9a3e a6a1 593e
00000150: ae7d 4f3e 9e0a 813c cf96 1a3e c7c7 633d
00000160: e8d9 043e 01e5 293e fc0f 07be b454 463e
00000170: 6a1f 9f3e 2b4b cbbc cb44 843e 01da 74bd
-0.14621131 -0.059347928 0.2663454 -0.097735226 0.2244476 -0.10034985 -0.07681342 -0.11949685
0.3304378 0.19926754 0.21138264 0.18760984 -0.173356 0.2583491 -0.090866774 0.12687889
-0.12929314 -0.05898638 0.25847748 0.32473165 0.018132836 0.1199672 -0.19326591 0.00544371
0.32527724 0.12726009 0.2682013 0.19345902 0.21948019 0.29499155 -0.0602963 -0.011570529
0.2229972 0.17570117 0.29125392 -0.16601425 0.21816885 0.24443349 0.2960451 0.27327433
0.035707053 -0.028330809 0.089303136 -0.0978732 0.21295394 -0.028271535 0.3119219 0.3387613
0.19513518 0.32446158 0.03603386 0.02933775 0.27214077 0.22316365 0.2003462 -0.10991869
-0.07068234 0.29176927 -0.17926478 0.35696337 -0.061465967 -0.13617629 -0.14715102 -0.12670387
-0.2694024 -0.20865475 -0.1833623 -0.26340872 -0.31788662 -0.078883335 -0.3170345 -0.1587494
0.068794206 -0.07742026 0.20147781 -0.11687071 0.2686935 -0.17793262 0.3267948 -0.00880117
0.05293054 0.075672984 0.3026159 0.2125307 0.20262787 0.015752133 0.15096591 0.055610444
0.1297375 0.16591264 -0.13189691 0.19368249 0.31078655 -0.024816116 0.25833735 -0.059778217

decoder.4.bias f4 [3]
00000000: 3719 11be c119 893e 33f3 493e
-0.14169775 0.2677746 0.1972168
