conv_autoencoder-2.pth (torch_old, 26174 bytes, 10 tensors)

encoder.0.weight f4 [16, 3, 3, 3]
0.37183326 0.27347836 -0.1482119 0.25437856 0.0290682 -0.1794059 -0.10609431 -0.24033043
-0.51665765 0.381675 0.23433775 -0.101983406 0.19990455 0.13357855 -0.0992815 -0.17158633
-0.25173295 -0.48992732 0.45715132 0.21230741 -0.047437802 0.15894015 0.04643752 -0.21563269
-0.14574209 -0.26315695 -0.452302 -0.26424852 -0.057074692 -0.11192693 0.105260834 0.15614623
-0.020295607 0.06696057 0.08409217 0.18843181 -0.30644715 -0.06908713 0.011471855 -0.008792339
0.18837991 0.1386501 0.23193575 0.2632287 0.24877255 -0.26034072 -0.16121033 -0.0709995
-0.11315344 -0.073132515 -0.03154704 0.0691781 0.27832767 0.09510094 -0.038506337 -0.07764843
-0.17368513 -0.08660769 -0.09398073 -0.069552615 -0.14074048 -0.19664094 -0.20834285 0.03711856
-0.101154335 -0.10490343 -0.06468611 -0.13969211 -0.1355302 -0.19341703 -0.21800031 -0.16656026
0.0009586771 -0.00096048816 -0.110001445 -0.112490304 -0.20023902 -0.18682362 -0.10537676 -0.11541196
-0.16954823 0.010881071 0.071313076 0.0056787375 0.21678615 0.116579324 -0.020407053 -0.071308725
0.24017023 0.055406243 0.15296267 0.17261045 0.2314441 0.24650083 0.054161362 0.22632968
0.18775946 0.15412076 0.16706412 0.051271204 0.028033596 -0.027142053 0.06176983 -0.0069405297
0.1631811 0.1991805 0.0005551558 0.15955102 -0.48875442 0.063156255 0.045813378 -0.17902821
-0.011492261 0.120734334 -0.28908485 0.20673291 0.33587787 -0.43562436 -0.022264166 0.13541572
-0.21333747 0.1023797 0.15515216 -0.21677682 0.17125303 0.4036314 -0.4382976 -0.1025943
-0.031124324 -0.09407859 0.010534642 0.23967902 -0.3142299 0.05853006 0.2824297 0.2914529
0.034962747 -0.26795894 0.14891148 -0.0361427 -0.06554774 0.04174228 0.0519529 -0.24113539
0.06424325 0.003089977 -0.17549805 0.20771474 0.08950789 -0.20495246 0.16699484 0.117343515
-0.012939675 0.22995725 0.07313798 -0.11734784 0.09783998 0.16583745 -0.14312735 0.23659943
0.11251552 -0.18654141 0.05641131 0.20797804 0.30626985 -0.05571034 0.17347409 0.32340768
-0.48753417 -0.2226347 -0.19961283 0.14802441 0.30819315 0.20037708 -0.09017172 0.11994935
0.32088718 -0.59117144 -0.24466188 -0.16658747 0.20469731 0.27869126 0.19666134 -0.018239511
0.0827054 0.30455276 -0.5853875 -0.09443398 -0.019727241 0.049083862 0.16229662 0.3678002
0.15554447 0.17523587 0.122611105 0.15037028 0.038431264 0.14346547 0.069715224 0.17439702
0.39722663 0.040049486 0.057549898 0.22447197 0.043387778 0.17637971 0.06491764 0.008981131
0.27061826 0.35355496 0.113995016 0.0033779305 0.16019937 0.046451416 -0.024020541 0.13562968
-0.1489747 -0.18946365 -0.33536854 0.17563501 0.048742555 -0.17254911 0.34708503 0.2024724
-0.15557209 -0.0840331 -0.17582849 -0.40761745 0.16395292 0.112831794 -0.14616914 0.2959564
0.16206007 -0.16701785 -0.019546285 -0.21032001 -0.48510328 0.10068569 0.103391305 -0.25487185
0.42919654 0.18167464 -0.08269808 0.19000755 0.050587486 -0.02611424 0.21884525 0.13528487
0.15535158 0.35043067 0.3001517 0.2369102 0.13425718 0.037430126 0.049576607 0.18569173
00000000: ee60 be3e 5b05 8c3e dcc4 17be e83d 823e
00000010: 6f20 ee3c 2eb6 37be f947 d9bd 2e19 76be
00000020: ad43 04bf e86a c33e 3cf6 6f3e addc d0bd
00000030: c7b3 4c3e d1c8 083e 1954 cbbd 54b4 2fbe
00000040: 24e3 80be c1d7 fabe bd0f ea3e 1d67 593e
00000050: 244e 42bd 35c1 223e 4535 3e3d d1ce 5cbe
00000060: 6a3d 15be 82bc 86be 2194 e7be 954b 87be
00000070: 27c7 69bd f239 e5bd fe92 d73d cce4 1f3e
00000080: f942 a6bc a022 893d 8438 ac3d 45f4 403e
00000090: a4e6 9cbe 8e7d 8dbd 73f4 3b3c be0d 10bc
000000a0: aae6 403e 4bfa 0d3e 9180 6d3e eac5 863e
000000b0: 3bbe 7e3e 614b 85be 5214 25be 3068 91bd
000000c0: febc e7bd 80c6 95bd 7837 01bd 3fad 8d3d
000000d0: f780 8e3e 48c4 c23d d2b8 1dbd 2406 9fbd
000000e0: 84da 31be 5f5f b1bd f878 c0bd 9a71 8ebd
000000f0: 461e 10be 3e5c 49be d457 55be a209 183d
00000100: 012a cfbd 9cd7 d6bd 277a 84bd 730b 0fbe
00000110: 6ec8 0abe 1d0f 46be 793b 5fbe c68e 2abe
00000120: bb4f 7b3a 45c9 7bba 7048 e1bd 5161 e6bd
00000130: 750b 4dbe b14e 3fbe c5cf d7bd 1b5d ecbd
00000140: 0d9e 2dbe 8546 323c 970c 923d b414 ba3b
00000150: 30fd 5d3e 24c1 ee3d b12c a7bc 4f0a 92bd
00000160: 2fef 753e a8f1 623d 3fa2 1c3e cbc0 303e
00000170: afff 6c3e b76a 7c3e 4ed8 5d3d f8c2 673e
00000180: 0444 403e d5d1 1d3e db12 2b3e c101 523d
00000190: b6a6 e53c 0359 debc 5c02 7d3d 626d e3bb
000001a0: f218 273e f9f5 4b3e e087 113a 5861 233e
000001b0: 053e fabe 1158 813d cfa6 3b3d 2c53 37be
000001c0: 094a 3cbc 9043 f73d ee02 94be cbb1 533e
000001d0: 2ff8 ab3e 280a dfbe 5763 b6bc 6baa 0a3e
000001e0: 2375 5abe 73ac d13d 35e0 1e3e befa 5dbe
000001f0: f45c 2f3e c6a8 ce3e 8b68 e0be f61c d2bd
00000200: 70f8 febc 47ac c0bd 7e99 2c3c 6b6e 753e
00000210: bee2 a0be 37bd 6f3d a09a 903e 5139 953e
00000220: 1935 0f3d ea31 89be 407c 183e 5e0a 14bd
00000230: e53d 86bd f4f9 2a3d 90cc 543d 32ec 76be
00000240: f791 833d 3681 4a3b c3b5 33be 2cb3 543e
00000250: ea4f b73d 0fdf 51be b200 2b3e cc51 f03d
00000260: ee00 54bc ea79 6b3e 5ec9 953d 1054 f0bd
00000270: 5460 c83d 4bd1 293e fa8f 12be 1f47 723e
00000280: 896e e63d b604 3fbe 8c0f 673d 32f8 543e
00000290: 67cf 9c3e 8730 64bd 31a3 313e b195 a53e
000002a0: 149e f9be 5afa 63be 4e67 4cbe b693 173e
000002b0: 7ecb 9d3e a62f 4d3e f3ab b8bd 01a8 f53d
000002c0: 534b a43e 0357 17bf a588 7abe e895 2abe
000002d0: 2c9c 513e 9fb0 8e3e 9761 493e 076b 95bc
000002e0: 7361 a93d 57ee 9b3e f5db 15bf 9a66 c1bd
000002f0: 069b a1bc 290c 493d 1631 263e 4f50 bc3e
00000300: 0d47 1f3e 0871 333e 881b fb3d abfa 193e
00000310: 1a6a 1d3d 9de8 123e dbc6 8e3d 2295 323e
00000320: 4a61 cb3e ee0a 243d 71b9 6b3d fbdb 653e
00000330: 62b7 313d e29c 343e 8af3 843d 9825 133c
00000340: 7a8e 8a3e 2805 b53e 3876 e93d 4560 5d3b
00000350: 4e0b 243e d743 3e3d bac6 c4bc 82e2 0a3e
00000360: d38c 18be c202 42be 6db5 abbe aad9 333e
00000370: 46a6 473d b7b0 30be 21b5 b13e ed54 4f3e
00000380: 4a4e 1fbe 8c19 acbd 620c 34be 3cb3 d0be
00000390: 46e3 273e 5b14 e73d 5dad 15be 9987 973e
000003a0: 13f3 253e ba06 2bbe 881f a0bc 215e 57be
000003b0: 755f f8be 4d34 ce3d d2be d33d 907e 82be
000003c0: a6bf db3e eb08 3a3e 9c5d a9bd 5791 423e
000003d0: d334 4f3d 88ed d5bc f818 603e 1e88 0a3e
000003e0: 7c14 1f3e a66b b33e 7cad 993e 9698 723e
000003f0: b77a 093e 5550 193d d710 4b3d f925 3e3e

encoder.0.bias f4 [16]
0.6714263 0.27866757 0.8779522 0.16601865 1.2276028 0.17551364 0.2378619 0.15377583
1.0835701 0.4148434 0.10019793 0.59829134 0.78325224 0.23552634 0.28832012 0.8535512
00000000: 98e2 2b3f 84ad 8e3e 7ac1 603f cb00 2a3e
00000010: 1722 9d3f d9b9 333e 1292 733e 6977 1d3e
00000020: 6db2 8a3f 5b66 d43e 9334 cd3d 9f29 193f
00000030: 3883 483f d12d 713e b29e 933e 5582 5a3f

encoder.3.weight f4 [8, 16, 3, 3]
-0.099144936 -0.12415097 0.079213426 -0.22931395 -0.24742568 0.20359272 -0.07871278 0.15022874
0.14325587 -0.028169766 -0.1513708 -0.021684777 0.017799601 0.13947654 0.06357097 -0.08447931
-0.20252751 -0.032815393 -0.01640251 -0.10365547 0.03177071 0.010424174 -0.15391319 0.06358954
0.08015206 0.14865868 0.07113923 0.070965506 0.064431466 0.110547595 0.10125072 0.042979043
0.082045324 0.01919909 0.020381078 0.063696176 0.0061490103 -0.29765344 -0.26734367 0.056042377
0.02761146 -0.2817552 -0.07618378 -0.10059066 0.05029436 0.09259619 -0.04349173 0.13773444
0.10652475 0.037313696 0.11714774 -0.018876126 -0.03369914 0.18220113 0.073874675 0.029060628
-0.047410756 0.12354836 -0.036384024 -0.21240067 0.037973206 0.29875273 -0.19245614 0.05504894
0.019626537 0.12084381 0.06414302 0.16023165 0.057267524 0.037479144 0.03480027 0.020510452
-0.17620566 -0.5956953 0.050136127 -0.18888257 -0.21243486 -0.09877722 0.17465316 -0.27818283
-0.12845771 0.015342984 -0.19481571 0.08929199 0.21653622 0.19761331 0.25023085 -0.1256392
-0.056371566 -0.043760758 0.022273563 0.022182638 0.086865425 0.014134255 0.143881 0.08249154
0.04894034 -0.040166996 -0.06262339 -0.012687386 -0.1323378 0.0961715 0.06390048 -0.18344533
0.085655324 0.09764365 0.123888336 0.15730047 0.04713688 -0.02241904 0.049323425 0.074639864
-0.11860157 -0.106976934 0.10521793 0.26464748 -0.06441507 0.11681647 -0.07479457 0.14261721
-0.064569116 0.0008612477 0.23498072 -0.0742035 -0.011080683 0.20308061 0.0055843806 0.009293003
0.038547814 -0.003895668 0.11908975 0.07940567 0.061770476 -0.0038407247 -0.011546558 0.056539234
-0.3502783 0.021400198 -0.15153848 -0.0799592 -0.043400418 -0.0058492734 0.035225954 0.12317492
-0.107061304 -0.003911712 0.1389271 -0.119909324 0.07503442 -0.061879866 0.09475025 -0.07907079
0.25407165 -0.08974229 0.047257964 0.0063256426 0.035068434 0.19074862 0.045479544 -0.019269388
0.0438277 0.088723645 -0.3444786 -0.15707944 -0.16602248 -0.15230569 -0.10274386 -0.063129984
-0.13152686 -0.029272454 -0.07649457 0.028638145 -0.006517811 0.04152274 0.07875617 0.16887684
0.07897808 0.08691085 0.09162322 0.13187893 -0.51119244 0.05841989 -0.55700445 0.024498664
0.4287481 -0.17152517 -0.34582466 -0.020041455 -0.49361324 0.052231792 -0.0027105443 0.026946912
-0.040894 0.1579766 0.021385947 0.14020225 -0.003079166 0.08577476 0.21912083 -0.021846944
0.0834244 -0.1916307 0.23935196 -0.08934117 0.0060970993 0.03622912 -0.061216198 -0.058686886
-0.038333073 0.25909355 -0.042666323 0.25832486 -0.053870857 0.06685768 0.012042564 0.07294646
-0.20056671 -0.028676346 -0.22006412 -0.12589873 0.2582993 0.08259893 -0.26307124 -0.031162245
-0.26879176 -0.19668469 -0.1317449 -0.17590615 -0.055874117 0.380136 -0.11260989 0.2465552
-0.0887424 0.2916943 -0.009576298 -0.04908533 0.10570068 -0.03017923 0.20759961 0.017376339
0.00552502 0.027777009 0.17689821 -0.43605134 -0.15180607 -0.24709564 -0.19118461 -0.08531732
-0.053539548 -0.12930533 0.040658962 -0.1711305 -0.2972838 -0.26718378 -0.3785662 -0.005360072
00000000: 800c cbbd dd42 febd a63a a23d 47d1 6abe
00000010: 285d 7dbe 9c7a 503e 2a34 a1bd 90d5 193e
00000020: abb1 123e 48c4 e6bc f200 1bbe 46a4 b1bc
00000030: 78d0 913c f0d2 0e3e 7f31 823d 7d03 adbd
00000040: 5f63 4fbe 6f69 06bd 8f5e 86bc 5249 d4bd
00000050: 0122 023d 28ca 2a3c 6b9b 1dbe 3c3b 823d
00000060: c326 a43d fb39 183e 72b1 913d 5d56 913d
00000070: a5f4 833d c766 e23d 8a5c cf3d cb0a 303d
00000080: 6107 a83d 6947 9d3c 38f6 a63c 2473 823d
00000090: a37d c93b 0866 98be 45e1 88be b18c 653d
000000a0: 6e31 e23c 3842 90be 3e06 9cbd 7a02 cebd
000000b0: 7501 4e3d 12a3 bd3d 6224 32bd 420a 0d3e
000000c0: a629 da3d 3fd6 183d 28eb ef3d 1ba2 9abc
000000d0: 1c08 0abd ef92 3a3e 9b4b 973d 8e10 ee3c
000000e0: c831 42bd ec06 fd3d 6a07 15bd 907f 59be
000000f0: cb89 1b3d 1ef6 983e 3913 45be ff7a 613d
00000100: d5c7 a03c f67c f73d 6a5d 833d c413 243e
00000110: 5a91 6a3d bb83 193d ba8a 0e3d 8905 a83c
00000120: 426f 34be 7d7f 18bf 8a5b 4d3d 6f6a 41be
00000130: 8688 59be b64b cabd 47d8 323e fb6d 8ebe
00000140: 6b8a 03be 2461 7b3c c57d 47be b8de b63d
00000150: acbb 5d3e 255b 4a3e 421e 803e 90a7 00be
00000160: dfe5 66bd 7b3e 33bd 0c77 b63c 5db8 b53c
00000170: 80e6 b13d 5d93 673c 8a55 133e 53f1 a83d
00000180: aa75 483d 2686 24bd b140 80bd c1de 4fbc
00000190: 8f83 07be 90f5 c43d 41de 823d 18d9 3bbe
000001a0: 0f6c af3d 65f9 c73d 2bb9 fd3d 6013 213e
000001b0: 9a12 413d 22a8 b7bc 5c07 4a3d c9dc 983d
000001c0: 61e5 f2bd b916 dbbd 807c d73d e07f 873e
000001d0: 0cec 83bd 793d ef3d e52d 99bd 3f0a 123e
000001e0: d03c 84bd 5bc5 613a c99e 703e 01f8 97bd
000001f0: c18b 35bc 5df4 4f3e 2efd b63b ae41 183c
00000200: 50e4 1d3d 774e 7fbb 54e5 f33d 719f a23d
00000210: 0a03 7d3d abb4 7bbb c62d 3dbc af95 673d
00000220: ad57 b3be 784f af3c e72c 1bbe a6c1 a3bd
00000230: a3c4 31bd 43ab bfbb 1749 103d 2243 fc3d
00000240: f542 dbbd d22d 80bb e842 0e3e 0593 f5bd
00000250: a5ab 993d be75 7dbd 6b0c c23d deef a1bd
00000260: ae15 823e ceca b7bd 9191 413d 5647 cf3b
00000270: eba3 0f3d 9b53 433e c248 3a3d d6da 9dbc
00000280: ad84 333d beb4 b53d 805f b0be 6fd9 20be
00000290: cc01 2abe 06f6 1bbe 5f6b d2bd 4b4a 81bd
000002a0: faae 06be c9cc efbc 2fa9 9cbd 8b9a ea3c
000002b0: 5d93 d5bb c013 2a3d ea4a a13d 0dee 2c3e
000002c0: 42bf a13d 51fe b13d f4a4 bb3d 450b 073e
000002d0: 82dd 02bf b249 6f3d d897 0ebf 6cb1 c83c
000002e0: df84 db3e 4ba4 2fbe ee0f b1be fa2d a4bc
000002f0: e0ba fcbe 01f1 553d 63a3 31bb c5bf dc3c
00000300: 7880 27bd 9ec4 213e 9531 af3c 2e91 0f3e
00000310: d5cb 49bb adaa af3d 3661 603e 5df8 b2bc
00000320: 69da aa3d d73a 44be ae18 753e 81f8 b6bd
00000330: 2dca c73b fc64 143d d6bd 7abd a961 70bd
00000340: 2403 1dbd e9a7 843e e2c2 2ebd 2843 843e
00000350: b0a7 5cbd aeec 883d 2d4e 453c f464 953d
00000360: 5c61 4dbe a8ea eabc 7d58 61be 99eb 00be
00000370: ce3f 843e a129 a93d 46b1 86be f747 ffbc
00000380: 139f 89be b667 49be 23e8 06be be20 34be
00000390: 42dc 64bd 30a1 c23e 04a0 e6bd f778 7c3e
000003a0: 93be b5bd f558 953e e8e5 1cbc b30d 49bd
000003b0: 9979 d83d 6f3a f7bc fe94 543e d358 8e3c
000003c0: 3a0b b53b 9c8c e33c ce24 353e 1f42 dfbe
000003d0: 0d73 1bbe a406 7dbe e6c5 43be d9ba aebd
000003e0: 494c 5bbd 9e68 04be 038a 263d d53c 2fbe
000003f0: 9535 98be 50cc 88be 6ed3 c1be 8ba3 afbb

encoder.3.bias f4 [8]
0.049287673 0.10731927 0.039510883 -0.049505036 0.65224993 0.0727614 -0.015239006 0.014990819
00000000: dfe1 493d 35ca db3d 2ad6 213d cbc5 4abd
00000010: daf9 263f ee03 953d 06ad 79bc 0d9c 753c

decoder.0.weight f4 [8, 16, 3, 3]
-0.06594973 -0.04874769 0.2019666 0.11669297 0.033734564 0.0056316894 -0.15226994 0.02374178
0.08842955 0.11221633 0.057236984 0.07938449 -0.21234567 0.05686895 0.080988966 -0.22725266
0.12462967 -0.198344 0.008509566 -0.07382392 -0.18488199 0.012966189 0.031137345 0.07366862
-0.05161182 0.004752295 -0.05179969 0.015611806 -0.19509974 -0.03177314 -0.060330782 -0.032266825
-0.1902985 0.0022998697 0.071428336 0.040414598 -0.032031883 0.006634242 0.05467741 0.14181542
0.23379254 0.09385267 0.052063547 0.0088406755 -0.08136988 0.31555787 -0.0061041913 0.3177216
-0.15928616 -6.62575e-40 0.038175892 0.046446774 -0.20239009 -0.0492006 0.058397338 0.050451577
0.143159 -0.061698485 0.0042161765 0.013366054 0.0045142635 -0.019664302 -0.14869426 0.27442822
0.22476518 0.1967265 -0.22678821 -0.00073639344 -0.03691391 0.015065311 -0.019409334 0.021720087
0.20254818 -0.2708068 -0.0023145613 -0.005411377 0.10642394 0.23617645 0.01431206 0.055737283
-0.04644122 0.1599282 0.04150471 0.12023302 -0.14887263 -0.0735317 -0.23748131 -0.024421412
0.14269117 0.026190681 -0.27099288 -0.061995324 0.31084213 0.052462064 0.15461971 -0.040697984
-0.119737275 0.17618077 0.057130553 0.19432688 -0.36608016 0.13765396 0.14714625 0.04742305
-0.11567126 0.01991867 -0.048017256 0.111298524 0.1424696 0.10086773 0.002100513 0.21229401
0.20361193 0.14860605 0.03015161 0.07605212 -0.11248933 0.10780915 0.08415752 -0.05505583
-0.040445916 0.16314922 -0.12409653 -0.08355784 -0.030501448 0.0063361335 -0.025319112 0.4450128
0.011856109 0.12043335 0.11609698 0.0908841 0.07547792 0.2754718 0.040364087 0.11207314
-0.13251583 0.16624388 -0.12778822 0.23144859 0.08107992 -0.01691383 0.015969163 0.010677676
-0.09540438 0.19113202 0.12171129 0.024816247 0.81820023 0.13988861 0.0045699356 -0.07280466
-0.08257376 -0.14408864 0.12379842 -0.118964896 0.7035403 0.27326104 0.21055035 -0.16721253
0.061109535 -0.10935083 0.07573694 0.06508961 0.09898623 0.094116345 -0.3068415 0.15205215
0.18475091 0.1521753 0.03539088 0.07712054 0.5525249 -0.004868549 0.084268615 -0.07407885
0.12498197 0.06502531 0.019030673 0.017914614 -0.03129378 0.06470086 0.10626986 0.08313806
-0.3090638 0.18527497 0.07841418 0.07030167 0.063302524 0.020230724 -0.18463993 0.09637056
-0.015022511 3.8565e-41 -0.18742466 -0.27529967 -0.24635783 0.03555871 0.023065055 -0.1292247
-0.2534626 0.14238368 0.13557854 -0.25115523 -0.022228235 -0.057992715 0.003718333 0.22431113
0.2095927 0.04634539 -0.0039310944 -0.0006063399 0.11324234 -0.10667556 -0.15258935 -0.21060796
-0.08299337 0.23272882 0.027679449 0.06988751 0.01353226 -0.024567027 0.04992652 0.25796682
0.045731902 0.032511085 0.16444282 -0.0037139347 0.18967077 0.31086063 -0.031609055 0.049954895
0.122648254 -0.008104354 0.07398311 -0.052549176 0.0013051936 -0.27609566 0.28431895 -0.016847158
-0.07996558 -0.04807839 0.12362625 0.2700925 0.14730337 0.06786947 0.11472232 0.08137611
-0.16408078 0.21852551 -0.033135477 -0.084180936 -0.14124072 -0.032568265 0.015795335 0.30215108
00000000: a710 87bd a8ab 47bd 55d0 4e3e b9fc ee3d
00000010: 412d 0a3d 098a b83b a7ec 1bbe 1f7e c23c
00000020: 8d1a b53d add1 e53d 5471 6a3d 5694 a23d
00000030: 2571 59be 6bef 683d 8bdd a53d ecb4 68be
00000040: d73d ff3d b11a 4bbe b56b 0b3c ff30 97bd
00000050: b451 3dbe 2370 543c bf13 ff3c 93df 963d
00000060: ea66 53bd 24b9 9b3b e92b 54bd a9c8 7f3c
00000070: 3ac8 47be 8d24 02bd 691d 77bd 382a 04bd
00000080: 9cdd 42be 69b9 163b 0549 923d c789 253d
00000090: dd33 03bd 0e64 d93b 6bf5 5f3d 1038 113e
000000a0: 5067 6f3e d435 c03d 9640 553d 7bd8 103c
000000b0: 40a5 a6bd cd90 a13e ab05 c8bb 68ac a23e
000000c0: e91b 23be fd36 0780 535e 1c3d f93e 3e3d
000000d0: 593f 4fbe 9186 49bd 0c32 6f3d 50a6 4e3d
000000e0: 4698 123e 8db7 7cbd da27 8a3b 4bfd 5a3c
000000f0: 63ec 933b 0817 a1bc 4f43 18be db81 8c3e
00000100: d828 663e ac72 493e 2b3b 68be 870a 41ba
00000110: 0a33 17bd 7fd4 763c 5300 9fbc 53ee b13c
00000120: ca68 4f3e 30a7 8abe e5af 17bb ec51 b1bb
00000130: cbf4 d93d 3dd8 713e 217d 6a3c c74c 643d
00000140: 2639 3ebd 38c4 233e d800 2a3d bb3c f63d
00000150: 1172 18be ca97 96bd 4d2e 73be 6a0f c8bc
00000160: a21d 123e d78d d63c 94bf 8abe cfee 7dbd
00000170: b326 9f3e 76e2 563d a154 1e3e eeb2 26bd
00000180: d138 f5bd bb68 343e ba01 6a3d a0fd 463e
00000190: dc6e bbbe 29f5 0c3e 82ad 163e ac3e 423d
000001a0: 0ee5 ecbd 7b2c a33c bead 44bd 7bf0 e33d
000001b0: 8de3 113e be93 ce3d c3a8 093b 9a63 593e
000001c0: a57f 503e 2f2c 183e 8200 f73c 37c1 9b3d
000001d0: ce60 e6bd 0bcb dc3d c75a ac3d 3982 61bd
000001e0: 9eaa 25bd 9710 273e 5226 febd 5f20 abbd
000001f0: 2cde f9bc 579f cf3b 076a cfbc b8d8 e33e
00000200: 2040 423c c3a5 f63d 41c4 ed3d 7121 ba3d
00000210: 2b94 9a3d a40a 8d3e d054 253d 9a86 e53d
00000220: 3bb2 07be d63b 2a3e eada 02be dc00 6d3e
00000230: 3b0d a63d df8e 8abc c3d1 823c 6bf1 2e3c
00000240: 5f63 c3bd 1db8 433e c543 f93d 714b cb3c
00000250: 9275 513f f63e 0f3e 66bf 953b 9c1a 95bd
00000260: 6e1c a9bd f98b 13be 078a fd3d dea3 f3bd
00000270: 381b 343f dfe8 8b3e 839a 573e c339 2bbe
00000280: fe4d 7a3d 54f3 dfbd f81b 9b3d b44d 853d
00000290: 4bb9 ca3d 12c0 c03d 541a 9dbe 8fb3 1b3e
000002a0: 582f 3d3e d8d3 1b3e 07f6 103d 60f1 9d3d
000002b0: 4672 0d3f 5988 9fbb 0695 ac3d a7b6 97bd
000002c0: 8cf6 ff3d fd2b 853d 37e6 9b3c abc1 923c
000002d0: e82d 00bd e281 843d 03a4 d93d 4a44 aa3d
000002e0: 9c3d 9ebe b9b8 3d3e 9d97 a03d 52fa 8f3d
000002f0: c1a4 813d e7ba a53c 4012 3dbe ee5d c53d
00000300: fa20 76bc 816b 0000 40ec 3fbe 14f4 8cbe
00000310: 3a45 7cbe 03a6 113d edf2 bc3c 7b53 04be
00000320: dac5 81be 07cd 113e 1ad5 0a3e 6b97 80be
00000330: fd17 b6bc c589 6dbd 47af 733b d1b1 653e
00000340: 789f 563e aad4 3d3d 69d0 80bb c8f2 1eba
00000350: 9aeb e73d b778 dabd 6240 1cbe 9da9 57be
00000360: 6ef8 a9bd 7750 6e3e 03c0 e23c 2f21 8f3d
00000370: 6ab6 5d3c ca40 c9bc c07f 4c3d 3a14 843e
00000380: 6051 3b3d 582a 053d b363 283e 7c65 73bb
00000390: 0e39 423e 2029 9f3e 7f78 01bd 819d 4c3d
000003a0: 022f fb3d 20c8 04bc 7584 973d ce3d 57bd
000003b0: 0813 ab3a 695c 8dbe 4192 913e 0d03 8abc
000003c0: fec4 a3bd d9ed 44bd c22f fd3d 9049 8a3e
000003d0: b2d6 163e 26ff 8a3d 89f3 ea3d 85a8 a63d
000003e0: cb04 28be 27c5 5f3e 11b9 07bd 0e67 acbd
000003f0: 68a1 10be 4d66 05bd 3865 813c 8cb3 9a3e

decoder.0.bias f4 [16]
-0.15003303 -0.15196227 0.32099947 -0.041736547 0.017786693 -0.11239255 -0.0048601534 0.041246954
0.02210912 0.06510652 0.08171269 -0.067457125 0.06493926 -0.090894654 -0.16486251 0.007573874
00000000: 42a2 19be ff9b 1bbe 0b5a a43e f1f3 2abd
00000010: 66b5 913c 112e e6bd ec41 9fbb 91f2 283d
00000020: 2f1e b53c 9156 853d fc58 a73d f626 8abd
00000030: e0fe 843d fa26 babd b8d1 28be 432e f83b

decoder.2.weight f4 [16, 8, 5, 5]
-0.006301125 0.07538021 0.09211659 0.041124348 0.02340609 0.0776629 0.15510206 0.15310548
0.11167708 0.049105633 0.085327424 0.14730746 0.19178306 0.10709352 0.0397849 0.034945816
0.085808836 0.18163717 0.12298467 0.0519066 -0.01622271 0.06110932 0.08625586 0.09886616
0.025091004 0.10653626 0.11114279 0.12062268 0.10631181 0.012376714 0.15466309 0.1925992
0.16359669 0.13755643 0.059432115 0.08698787 0.20179561 0.20972939 0.14045943 0.10167946
0.08274951 0.13569574 0.16810152 0.17612448 0.023264797 0.044050165 0.08659314 0.07176422
0.06623004 0.035793897 -0.0073846164 0.034679297 0.04326898 0.0378823 0.058840517 0.06700563
0.16313379 0.2144412 0.18093796 0.11250226 0.14855 0.22136013 0.23068413 0.26696378
0.10911578 0.06669838 0.22799501 0.214647 0.24954121 0.16320768 0.043786805 0.11884691
0.16409045 0.1777106 0.1181388 0.060610242 0.120432526 0.10660831 0.06715171 0.071375705
0.09660955 0.14716977 0.16816153 0.1515858 0.07304078 0.05850079 0.14517298 0.19739774
0.19969857 0.12560402 -0.003150592 0.11030703 0.12639701 0.10126919 0.12077823 0.01746463
0.034362655 0.0530439 0.015166058 0.016336383 -0.023217553 -0.04032519 -0.044369973 -0.016178811
-0.014176047 -0.010272691 -0.0459068 -0.068179846 -0.034893528 -0.028045112 -0.01929577 -0.00019536795
-0.01310733 -0.00645052 0.008442864 0.02168526 0.030764176 0.065220766 0.042260714 -0.004570557
0.011939479 0.013335859 0.022262724 0.017144775 -0.007230495 -0.034862194 -0.044838913 -0.03330371
-0.01790417 -0.009950246 -0.019328782 -0.012421772 -0.029201617 -0.029352795 -0.02152426 0.016088832
-0.011119155 -0.07848342 -0.062200367 -0.054861955 0.012626457 0.024464896 -0.04256105 -0.0608332
-0.048185773 0.0193212 0.025053507 -0.027072255 -0.037854046 -0.03416706 0.009485716 0.022446144
0.10662899 0.09922137 0.013371488 0.03618457 0.13575554 0.19611704 0.16289878 0.1200954
0.049556993 0.13886213 0.22108132 0.21288441 0.14183457 0.060643755 0.046179604 0.21796401
0.19448806 0.104117624 0.02870935 0.06698958 0.113417506 0.11199196 0.09771155 -0.04086578
-0.025948498 -0.011433655 0.0013855172 0.0064260107 -0.042533047 -0.05134087 -0.026875151 0.017337907
0.013240525 -0.06480482 -0.09103048 -0.084777966 0.0013484348 0.0034763895 -0.033330344 -0.06358216
-0.07105747 -0.007990814 -0.010295414 -0.0008174028 -0.03208899 -0.04644893 -0.02184482 -0.021457987
0.075699545 0.044706296 0.08627202 0.060201842 -0.050190076 0.09503544 0.1451251 0.1397145
0.08791338 -0.004596252 0.09639556 0.15962867 0.21429524 0.11625801 -0.024117516 0.08699751
0.09836226 0.15483733 0.08685414 -0.03269342 0.08099906 0.112575755 0.055013783 0.068582155
0.019405905 0.10192105 0.08469939 0.094411746 0.11798545 0.0636267 0.11757938 0.17174515
0.17110348 0.14131206 0.029990785 0.1315306 0.23159103 0.2161122 0.14901492 0.027496547
0.08347841 0.14870761 0.17433642 0.09516891 0.026659928 -0.0373201 0.006208961 0.054972738
-0.0012665581 0.01918514 0.05343182 0.09372336 0.07950666 0.056127977 0.03351071 0.12121258
00000000: ab79 cebb f160 9a3d 9fa7 bc3d 0172 283d
00000010: 21be bf3c ba0d 9f3d 13d3 1e3e afc7 1c3e
00000020: f4b6 e43d fd22 493d 25c0 ae3d c4d7 163e
00000030: c762 443e d953 db3d 7ef5 223d 5823 0f3d
00000040: 8bbc af3d 18ff 393e 63df fb3d 049c 543d
00000050: 7de5 84bc c44d 7a3d eaa6 b03d 577a ca3d
00000060: a68b cd3c af2f da3d d59e e33d 0609 f73d
00000070: 02ba d93d b3c7 4a3c 0060 1e3e ba38 453e
00000080: e485 273e 98db 0c3e 176f 733d b226 b23d
00000090: 82a3 4e3e 4dc3 563e 99d4 0f3e 523d d03d
000000a0: 9378 a93d d3f3 0a3e ce22 2c3e fa59 343e
000000b0: d195 be3c f26d 343d bf57 b13d 1ff9 923d
000000c0: 9da3 873d 9f9c 123d a7fa f1bb e10b 0e3d
000000d0: d03a 313d 782a 1b3d c102 713d 3f3a 893d
000000e0: 8b0c 273e 7996 5b3e cd47 393e 9667 e63d
000000f0: 7e1d 183e 3bac 623e 7638 6c3e 7aaf 883e
00000100: 1878 df3d 2999 883d 8677 693e 6ccc 5b3e
00000110: bb87 7f3e ea1f 273e cb59 333d 0266 f33d
00000120: 5407 283e c4f9 353e c1f2 f13d 7242 783d
00000130: 54a5 f63d 7555 da3d d686 893d 6d2d 923d
00000140: 3adb c53d acb3 163e 8932 2c3e 4f39 1b3e
00000150: 6896 953d 869e 6f3d 3aa8 143e a222 4a3e
00000160: c87d 4c3e 579e 003e 2a7a 4ebb a7e8 e13d
00000170: 386e 013e 3966 cf3d 945a f73d fc11 8f3c
00000180: dbbf 0c3d 8f44 593d 0f7b 783c e1d3 853c
00000190: bd32 bebc 072c 25bd 4abd 35bd 6d89 84bc
000001a0: a742 68bc ca4e 28bc c508 3cbd e0a1 8bbd
000001b0: 84ec 0ebd ddbe e5bc 2a12 9ebc afdb 4cb9
000001c0: 20c0 56bc e25e d3bb f053 0a3c 49a5 b13c
000001d0: 2705 fc3c 7792 853d 9219 2d3d 9cc4 95bb
000001e0: ce9d 433c a67e 5a3c 5160 b63c 3373 8c3c
000001f0: caed ecbb a9cb 0ebd 02a9 37bd 7969 08bd
00000200: c4ab 92bc 5b06 23bc 6557 9ebc b084 4bbc
00000210: 3b38 efbc 4675 f0bc a553 b0bc bacc 833c
00000220: 1e2d 36bc eabb a0bd d0c5 7ebd eeb6 60bd
00000230: 33df 4e3c 9b6a c83c 7f54 2ebd 3c2c 79bd
00000240: 725e 45bd 7e47 9e3c 033d cd3c a2c6 ddbc
00000250: d80c 1bbd c2f2 0bbd fa69 1b3c fae0 b73c
00000260: 4d60 da3d 9334 cb3d 1614 5b3c 4636 143d
00000270: 8003 0b3e e8d2 483e f0ce 263e 94f4 f53d
00000280: 46fc 4a3d e031 0e3e 2463 623e 5ffe 593e
00000290: 153d 113e 9665 783d d326 3d3d f531 5f3e
000002a0: e127 473e 9f3b d53d df2f eb3c d531 893d
000002b0: 7047 e83d 0a5c e53d fe1c c83d e062 27bd
000002c0: f291 d4bc 3a54 3bbc 3e9a b53a 4991 d23b
000002d0: 2237 2ebd ce4a 52bd 4729 dcbc 3a08 8e3c
000002e0: c9ee 583c 64b8 84bd 306e babd 12a0 adbd
000002f0: f7bd b03a 23d4 633b 6685 08bd 5d37 82bd
00000300: 9486 91bd e7eb 02bc 19ae 28bc f946 56ba
00000310: bf6f 03bd 3c41 3ebd e8f3 b2bc a9c8 afbc
00000320: 5d08 9b3d f31d 373d 63af b03d 3596 763d
00000330: 1c94 4dbd f1a1 c23d ad9b 143e 5111 0f3e
00000340: ee0b b43d 289c 96bb 096b c53d b375 233e
00000350: 3670 5b3e ae18 ee3d 1992 c5bc c02b b23d
00000360: 2772 c93d ad8d 1e3e 95e0 b13d 89e9 05bd
00000370: d6e2 a53d 1e8e e63d 2256 613d cd74 8c3d
00000380: 22f9 9e3c fcbb d03d e076 ad3d f25a c13d
00000390: 5ba2 f13d b74e 823d 75cd f03d f6dd 2f3e
000003a0: c035 2f3e 1cb4 103e 3caf f53c f5af 063e
000003b0: 3326 6d3e 844c 5d3e 5e97 183e 7040 e13c
000003c0: bbf6 aa3d cf46 183e 3f85 323e ebe7 c23d
000003d0: ec65 da3c f6dc 18bd 8a74 cb3b 182b 613d
000003e0: a302 a6ba 282a 9d3c 53db 5a3d 08f2 bf3d
000003f0: 63d4 a23d 73e6 653d 8742 093d 4d3e f83d

decoder.2.bias f4 [8]
0.017271651 0.015062935 0.006121074 0.035214998 0.049911678 0.10826377 -0.0933422 0.03652332
00000000: 477d 8d3c 87ca 763c 4a93 c83b 9a3d 103d
00000010: 3070 4c3d 65b9 dd3d 322a bfbd 7a99 153d

decoder.4.weight f4 [8, 3, 2, 2]
0.15933646 0.13066505 0.035916224 0.36362642 -0.05572136 0.2643954 0.18820131 0.24787568
0.061253283 0.31166765 0.10381575 0.2952817 -0.067372136 0.44798365 0.24166802 0.5557892
0.19000894 0.27837703 0.057832662 0.6105648 0.08477558 0.2364692 0.12497113 0.6134683
0.52578664 0.5680976 0.18890114 0.20316608 0.59234405 0.39523518 0.14228487 0.20193507
0.49034533 0.55059 0.14569408 0.26859266 0.3144405 -0.091692746 0.47206554 0.3663644
-0.023094067 -0.012342639 0.57825243 0.29247826 -0.034218766 0.056961853 0.5702658 0.17050643
0.1846345 0.027334549 -0.37385768 -0.42978916 0.062918074 0.07876915 -0.3748323 -0.47085476
0.07535137 0.0050589093 -0.37770882 -0.5665608 -0.5685402 -0.0590883 -0.3539949 -0.06416215
-0.5788508 -0.027986875 -0.36782667 -0.028498769 -0.5495232 -0.10830516 -0.36562598 -0.093266346
0.23835137 0.05931538 0.55336714 0.029513424 0.40140146 0.1995643 0.5497168 0.106800534
0.5023829 -0.00424416 0.5603253 0.076866135 -0.20632009 -0.5871626 0.017072674 -0.22656228
-0.18146281 -0.7401058 -0.0490799 -0.3093428 -0.2528264 -0.63794047 -0.08331625 -0.20337786
00000000: 1929 233e 0fcd 053e e41c 133d 3e2d ba3e
00000010: 153c 64bd d55e 873e d8b7 403e 1fd3 7d3e
00000020: b9e4 7a3d e792 9f3e 5a9d d43d 2a2f 973e
00000030: 67fa 89bd 1d5e e53e d277 773e 3348 0e3f
00000040: b491 423e 6f87 8e3e f1e1 6c3d fa4d 1c3f
00000050: d29e ad3d fb24 723e ddf0 ff3d 420c 1d3f
00000060: f499 063f d86e 113f 4d6f 413e c50a 503e
00000070: dca3 173f 445c ca3e 20b3 113e 11c8 4e3e
00000080: 8b0e fb3e 77f3 0c3f d430 153e fa84 893e
00000090: 58fe a03e 68c9 bbbd 93b2 f13e 1d94 bb3e
000000a0: c52f bdbc c838 4abc 5a08 143f b6bf 953e
000000b0: fa28 0cbd d550 693d f1fc 113f 3d99 2e3e
000000c0: d410 3d3e b4ec df3c 466a bfbe 530d dcbe
000000d0: 31db 803d b851 a13d 05ea bfbe e013 f1be
000000e0: d251 9a3d 35c5 a53b 0d63 c1be 210a 11bf
000000f0: da8b 11bf 9306 72bd d23e b5be 7267 83bd
00000100: 912f 14bf bb44 e5bc c753 bcbe 4076 e9bc
00000110: 8dad 0cbf 19cf ddbd 5433 bbbe 6d02 bfbd
00000120: 6212 743e aff4 723d 78a9 0d3f 23c6 f13c
00000130: 7e84 cd3e 955a 4c3e 3dba 0c3f 3dba da3d
00000140: 2a9c 003f 9812 8bbb 7b71 0f3f fe6b 9d3d
00000150: 9345 53be 4a50 16bf fedb 8b3c f1ff 67be
00000160: 63d1 39be 9377 3dbf 0108 49bd 2e62 9ebe
00000170: 7672 81be 1150 23bf b6a1 aabd 4942 50be

decoder.4.bias f4 [3]
-0.075035565 0.013686597 0.05140616
00000000: 3fac 99bd c03d 603c 448f 523d
