conv_autoencoder-8.pth (torch_old, 26206 bytes, 10 tensors)

encoder.0.weight f4 [16, 3, 3, 3]
-0.079566985 0.20207323 0.1947008 0.22985472 0.04759802 0.14355773 -0.066561 -0.046407785
-0.05777676 0.11642733 0.2478855 0.096982844 0.044725765 0.22562192 0.23659872 0.09487438
0.19736265 0.15267354 0.02117702 0.20814142 0.0016592102 -0.10147712 0.12216728 0.031309303
0.018707065 0.110375874 0.047701743 0.0702864 0.10666254 0.062228557 0.23364374 0.15950003
0.12597913 0.16223907 0.1202679 0.13089478 0.21485691 0.14136034 -0.048093453 0.15398349
0.071133986 0.087989725 0.23684844 0.20817518 0.1359451 0.17611861 0.02995355 0.15192857
0.1298749 -0.05392333 -0.0029098806 -0.0065906295 0.110681586 0.20410673 -0.0399323 -0.23537476
-0.046681188 -0.1896312 -0.060704663 -0.07092489 -0.23461407 0.06889839 -0.05804343 -0.26928556
-0.120071575 -0.051961564 -0.0019003963 0.0035307906 -0.20628308 -0.20232168 -0.11892599 -0.19454543
-0.2223983 -0.22488233 0.10399246 -0.011184382 -0.22912517 -0.25857264 -0.18307503 -0.028864183
-0.2343697 0.060456667 -0.06655801 -0.063286155 0.06502517 -0.051110595 -0.1834708 -0.23236915
-0.053544063 -0.22882375 -0.05123623 -0.02540086 -0.07883224 0.01952213 -0.12352905 -0.12875655
0.047588017 -0.21841663 -0.13481672 -0.035856485 0.05834702 -0.077589996 0.037533365 -0.08431058
-0.03563627 -0.12362798 -0.050781023 -0.2570182 -0.18982533 -0.020609701 -0.17892526 -0.1946094
0.07303763 0.03077687 -0.0473519 0.028923523 -0.07010233 -0.085287765 0.03572588 -0.21806778
-0.25891963 -0.14023247 -0.16526517 -0.07758686 -0.12203391 0.10641016 -0.21953595 -0.16950502
-0.034531858 -0.044075333 0.007056095 -0.094993226 -0.23078713 -0.033001326 0.06984741 0.08287527
-0.06984551 0.02211398 -0.06211339 0.1033122 -0.124953635 -0.15585631 0.011454717 -0.26110393
0.08424304 -0.25675583 0.086049356 -0.20252831 -0.23226546 -0.10551198 -0.111114986 0.06302993
-0.037857175 -0.24957053 -0.22442603 -0.17692304 0.010578373 -0.1865762 -0.08127048 -0.13866965
-0.22186923 0.02719251 0.18512721 0.41209593 0.12002475 0.47296575 0.39962727 0.29327402
0.17338811 0.32673112 0.1042653 0.30371466 0.30596238 0.11748063 0.47066775 0.20198642
0.22847684 0.1711384 0.37362874 0.3872309 0.41791454 0.29039106 0.21779494 0.26639003
0.31039536 0.23808146 0.16724038 0.2765103 0.07548048 -0.17745471 -0.04716717 -0.11886761
-0.20431846 -0.13997588 -0.16735548 -0.048882354 -0.1045572 -0.10091918 -0.18641071 0.048153296
0.027261266 -0.22609086 -0.21894352 -0.15810618 0.010949609 0.0037768206 -0.22172602 0.067468226
0.0003589359 -0.1842338 0.04436397 -0.21322612 -0.24662682 -0.20012645 0.10973712 -0.018808238
-0.031570345 -0.017128289 0.21823022 0.061968457 0.27590212 0.029376827 0.23586632 -0.043371137
-0.083296634 0.063564986 0.16349088 0.24335745 -0.08269189 -0.001035047 0.16619658 0.18514244
0.15520892 0.15113072 0.22677773 0.16519284 0.21160716 0.11200464 0.1809046 0.12820771
0.1557667 -0.029789004 -0.014480034 0.23433279 0.08132815 0.14013654 0.0400232 0.12407612
0.24651581 0.27768895 0.1634019 0.15676263 -0.017136164 0.10479829 -0.06072225 -0.02725594
00000000: 04f4 a2bd 49ec 4e3e a65f 473e 095f 6b3e
00000010: 24f6 423d cc00 133e 2251 88bd 1716 3ebd
00000020: 53a7 6cbd 7471 ee3d b2d5 7d3e f19e c63d
00000030: 5d32 373d 6f09 673e ef46 723e 804d c23d
00000040: 6f19 4a3e 7456 1c3e 6e7b ad3c 0623 553e
00000050: db79 d93a 3cd3 cfbd d732 fa3d 2f3e 003d
00000060: 8f3f 993c bf0c e23d e762 433d 51f2 8f3d
00000070: e471 da3d 5fe3 7e3d 4e40 6f3e fa53 233e
00000080: ac00 013e 0022 263e 044f f63d 4809 063e
00000090: 7303 5c3e c4c0 103e a4fd 44bd d9ad 1d3e
000000a0: b2ae 913d f533 b43d 6688 723e e02b 553e
000000b0: 3135 0b3e 7058 343e 2661 f53c 2a93 1b3e
000000c0: edfd 043e b6de 5cbd b2b3 3ebb 35f6 d7bb
000000d0: 07ad e23d 5b01 513e 0d90 23bd 1506 71be
000000e0: c634 3fbd ae2e 42be 74a5 78bd 1241 91bd
000000f0: ac3e 70be 991a 8d3d f3be 6dbd ccdf 89be
00000100: 16e8 f5bd a6d5 54bd b816 f9ba d664 673b
00000110: df3b 53be 6a2d 4fbe 788f f3bd eb36 47be
00000120: 61bc 63be 8e47 66be 00fa d43d b33e 37bc
00000130: ca9f 6abe a263 84be 0578 3bbe 9474 ecbc
00000140: 9cfe 6fbe 69a1 773d 914f 88bd 2c9c 81bd
00000150: eb2b 853d 5859 51bd c5df 3bbe 2ef2 6dbe
00000160: 0551 5bbd c650 6abe 15dd 51bd 7715 d0bc
00000170: cc72 a1bd e0ec 9f3c ccfc fcbd c2d8 03be
00000180: a7eb 423d 9ca8 5fbe 650d 0abe 40de 12bd
00000190: 49fd 6e3d 81e7 9ebd 96bc 193d 06ab acbd
000001a0: 56f7 11bd ab30 fdbd c3ff 4fbd e497 83be
000001b0: 9261 42be add5 a8bc 2f38 37be b047 47be
000001c0: c194 953d c61f fc3c 11f4 41bd 06f1 ec3c
000001d0: cf91 8fbd 5aab aebd 4d55 123d 294d 5fbe
000001e0: 1d91 84be 1a99 0fbe 463b 29be dce5 9ebd
000001f0: eaec f9bd 92ed d93d 08ce 60be b992 2dbe
00000200: 4771 0dbd 5688 34bd d136 e73b cf8b c2bd
00000210: 7653 6cbe 662c 07bd 290c 8f3d 82ba a93d
00000220: 2a0b 8fbd 6128 b53c 9c6a 7ebd 5995 d33d
00000230: b1e7 ffbd cc98 1fbe 91ac 3b3c 6aaf 85be
00000240: 9d87 ac3d 8075 83be a53a b03d 9563 4fbe
00000250: ffd6 6dbe aa16 d8bd 4190 e3bd d615 813d
00000260: 2010 1bbd 6b8f 7fbe f0cf 65be 502b 35be
00000270: ea50 2d3c d50d 3fbe 2371 a6bd 6bff 0dbe
00000280: b031 63be d4c2 de3c fd91 3d3e 3dfe d23e
00000290: 89cf f53d 9128 f23e f29b cc3e 0328 963e
000002a0: a78c 313e 4d49 a73e 0c89 d53d 7d80 9b3e
000002b0: 1aa7 9c3e af99 f03d 5dfb f03e 87d5 4e3e
000002c0: d5f5 693e e83e 2f3e 444c bf3e 2143 c63e
000002d0: e5f8 d53e 23ae 943e a305 5f3e 4664 883e
000002e0: 24ec 9e3e a0cb 733e 1041 2b3e c292 8d3e
000002f0: 8395 9a3d b0b6 35be 5d32 41bd dd70 f3bd
00000300: dc38 51be d655 0fbe 3c5f 2bbe dd38 48bd
00000310: 1622 d6bd b7ae cebd 73e2 3ebe 643c 453d
00000320: 0553 df3c 5d84 67be bb32 60be 96e6 21be
00000330: fd65 333c 8984 773b 250c 63be c82c 8a3d
00000340: 902f bc39 c9a7 3cbe ffb6 353d f357 5abe
00000350: be8b 7cbe f3ed 4cbe dbbd e03d bc13 9abc
00000360: e84f 01bd a050 8cbc be77 5f3e a3d2 7d3d
00000370: 0b43 8d3e aca7 f03c f186 713e efa5 31bd
00000380: 6d97 aabd 5c2e 823d 276a 273e b232 793e
00000390: 5e5a a9bd 6aaa 87ba 702f 2a3e fb95 3d3e
000003a0: 16ef 1e3e 03c2 1a3e 6c38 683e 5028 293e
000003b0: 8caf 583e b062 e53d 0e3f 393e e248 033e
000003c0: 4e81 1f3e 1208 f4bc aa3d 6dbc eff4 6f3e
000003d0: 608f a63d f47f 0f3e 5eef 233d 9f1b fe3d
000003e0: a46e 7c3e 3f2d 8e3e d452 273e 6286 203e
000003f0: 2461 8cbc 7ca0 d63d e5b7 78bd d947 dfbc

encoder.0.bias f4 [16]
0.19181822 0.08889024 -0.062455527 0.23805204 0.05834351 0.075641416 0.17227614 0.23282659
0.07523441 0.15436299 0.125544 0.23237754 0.008327209 -0.038087983 0.073917255 0.084556065
00000000: ff6b 443e 160c b63d 5ed1 7fbd eac3 733e
00000010: 9bf9 6e3d e3e9 9a3d 2869 303e 186a 6e3e
00000020: 8014 9a3d 5511 1e3e 9b8e 003e 61f4 6d3e
00000030: d96e 083c 2502 1cbd ee61 973d bb2b ad3d

encoder.3.weight f4 [8, 16, 3, 3]
-0.19635694 -0.12941961 0.044241175 -0.093568124 -0.080789044 0.047240164 0.023764987 0.08554547
0.07674518 -0.107900165 -0.17161724 0.08267347 -0.15422244 -0.07222492 0.054672968 0.114885844
0.07622435 0.06422269 0.13690372 0.11144974 0.0074022096 0.08598945 0.1139949 -0.015677085
0.014406889 -0.005689653 -0.0704423 0.13045487 0.09191743 0.003418668 0.07204739 0.08333581
-0.047755994 -0.042309735 0.028546268 -0.060220785 0.17996222 0.13259596 0.02687128 0.100492045
0.13201132 0.016199043 0.047596388 0.023351226 -0.04531205 0.15904486 0.13433568 0.023813838
0.09640004 0.1337475 0.00358921 0.011526537 0.013320166 -0.051707063 -0.095749676 -0.22993729
0.11632527 -0.20254795 -0.074104145 0.05194765 0.09907028 0.0630564 0.05251982 0.1510327
0.13170801 0.0034221036 0.090799116 0.13805385 -0.0065785535 0.020457963 0.021156274 -0.057615295
-0.10258878 -0.16163105 0.062550165 -0.12455841 -0.07378544 0.06013529 -0.0051069786 0.030716524
-0.030370787 -0.09410951 -0.12174537 0.11857186 -0.15147468 -0.07304246 0.0757663 0.104371995
0.0984582 0.050222803 0.19470255 0.109652355 0.021220207 0.050391454 0.07645426 -0.05377808
-0.017119054 -0.014007961 -0.032114424 0.15455894 0.14070955 0.026991546 0.09869336 0.12671256
0.005892707 0.015328136 0.0055034636 -0.046480544 -0.42502117 -0.46821457 0.045710694 -0.17402886
-0.092761725 -0.001230148 0.10669367 -0.093645565 0.3008348 -0.10756972 -0.12600246 0.044387825
-0.1395284 -0.078942314 0.046263326 0.02709916 0.061540086 -0.010634064 0.1786393 0.13529846
0.033263244 0.103574336 0.12839675 0.014008678 0.04032091 0.011049108 -0.043586537 -0.116396144
-0.17209192 0.07683888 -0.100079164 -0.1010481 0.05992627 0.10001266 0.09713416 0.06131267
-0.024038875 -0.006582288 -0.014197679 -0.027417883 -0.10796963 0.0024371608 -0.029670198 -0.03594828
-0.05192737 -0.00026220002 -0.07926537 0.051093012 -0.06504228 -0.167669 -0.039949678 0.023461316
-0.069453835 -0.03176318 0.1173954 0.08090155 0.06514145 0.042663097 0.12528893 0.11380307
0.05268231 0.13504937 0.044498153 0.04889056 0.04584762 0.0022055611 0.0969866 0.15512815
0.13843864 0.041460305 0.034051377 0.056468163 0.057150178 0.03211395 0.13415085 0.13612273
0.11922512 0.11297683 0.08229118 0.10086009 0.09139099 0.024643298 0.022561798 0.02461317
0.15603793 0.06364816 0.10600785 0.12471519 0.11322132 -0.0075805876 0.18516089 0.14358424
0.20953707 0.07626094 -0.33899716 0.17012163 0.24482661 -0.012258137 0.14218922 0.13840528
0.06616135 0.061446466 0.09830411 0.098681904 0.1488795 0.041480474 0.053707376 0.070601135
-0.12525874 -0.04987821 -0.07439745 -0.096697606 -0.065023296 -0.13985956 -0.119175725 -0.16375272
0.0037522255 -0.12564619 -0.08858354 -0.05596844 -0.041560575 -0.17869738 -0.13225867 0.007816495
-0.09550423 -0.12838744 0.07264429 0.09669916 0.019446265 0.123757236 0.14285877 0.121334165
0.0328954 0.19008777 -0.011769389 -0.013026891 0.15669705 0.007614867 0.11930061 0.13841078
0.07733688 0.13591592 0.15543269 0.10358803 -0.0881291 0.09081704 0.137978 0.011716436
00000000: cb11 49be 9386 04be 3c36 353d a5a0 bfbd
00000010: ba74 a5bd e77e 413d caae c23c 7732 af3d
00000020: 942c 9d3d c3fa dcbd 6ebc 2fbe b550 a93d
00000030: 7dec 1dbe a9ea 93bd c3f0 5f3d 4549 eb3d
00000040: 831b 9c3d 3087 833d 7d30 0c3e c33f e43d
00000050: 3c8e f23b 3d1b b03d 2876 e93d 3b6d 80bc
00000060: df0a 6c3c 4570 babb 0d44 90bd f695 053e
00000070: 353f bc3d bb0b 603b 958d 933d f7ab aa3d
00000080: ca9b 43bd f94c 2dbd ddd9 e93c 12aa 76bd
00000090: 0448 383e 3cc7 073e 2921 dc3c c6ce cd3d
000000a0: fa2d 073e dbb3 843c 6ef4 423d 124b bf3c
000000b0: 2199 39bd a8dc 223e 4b8f 093e 3d15 c33c
000000c0: 626d c53d 1bf5 083e f438 6b3b cdd9 3c3c
000000d0: d33c 5a3c c9ca 53bd 6818 c4bd ae74 6bbe
000000e0: f13b ee3d bb68 4fbe eac3 97bd 0fc7 543d
000000f0: 5ce5 ca3d b723 813d 061f 573d 51a8 1a3e
00000100: 77de 063e 5f45 603b e3f4 b93d fd5d 0d3e
00000110: e890 d7bb 7597 a73c ec4f ad3c 04fe 6bbd
00000120: 111a d2bd 9c82 25be 4d1a 803d 7b18 ffbd
00000130: d21c 97bd 6c50 763d 7158 a7bb 38a1 fb3c
00000140: 28cc f8bc 7dbc c0bd a355 f9bd ced5 f23d
00000150: 2e1c 1bbe 4997 95bd 5d2b 9b3d fcc0 d53d
00000160: 74a4 c93d 6db6 4d3d 1b60 473e 6a91 e03d
00000170: 00d6 ad3c 4567 4e3d 0d94 9c3d 6746 5cbd
00000180: 423d 8cbc a681 65bc 6a8a 03bd b344 1e3e
00000190: 2a16 103e 601d dd3c bf1f ca3d f0c0 013e
000001a0: 9c17 c13b dd22 7b3c 6656 b43b 6262 3ebd
000001b0: 609c d9be d2b9 efbe 233b 3b3d 9f34 32be
000001c0: dcf9 bdbd eb3c a1ba 3682 da3d 3fc9 bfbd
000001d0: 0507 9a3e 834d dcbd ca06 01be 02d0 353d
000001e0: 88e0 0ebe 82ac a1bd 9d7e 3d3d 0fff dd3c
000001f0: 7511 7c3d 7f3a 2ebc 38ed 363e ae8b 0a3e
00000200: 0a3f 083d c81e d43d 707a 033e a784 653c
00000210: 8a27 253d 5107 353c cc87 32bd 1a61 eebd
00000220: dd38 30be b45d 9d3d 4ef6 ccbd 4ef2 cebd
00000230: 4075 753d 70d3 cc3d 46ee c63d ff22 7b3d
00000240: 2ded c4bc 3cb0 d7bb 629d 68bc 789b e0bc
00000250: 2e1f ddbd c6b8 1f3b ea0e f3bc 813e 13bd
00000260: cbb1 54bd e477 89b9 e255 a2bd e846 513d
00000270: e334 85bd 6cb1 2bbe 46a2 23bd f231 c03c
00000280: d03d 8ebd 1c1a 02bd 006d f03d b6af a53d
00000290: e168 853d 80bf 2e3d be4b 003e 9511 e93d
000002a0: 68c9 573d 624a 0a3e b243 363d 7841 483d
000002b0: b7ca 3b3d 2d8b 103b e9a0 c63d ead9 1e3e
000002c0: dcc2 0d3e 48d2 293d 7579 0b3d 294b 673d
000002d0: 4e16 6a3d eb89 033d d75e 093e c263 0b3e
000002e0: 4d2c f43d 6560 e73d 4788 a83d bc8f ce3d
000002f0: 332b bb3d bee0 c93c 85d3 b83c 8fa1 c93c
00000300: 68c8 1f3e f759 823d a51a d93d ad6a ff3d
00000310: 94e0 e73d 9466 f8bb d19a 3d3e bf07 133e
00000320: e390 563e b22e 9c3d 0991 adbe 5d34 2e3e
00000330: d4b3 7a3e 5ad6 48bc 0d9a 113e 1dba 0d3e
00000340: 9a7f 873d 4aaf 7b3d aa53 c93d bd19 ca3d
00000350: de73 183e 6ee7 293d 44fc 5b3d 5497 903d
00000360: d443 00be 184d 4cbd b15d 98bd 6509 c6bd
00000370: ef2a 85bd 5837 0fbe 6712 f4bd cbae 27be
00000380: e6e7 753b 65a9 00be 496b b5bd 2a3f 65bd
00000390: 6c3b 2abd 72fc 36be d16e 07be c210 003c
000003a0: b997 c3bd ff77 03be 88c6 943d 360a c63d
000003b0: c64d 9f3c 6f74 fd3d 9249 123e 0c7e f83d
000003c0: 54bd 063d 5ea6 423e 65d4 40bc be6e 55bc
000003d0: 3175 203e 2286 f93b e153 f43d 8ebb 0d3e
000003e0: cc62 9e3d 8b2d 0b3e bf29 1f3e f625 d43d
000003f0: 087d b4bd 49fe b93d 1b4a 0d3e 4bf6 3f3c

encoder.3.bias f4 [8]
0.16960298 0.020779785 -0.0622851 0.073089525 -0.08851072 0.06477414 0.037062176 0.0121312225
00000000: 67ac 2d3e 5e3a aa3c a91e 7fbd f6af 953d
00000010: 1c45 b5bd 4ea8 843d 82ce 173d 09c2 463c

decoder.0.weight f4 [8, 16, 3, 3]
4.2876945e-16 -1.1724395e-15 2.023786e-15 0.06339755 -0.047140826 -0.07368616 3.9892705e-16 -5.296296e-16
4.357092e-16 -0.028583875 6.006574e-16 0.15806384 0.034724098 5.133151e-16 -0.11654345 0.07256834
3.3099102e-15 -0.11744003 1.1171246e-14 0.11265867 -6.2255704e-17 2.4340726e-17 7.4348264e-16 -8.4003344e-16
1.2938309e-14 -0.093472436 -6.7341614e-15 -0.18685327 -0.23004448 0.10744629 -0.06765665 -0.14833163
0.076654956 -0.12876208 -0.4259678 0.1580786 -0.11045435 0.0071295025 -0.102731064 -0.17986281
0.0035638344 0.2307415 -0.03480902 0.0921834 0.12095301 -0.040107954 -0.2146494 -0.05522118
-0.3349389 -0.09207798 -0.11680158 0.0046432805 -0.008684996 0.15201494 -2.6092957e-17 0.03941769
-1.5790117e-15 -7.248672e-17 0.00074801943 -4.6376768e-14 1.8869325e-16 -0.23795985 2.516297e-15 3.4201022e-15
1.5397915e-15 4.456458e-15 0.06566475 7.616952e-18 0.043321226 1.5243503e-16 -6.3193355e-15 4.0722105e-17
0.0923953 0.05920373 -0.08409281 -0.22160508 -0.18698555 -0.15994647 -0.062334806 0.047874495
0.11986585 3.5507724e-16 2.3964734e-14 1.5858047e-17 0.1003201 -5.497396e-14 -0.07644453 2.7877813e-16
-8.104877e-16 3.5426029e-15 -0.1287271 -0.16168709 0.13805455 -0.2461976 -0.016080279 -0.009816907
-0.12861122 0.0387474 0.073459856 0.08249343 0.0722868 0.15955226 0.10107796 2.6926307e-15
-0.12354661 0.072108716 -0.03955653 -0.13627988 -1.1137124e-14 0.11882608 3.9352087e-16 0.09557506
-7.1248753e-16 -0.1254487 1.4345328e-15 -0.08933951 -5.8532036e-16 0.06432891 0.07842079 0.20255242
-4.8527165e-14 -0.008236765 -9.654396e-16 0.023222843 -0.18847652 -0.19208135 0.036472347 0.02150765
0.17124303 0.0858975 -0.0058710454 -0.04189231 0.049231235 -0.10397457 -0.07859402 -3.0521776e-16
0.040922157 2.0844195e-17 0.086867504 2.2269646e-15 0.00835071 -2.139776e-14 -0.13764477 -1.1272456e-17
-1.13565675e-05 3.2652788e-14 -1.6846235e-14 0.08931735 0.112840734 0.04011391 1.5633292e-14 1.9604515e-16
7.606302e-15 0.09640984 -0.025283182 0.1368376 0.009876678 6.6831106e-16 0.045904048 0.10555569
-0.0011249693 0.09156331 4.4264997e-14 0.06328145 1.6287368e-12 1.3684402e-16 -8.2769984e-16 2.739575e-15
-5.0681785e-05 0.071962275 -0.00087093335 -0.14918545 -0.0052529094 0.18231738 0.15775752 0.08722284
-0.12649085 -0.16058674 0.083475314 0.1330577 -0.016733285 0.1315498 0.08824593 0.0046937945
0.1410706 -0.0454492 -0.043155026 -0.09212123 0.013987029 -0.12648337 -0.038265403 -0.12513305
-0.023125391 0.19132206 0.11136747 0.092466585 0.09551051 0.12028659 -1.2000346e-09 0.06840326
-1.0114531e-05 -3.6664578e-12 0.067337446 -0.0020819067 1.6979518e-13 0.052655835 -3.4510665e-15 6.7913016e-16
-8.9795996e-14 -6.8246595e-07 -0.05174103 7.187435e-16 0.022541534 -4.5720464e-13 -5.4112353e-15 -2.6654744e-15
0.14591932 0.1590942 0.06791879 0.09080875 0.23666362 0.047400974 -0.08865125 -0.121748194
-0.13702384 -0.00036964056 3.831236e-14 -2.5281708e-13 0.041483015 4.5614344e-16 0.051928017 -5.384727e-13
-2.6704904e-14 -2.5534976e-16 -0.17402256 -0.028907415 0.086175874 -0.111374944 0.096286066 0.162147
0.024239305 0.07153604 0.025141768 0.06286214 0.066685826 0.12169995 0.05689441 5.1218526e-16
-0.0653743 0.1214463 0.0992612 0.017939033 -4.533585e-15 -0.028379701 -6.8487654e-15 0.004171629
00000000: 342b f725 62f7 a8a6 43d4 1127 93d6 813d
00000010: bd16 41bd c5e8 96bd 3ef7 e525 c4a7 18a6
00000020: 542b fb25 bb28 eabc b120 2d26 7ddb 213e
00000030: db3a 0e3d f8f3 1326 55ae eebd b69e 943d
00000040: 1181 6e27 6684 f0bd 473e 4928 97b9 e63d
00000050: 488d 8fa4 ea80 e023 564b 5626 871f 72a6
00000060: 6b13 6928 7a6e bfbd ad9f f2a7 7756 3fbe
00000070: c890 6bbe cd0c dc3d 928f 8abd 3fe4 17be
00000080: 46fd 9c3d 35da 03be 7418 dabe 5bdf 213e
00000090: e435 e2bd 9a9e e93b aa64 d2bd f52d 38be
000000a0: 388f 693b 8047 6c3e e793 0ebd a7ca bc3d
000000b0: 36b6 f73d 3d48 24bd 0dcd 5bbe 9b2f 62bd
000000c0: 1d7d abbe 6193 bcbd ab35 efbd a926 983b
000000d0: 834b 0ebc cea9 1b3e 41aa f0a3 7274 213d
000000e0: 408f e3a6 9b24 a7a4 bc16 443a c6dc 50a9
000000f0: 6b8c 5925 bfab 73be 7d51 3527 c071 7627
00000100: 48e8 dd26 928f a027 3e7b 863d 0a82 0c23
00000110: 9971 313d e1be 2f25 95ad e3a7 2dcc 3b24
00000120: bf39 bd3d 9c7f 723d da38 acbd 71ec 62be
00000130: 2479 3fbe 02c9 23be c852 7fbd 0c18 443d
00000140: 3a7c f53d 27b0 cc25 eada d728 c143 9223
00000150: a074 cd3d a994 77a9 f38e 9cbd 64b4 a025
00000160: 709b 69a6 7d45 7f27 09d1 03be 4d91 25be
00000170: 2c5e 0d3e 391b 7cbe caba 83bc 18d7 20bc
00000180: a9b2 03be 98b5 1e3d 1f72 963d 51f2 a83d
00000190: 1a0b 943d ab61 233e f601 cf3d 4506 4227
000001a0: 0106 fdbd bcad 933d 0706 22bd f48c 0bbe
000001b0: eba0 48a8 165b f33d 6ed9 e225 dbbc c33d
000001c0: 4d5c 4da6 a075 00be ebbc ce26 a2f7 b6bd
000001d0: 05b5 28a6 e0be 833d 149b a03d e769 4f3e
000001e0: 038c 5aa9 7ff3 06bc 6f22 8ba6 d53d be3c
000001f0: fdff 40be f9b0 44be 0764 153d d030 b03c
00000200: 555a 2f3e 07eb af3d e661 c0bb 4597 2bbd
00000210: b1a6 493d 9ff0 d4bd e7f5 a0bd 31f2 afa5
00000220: fe9d 273d f740 c023 97e7 b13d 3f78 2027
00000230: 6bd1 083c e0bb c0a8 c0f2 0cbe abf0 4fa3
00000240: 1688 3eb7 1a0e 1329 c6bc 97a8 04ec b63d
00000250: 0b19 e73d 7c4e 243d ebcf 8c28 5106 6225
00000260: e005 0928 8672 c53d ad1e cfbc 281f 0c3e
00000270: cad1 213c a7a0 4026 e205 3c3d 952d d83d
00000280: b573 93ba 8b85 bb3d 115a 4729 b499 813d
00000290: 6d39 e52b 3ac5 1d25 7891 6ea6 3d68 4527
000002a0: 2793 54b8 f560 933d 594f 64ba 12c4 18be
000002b0: 9920 acbb 68b1 3a3e 308b 213e e3a1 b23d
000002c0: d186 01be da70 24be 1bf5 aa3d 4740 083e
000002d0: 3e14 89bc feb4 063e 48ba b43d 67ce 993b
000002e0: d074 103e f128 3abd 53c3 30bd 0eaa bcbd
000002f0: da29 653c db84 01be 2fbc 1cbd e122 00be
00000300: 7671 bdbc eee9 433e a114 e43d 1f5f bd3d
00000310: 049b c33d d158 f63d 77ee a4b0 0217 8c3d
00000320: 94b1 29b7 8400 81ac 37e8 893d 9970 08bb
00000330: 212c 3f2a a5ad 573d f1ac 78a7 f6be 4326
00000340: de33 caa9 b432 37b5 67ee 53bd e929 4f26
00000350: 06a9 b83c 11b1 00ab d6f5 c2a7 5311 40a7
00000360: e06b 153e 97e9 223e 0219 8b3d f0f9 b93d
00000370: f357 723e 8627 423d c98e b5bd 1e57 f9bd
00000380: fa4f 0cbe 51cc c1b9 258b 2c29 c852 8eaa
00000390: 18ea 293d 7279 0326 79b2 543d 0c91 17ab
000003a0: 5189 f0a8 f932 93a5 f832 32be 3ecf ecbc
000003b0: fa7c b03d 8c18 e4bd a131 c53d dd09 263e
000003c0: 8291 c63c 7d81 923d 1cf6 cd3c debd 803d
000003d0: 9492 883d d33d f93d 1d0a 693d 9aa0 1326
000003e0: f6e2 85bd d6b8 f83d 7549 cb3d e1f4 923c
000003f0: f156 a3a7 8c7c e8bc b6c0 f6a7 29b2 883b

decoder.0.bias f4 [16]
-0.08397598 -0.08802957 -0.092100926 0.14059073 0.1656664 0.11713579 -0.08070072 -0.114378184
0.14869367 -0.10807278 0.13552861 -0.087432094 -0.12555163 -0.08404416 -0.047039203 -0.07821158
00000000: 99fb abbd d948 b4bd 699f bcbd 04f7 0f3e
00000010: 74a4 293e e4e4 ef3d 6b46 a5bd 1c3f eabd
00000020: 2743 183e 4355 ddbd 03c8 0a3e 990f b3bd
00000030: 9b90 00be 581f acbd 2eac 40bd 652d a0bd

decoder.2.weight f4 [16, 8, 5, 5]
0.055030398 0.09523293 0.047557477 0.018135522 0.022239432 0.02807154 0.0934032 2.3454124e-05
0.064211294 0.031707186 0.082067795 0.14384414 0.11473025 0.10955965 0.066469565 0.046843108
0.13255115 0.066135965 0.056000184 0.031737898 -0.017467368 0.099059 -0.00019785785 0.06254187
0.079012744 -0.0015220842 0.035401136 0.082817696 0.030532429 -0.030382482 -0.006881509 0.03973395
0.13628216 -0.01598956 0.014993233 0.0023263327 0.13458653 0.16355196 0.021954894 0.02045788
-0.05120767 0.037951328 0.10160746 0.0009760402 -0.03709951 0.03375305 -0.014540889 0.054713283
-0.036336966 0.046734475 -0.03167412 0.036892217 2.3773454e-15 0.0178669 0.014628869 0.06308966
0.05266917 1.9095075e-15 0.06672671 0.034804903 0.06107208 -1.788661e-15 3.109311e-16 0.044608545
-3.3227743e-15 0.01683165 0.06768045 -2.7895085e-13 0.10215699 0.05879893 0.0011075942 0.011792956
4.003631e-15 0.022382554 0.036559734 -0.0024599007 -0.02420972 0.0022731917 0.013683939 -0.011349517
-0.05098749 0.019312987 2.8740177e-16 0.027262038 0.020334618 0.028360488 0.037627976 0.063962325
0.031579737 0.02315929 0.0017573124 0.032338575 0.020646155 0.015440784 0.026749242 0.011774639
0.03603984 -6.7859274e-15 -0.0035329757 -0.004778789 -0.029617514 -0.027555328 -0.0056769825 -0.008984551
-0.0058616973 0.01691497 5.2667953e-16 0.18330021 0.0069097523 7.813923e-17 -0.10584616 0.06854275
0.055009227 -0.00320471 0.00027678598 0.01933851 -0.008860024 0.04042689 -0.0023188782 -0.013814122
-0.06184143 -5.5908676e-15 0.07864719 0.003031009 6.1072234e-14 0.062384076 -0.03322977 0.03015354
0.015390281 -0.04177886 0.046622206 -0.014012462 0.05464738 0.11689762 0.054473523 0.08326259
0.08012677 0.23570877 0.11610428 0.06119396 0.051145796 0.07386362 0.062286567 0.03735534
0.12081216 -0.03634867 0.012876074 0.044392064 0.087910175 0.0033083397 0.065857604 0.054729555
0.08159007 0.010088993 0.011902908 0.034947198 0.082555346 0.03274132 0.028342891 0.06503974
-3.100714e-16 0.11528988 2.0416022e-15 3.4954876e-17 0.059096973 0.062289864 0.028878218 0.07529018
0.01956223 0.03053698 -0.01951949 0.042570136 0.044893935 0.051701117 -0.008689133 -0.021387666
1.644958e-16 -0.018299676 -0.014304607 1.1796888e-15 -0.009410468 -0.034892645 -0.0033619266 0.0015544354
-0.006495108 -3.2284417e-16 -1.5588673e-15 -8.843129e-15 -6.796343e-16 9.923049e-15 0.0037309744 3.343353e-16
-0.016347062 0.01160641 -1.618407e-18 0.0029983572 0.033207517 0.0037576382 -0.012064436 -0.012017909
0.012088019 0.050715853 0.09904154 0.014803665 -0.031449094 0.023058137 0.085867316 -0.00018461012
0.05965282 0.020663286 0.033261623 0.116091795 0.11853893 0.053671774 0.122791775 -0.005611011
0.07272212 0.107204914 0.08310612 0.09129393 0.007220885 0.028521037 0.00035744839 0.07593719
0.022754226 -0.018041989 -0.039941013 0.06101656 0.030153684 0.05368105 -0.03029916 0.0040630465
0.15530424 0.01953463 -0.060306214 -0.04605322 0.04409794 0.12969519 -0.00035772315 0.002224315
0.031120146 0.0031567418 0.064116225 -0.0145192165 -0.021519728 -0.029899273 -0.040875077 0.050561093
-0.03882691 -0.026496777 -0.017627394 0.04756472 0.00033686988 0.010570738 0.005719772 -0.00077547226
00000000: 8e67 613d 7b09 c33d a1cb 423d f290 943c
00000010: 782f b63c 49f6 e53c 2d4a bf3d 59bf c437
00000020: 3681 833d 65df 013d 2913 a83d e14b 133e
00000030: b1f7 ea3d cf60 e03d 3221 883d 8fde 3f3d
00000040: 7dbb 073e 4b72 873d 7360 653d 99ff 013d
00000050: ba17 8fbc 72df ca3d 1078 4fb9 f415 803d
00000060: 6fd1 a13d ac80 c7ba c800 113d 539c a93d
00000070: 251f fa3c afe4 f8bc 487e e1bb 11c0 223d
00000080: 8d8d 0b3e 8afc 82bc 2da6 753c 6375 183b
00000090: 0dd1 093e 2a7a 273e c0da b33c 4997 a73c
000000a0: 22bf 51bd da72 1b3d 9217 d03d f3dc 7f3a
000000b0: a8f5 17bd a340 0a3d e93c 6ebc 091b 603d
000000c0: 12d6 14bd a66c 3f3d b9bc 01bd 4b1c 173d
000000d0: 484e 2b27 9b5d 923c ecad 6f3c 2735 813d
000000e0: a1bb 573d 3298 0927 03a8 883d 968f 0e3d
000000f0: b826 7a3d f9e2 00a7 553d b325 73b7 363d
00000100: 5e6e 6fa7 87e2 893c 0c9c 8a3d 0e09 9daa
00000110: af37 d13d 26d7 703d b22c 913a 3e37 413c
00000120: fa3e 9027 9e5b b73c a9bf 153d 4936 21bb
00000130: 7653 c6bc d4f9 143b 9a32 603c 53f3 39bc
00000140: 42d8 50bd 4536 9e3c 04ad a525 a354 df3c
00000150: c994 a63c 4154 e83c cb1f 1a3d aefe 823d
00000160: c159 013d 8db8 bd3c 9f55 e63a 7475 043d
00000170: 2022 a93c 58fb 7c3c 3a21 db3c 6aea 403c
00000180: 839e 133d 227d f4a7 7f89 67bb 6397 9cbb
00000190: 6ea0 f2bc b6bb e1bc fb05 babb f033 13bc
000001a0: 7b13 c0bb 4391 8a3c 17ce 1726 0db3 3b3e
000001b0: 346b e23b 432d b424 dfc5 d8bd 2460 8c3d
000001c0: 5b51 613d 1d06 52bb 961d 9139 cc6b 9e3c
000001d0: a229 11bc ab96 253d 52f8 17bb a154 62bc
000001e0: 704d 7dbd a76e c9a7 c711 a13d e5a3 463b
000001f0: bf85 8929 7286 7f3d f01b 08bd 8f04 f73c
00000200: 8427 7c3c 4f20 2bbd edf6 3e3d 8794 65bc
00000210: eed5 5f3d 0568 ef3d a11f 5f3d 9485 aa3d
00000220: 8119 a43d a45d 713e 15c8 ed3d 85a6 7a3d
00000230: 417e 513d cf45 973d 3320 7f3d ea01 193d
00000240: 5e6c f73d 58e2 14bd 2bf6 523c 74d4 353d
00000250: 400a b43d bbd0 583b 5ae0 863d 192c 603d
00000260: b218 a73d 4e4c 253c 6a04 433c cb24 0f3d
00000270: c712 a93d c31b 063d 5a2f e83c 8e33 853d
00000280: 76be b2a5 1a1d ec3d ea1c 1327 6f33 2124
00000290: ab0f 723d a823 7f3d 0392 ec3c bd31 9a3d
000002a0: f840 a03c b028 fa3c 56e7 9fbc 065e 2e3d
000002b0: b4e2 373d 8dc4 533d de5c 0ebc 3035 afbc
000002c0: 97a6 3d25 34e9 95bc df5d 6abc d602 aa26
000002d0: 5d2e 1abc 97eb 0ebd c553 5cbb 32be cb3a
000002e0: ead4 d4bb 641b baa5 0da8 e0a6 bc4d 1fa8
000002f0: 29e4 43a6 fdc1 3228 5d83 743b 2fbb c025
00000300: 46ea 85bc d028 3e3c b0d5 eea1 1680 443b
00000310: 9b04 083d b542 763b eaa9 45bc c4e6 44bc
00000320: d40c 463c 6dbb 4f3d 4ad6 ca3d 128b 723c
00000330: c4d0 00bd 6be4 bc3c 34db af3d e793 41b9
00000340: 8456 743d 0d46 a93c 573d 083d 89c1 ed3d
00000350: 8ac4 f23d efd6 5b3d 417a fb3d 92dc b7bb
00000360: 56ef 943d 408e db3d 8b33 aa3d 50f8 ba3d
00000370: 2c9d ec3b f3a4 e93c e967 bb39 f584 9b3d
00000380: 1267 ba3c cbcc 93bc 3099 23bd 80ec 793d
00000390: dc04 f73c a9e0 5b3d f235 f8bc 4e23 853b
000003a0: 1308 1f3e 1707 a03c a603 77bd 4da2 3cbd
000003b0: 0ba0 343d d1ce 043e ca8c bbb9 d0c5 113b
000003c0: adef fe3c 57e1 4e3b 5e4f 833d 02e2 6dbc
000003d0: 244a b0bc 52ef f4bc a06c 27bd 2619 4f3d
000003e0: f708 1fbd c50f d9bc 5367 90bc 39d3 423d
000003f0: e99d b039 e430 2d3c ed6c bb3b 1049 4bba

decoder.2.bias f4 [8]
-0.012185038 -0.007892716 -0.04767008 -0.07453251 -0.063952625 -0.008644079 -0.025687452 -0.0845343
00000000: c1a3 47bc 7350 01bc b441 43bd 80a4 98bd
00000010: 98f9 82bd e59f 0dbc 7e6e d2bc 5220 adbd

decoder.4.weight f4 [8, 3, 2, 2]
0.0135417245 -0.20089157 0.03759085 -0.24679458 -0.26903024 -0.13013129 -0.2020324 0.003655881
-0.30982643 -0.14554149 -0.041458998 0.048029214 0.011415067 -0.09019095 -0.13949141 -0.27322415
0.040707838 -0.07296795 0.07415348 -0.071593955 0.0026581653 -0.18629168 -0.15147558 -0.15617839
-0.05807967 -0.032500207 -0.1770329 -0.2249435 -0.007675807 -0.10724661 0.074021354 -0.080752306
0.013020605 -0.21151708 -0.19612843 -0.22377774 -0.04437527 -0.25040954 -0.12885897 -0.23058425
0.007614128 -0.09891489 -0.3043034 -0.26251203 -0.14862719 -0.03628668 -0.08738173 0.00107169
-0.03602338 -0.17652471 0.019865735 -0.18040794 -0.2715509 -0.14342158 -0.25848427 -0.030214738
-0.28409022 -0.112329476 -0.052285213 0.049122915 -0.29042688 -0.036711257 -0.16850905 0.15719873
-0.14865153 -0.13425495 -0.16541451 -0.21092798 -0.046890926 -0.044357326 -0.13437998 -0.1956462
-0.21946578 0.010611001 -0.25566563 0.058598008 0.07684025 -0.0807408 0.019053383 -0.22678769
0.08901722 -0.088563085 -0.19519682 -0.32118332 -0.20912589 -0.21450652 -0.17035608 -0.25414705
-0.20439398 0.024224684 0.03694339 -0.2958006 -0.07649903 -0.08753136 0.08544589 0.11720565
00000000: 1cde 5d3c 85b6 4dbe ddf8 193d b8b7 7cbe
00000010: 55be 89be 2341 05be 95e1 4ebe 8197 6f3b
00000020: 92a1 9ebe d408 15be e9d0 29bd 48ba 443d
00000030: 4306 3b3c 08b6 b8bd d6d6 0ebe 09e4 8bbe
00000040: 43bd 263d 3870 95bd c8dd 973d da9f 92bd
00000050: 9d34 2e3b 3fc3 3ebe 6a1c 1bbe 3aed 1fbe
00000060: f3e4 6dbd f01e 05bd 1d48 35be 9757 66be
00000070: 5685 fbbb 1ca4 dbbd 8298 973d 7761 a5bd
00000080: 6054 553c ef97 58be e4d5 48be fe25 65be
00000090: d8c2 35bd ae35 80be 9bf3 03be 471e 6cbe
000000a0: ef7f f93b e493 cabd a8cd 9bbe fa67 86be
000000b0: ba31 18be 57a1 14bd 31f5 b2bd f377 8c3a
000000c0: 408d 13bd e5c2 34be 77bd a23c dcbc 38be
000000d0: b808 8bbe 1bdd 12be 0d58 84be e684 f7bc
000000e0: 4674 91be ff0c e6bd 0529 56bd 1c35 493d
000000f0: d5b2 94be 8b5e 16bd a38d 2cbe b4f8 203e
00000100: 1b38 18be 217a 09be 6c62 29be 81fd 57be
00000110: b310 40bd 07b0 35bd e89a 09be 7a57 48be
00000120: a3bb 60be c4d9 2d3c 9be6 82be 7704 703d
00000130: 6c5e 9d3d 6f5b a5bd d715 9c3c 083b 68be
00000140: a94e b63d 9060 b5bd ade1 47be 2472 a4be
00000150: 1925 56be 99a7 5bbe d371 2ebe 901f 82be
00000160: a84c 51be d872 c63c f451 173d 2d73 97be
00000170: 86ab 9cbd a443 b3bd 41fe ae3d 8409 f03d

decoder.4.bias f4 [3]
0.5572843 0.6479315 0.5406816
00000000: 2faa 0e3f d7de 253f 1c6a 0a3f
