conv_autoencoder-5.pth (torch_old, 26206 bytes, 10 tensors)

encoder.0.weight f4 [16, 3, 3, 3]
000000 69 ed 66 be 04 17 99 be 32 29 be bd 7b 42 10 bd
       -0.22551502 -0.29900372 -0.09285201 -0.03521965
000010 11 be 08 be aa 26 0a 3d 89 e6 6d be a8 15 20 be
       -0.13353755 0.03372828 -0.23232473 -0.15633261
000020 ce 87 ac bc 6f 6a 85 be 06 1a 8f be 69 4b 8b be
       -0.02106085 -0.26057765 -0.27949542 -0.2720597
000030 a6 c6 c6 bd fc 96 5c be 8b 5e 16 bd f7 97 84 3d
       -0.09705858 -0.21541971 -0.036711257 0.064742975
000040 62 53 5b be c1 79 13 bd 04 6c a5 be ff e9 82 be
       -0.21418527 -0.036004785 -0.32308972 -0.2556915
000050 6d a9 e8 bd cc 3d 63 bc 39 1a 90 be 50 27 47 3b
       -0.113604404 -0.013869714 -0.28145006 0.0030388422
000060 8f 9b f3 bd 2f 57 43 be 66 54 8c bd 48 1e 80 bd
       -0.11894905 -0.19076227 -0.06852035 -0.06255776
000070 ca 08 79 3e a7 09 4d 3b 2e 34 cb 3d 93 25 8c 3d
       0.24319759 0.003128627 0.09922062 0.06843104
000080 3a e0 5f 3e 1c ab ab bd cc 9c 55 3e 6d fe 86 3e
       0.2186288 -0.08382246 0.20860595 0.26365986
000090 4e 83 21 3d e6 50 31 3e 2f e3 58 bd 1b 6f c8 bd
       0.039431863 0.17316017 -0.052951034 -0.09786817
0000a0 46 59 3a 3e 8a c8 38 3c 31 4b 1a 3d de 3d d1 3d
       0.18198118 0.011278281 0.037669364 0.10216878
0000b0 4a 5b 7a 3e 6a 03 c3 3c 2c 12 85 3e c6 0e 6d 3e
       0.24448887 0.023805339 0.25990427 0.23150167
0000c0 2f f2 77 3e c9 fb 04 bd ab e4 2e bd 49 68 7c 3e
       0.2421348 -0.032466684 -0.042698544 0.24649157
0000d0 37 45 06 3e e5 9a f2 3c c9 d3 41 be e2 b8 c7 3c
       0.13112341 0.029614875 -0.18928446 0.024380151
0000e0 b9 a4 1d 3e c8 ec 95 be 00 9f 81 be bc 6e 40 be
       0.15394868 -0.29282212 -0.2531662 -0.18792242
0000f0 61 a4 10 be eb cd 34 be 7c 0b 6a be 1c 72 16 3d
       -0.14125206 -0.17656676 -0.22855943 0.036729917
000100 9c eb c3 bd cd 3b bc 3d ce a4 33 be 9c 1a 61 be
       -0.09566423 0.091910936 -0.17543337 -0.21982807
000110 4c 6a 8d bd 5e ca 22 be f5 93 2b be fb ca 87 bb
       -0.0690504 -0.1589751 -0.1675566 -0.00414407
000120 4c f1 32 bd df 95 10 3d 57 a9 be 3d 86 51 7c bb
       -0.04368715 0.03529918 0.09309643 -0.003850074
000130 05 29 a5 be a4 52 1a bd a5 95 f6 bd b3 87 9b be
       -0.32257858 -0.03767647 -0.12040261 -0.30376968
000140 c8 bc 35 be c2 0e 81 3e cd ed 81 3e a7 fb 80 bc
       -0.17747796 0.25206572 0.2537674 -0.015744997
000150 c1 7c 6e 3e 1f 08 9d 3c 30 99 e2 3d f3 9b 1a 3d
       0.23289777 0.019168912 0.110643744 0.03774638
000160 bf ff f8 bc fa 61 92 3d 08 39 62 3e a0 13 d8 3d
       -0.030395387 0.07147594 0.22092068 0.10550618
000170 0a 23 69 3d cc e1 19 3e ac 3e 5e 3e 10 86 17 bd
       0.05691818 0.15027541 0.21703595 -0.036993086
000180 d7 10 43 bd be aa a0 3d 72 99 2a bd 2d c2 5e bd
       -0.04762348 0.078450665 -0.041650243 -0.0543844
000190 b4 64 9d 3d d7 d0 7a 3e 1b 08 4f 3d 4f ab 46 3e
       0.07685223 0.24493729 0.05054484 0.19401287
0001a0 b4 88 2f bd 76 f1 6c bd 86 c3 85 3e fb 3d f8 3d
       -0.04285498 -0.057847463 0.26125735 0.12121197
0001b0 84 63 86 3c cc 75 88 be 26 b5 34 3d 5e 6a 3b be
       0.016404875 -0.26652372 0.04411807 -0.18302295
0001c0 f0 a0 22 3d 10 95 c4 bd 61 1d 8e be 2f 6c ac bd
       0.039704263 -0.09598744 -0.2775679 -0.08419072
0001d0 e1 38 20 3d 60 c5 8e be 2f ea dd bd 52 a5 a7 be
       0.039116744 -0.2788496 -0.108356826 -0.32743317
0001e0 04 50 7b be 00 96 8a bd 60 c6 ae bd ba 3f 86 be
       -0.24542242 -0.067668915 -0.08533931 -0.26220495
0001f0 3c cb d5 bd b5 ea 28 3d 14 03 9f be 25 7c 8d be
       -0.104391545 0.04123946 -0.31057036 -0.27633777
000200 6f 1c 12 be fd 65 f4 bc b4 90 ae be 51 e5 ae be
       -0.14268659 -0.029833788 -0.34094775 -0.3415933
000210 ad f6 bf 3a 96 38 55 be 7a 21 e5 bd b1 56 41 bb
       0.0014645659 -0.20822367 -0.11188026 -0.0029501135
000220 e6 52 0d bc 71 da 85 be ba 6f 96 be a2 20 96 be
       -0.008625722 -0.2614322 -0.29382116 -0.29321772
000230 6e ef a0 be 0f a3 0b 3d 21 85 9b be f4 9b 55 be
       -0.3143267 0.03409105 -0.30375007 -0.20860273
000240 83 25 4b be ef 12 6f be 89 d9 88 be 4f 8e d3 bd
       -0.19838528 -0.23347066 -0.26728466 -0.103298776
000250 2c 36 9b be 3b b2 f6 3c cd 74 57 bd e8 fd 97 be
       -0.30314767 0.030114284 -0.052601624 -0.29685903
000260 14 c9 f4 bd fc a4 97 bd 82 b5 62 be f0 e6 77 be
       -0.11952415 -0.07404515 -0.22139552 -0.2420919
000270 a3 0c 82 3c ff 95 26 be e8 b0 af be 55 a2 78 be
       0.015875166 -0.16268156 -0.34314656 -0.24280675
000280 30 e9 8e be e6 4d 45 bd f0 bf 67 bd 32 38 09 3e
       -0.27912283 -0.048169993 -0.05657953 0.13400343
000290 8b 00 6b bd 48 ae 27 bc f4 f7 79 3e ef 21 64 bd
       -0.057373565 -0.010234423 0.24410993 -0.055696424
0002a0 82 f1 80 3e 81 3e 19 3e b3 01 09 bb 39 82 1d 3e
       0.25184256 0.1496525 -0.0020905554 0.15381707
0002b0 5e b0 ef 3d 05 e7 c2 3d 63 4a 82 3e 5e b8 22 3e
       0.11703561 0.0951672 0.25447378 0.15890643
0002c0 e4 ae 1a 3e 72 56 89 3e a1 42 62 bd 97 50 c3 bd
       0.15105778 0.26823765 -0.055239324 -0.09536856
0002d0 3d 85 80 3e 4d d5 07 3e 08 66 08 3e 76 27 3c 3e
       0.25101653 0.13264962 0.13320172 0.18374428
0002e0 4a 25 3c 3e f3 18 e4 3d 50 21 0b 3e 4f cf 0b 3e
       0.183736 0.11137571 0.13586926 0.136533
0002f0 35 3a 1e 3e da b1 8f 3d 9c 37 91 3d 32 23 55 3e
       0.15451892 0.07016344 0.07090685 0.20814207
000300 de 97 0a 3e c3 6d c8 3c f5 9b 70 bd d3 df 12 bc
       0.13534495 0.024466401 -0.058742482 -0.008964497
000310 4e 2b 8e 3c 33 0b b8 3a dc cd 4d 3e 5d 9b 12 bc
       0.017354634 0.0014041424 0.2009806 -0.008948174
000320 4c 5e b4 bb 60 e6 05 3d 7f 01 9b 3a e2 36 39 3e
       -0.005504405 0.032690406 0.0011826007 0.18087342
000330 ff 28 57 3e d8 51 a2 bd 2b 3e ab 3d aa 5d b0 3d
       0.21011733 -0.07925767 0.08361467 0.08611615
000340 0c 11 35 3e 87 4d 5b 3d d3 d9 33 3e fb ad 71 3d
       0.17682284 0.053540733 0.17563562 0.05900381
000350 e2 20 3d 3e 5a d8 ed 3d a4 ab 7b 3d ac 36 e1 3d
       0.18469575 0.116135314 0.061442986 0.10996756
000360 a9 1f 02 be d2 88 7c 3d af 52 e0 bd 47 df 08 be
       -0.1270739 0.06165392 -0.10953271 -0.13366424
000370 6e 36 0c bd 6b 10 9a 3d b4 8a b6 bd 2d 26 2f be
       -0.034231596 0.07522663 -0.08913174 -0.17104407
000380 54 67 9c bd 7a e9 17 3e fd e3 93 3c fd c2 59 3e
       -0.07636896 0.14835158 0.01805305 0.21265788
000390 f8 2f 00 be 8b 4c 5c bd fe 13 40 bc 39 e0 4a be
       -0.12518299 -0.053783935 -0.0117235165 -0.19812097
0003a0 5f a0 1b bd 6f fe bb bc d3 1c 29 3e ce 4f a0 3d
       -0.03799474 -0.022948472 0.16514902 0.078277215
0003b0 6c a3 e4 3d fa 20 2f be 2f bf 66 3c 7a b6 84 3d
       0.11163983 -0.17102423 0.014083668 0.06480117
0003c0 1d 81 de bc 5a 65 d9 3c 42 dd e4 bc b1 78 b4 bc
       -0.027161175 0.026537586 -0.027937535 -0.022030206
0003d0 d0 e3 a4 be be 8e e3 bd e7 6d 83 be c2 93 25 be
       -0.32205057 -0.1111121 -0.25669786 -0.16169646
0003e0 11 d7 3c be 2c 15 b3 bd e8 ee 02 be 0e 7a 47 3d
       -0.18441416 -0.087442726 -0.12786448 0.048700385
0003f0 1e 30 93 be 22 a0 31 be 2d 2c a7 be 49 81 96 bd
       -0.28747648 -0.17346242 -0.3265089 -0.07348878

encoder.0.bias f4 [16]
000000 b1 f0 8c 3e e3 15 37 bd 9c 76 76 3d 31 8d d3 bc
       0.27527383 -0.044698607 0.06017171 -0.025824161
000010 56 cb b6 3e 2b 8d 86 3e 1d 37 d0 3d dd d6 c1 3d
       0.35702008 0.26279578 0.10166762 0.0946481
000020 95 4b bd bc e6 eb be 3e a0 8b 9e 3e 80 87 b3 3e
       -0.02310733 0.3728935 0.309659 0.35064316
000030 dc e8 6b bd 65 50 35 3d 45 f2 bb 3e aa b7 a3 3e
       -0.05759512 0.044266123 0.36708274 0.31976062

encoder.3.weight f4 [8, 16, 3, 3]
000000 39 4f 24 be 90 2a 45 be 82 b0 94 bd 55 fa 12 be
       -0.16045846 -0.19254518 -0.07260229 -0.14353307
000010 8b 36 ad bd 88 b2 1c be b5 bc 06 be c7 de 1a be
       -0.08457669 -0.1530248 -0.13157924 -0.15124045
000020 a0 17 3f bd 38 3f c4 bb 40 ee ab 3c dc e6 fe 3c
       -0.04665339 -0.0059889816 0.02098763 0.031115942
000030 b7 ba 9b 3d 0c 3f 9f 3d 5d 3b 64 3d 4a 14 08 3e
       0.076039724 0.07775697 0.055720676 0.1328899
000040 63 9f e7 3b c3 32 96 3d ba 7c 2e be 5d a1 37 be
       0.007068561 0.07333901 -0.17039767 -0.17932649
000050 a2 28 31 be e3 93 f4 bd cd 5b 5b bc 72 aa c4 bd
       -0.17300656 -0.1194227 -0.013388586 -0.09602822
000060 47 6e 23 be cf 34 d6 bd 52 0b 9d bd a2 da 05 3d
       -0.15960036 -0.10459291 -0.07668175 0.032679208
000070 90 0e 90 3d a0 16 14 3e a8 14 79 3d 8a fe de 3d
       0.070340276 0.14461756 0.060810715 0.10888393
000080 a7 3d d4 3d b6 5c a1 3c 20 65 84 3d 57 5e d7 3d
       0.10363322 0.019697528 0.064646006 0.10516041
000090 78 5f 03 be 99 23 43 be 8f 8a 2c be 94 3e 12 be
       -0.12829387 -0.19056548 -0.16849731 -0.14281684
0000a0 68 be 80 bd 93 44 26 be 0f 32 38 be 6a b6 cc bd
       -0.06286317 -0.16237096 -0.17987846 -0.0999573
0000b0 e5 2a aa bc e1 1b 47 be 21 02 1c be 14 37 63 bd
       -0.020772407 -0.19444229 -0.15235187 -0.05547245
0000c0 c0 49 75 bd 74 e5 1e bd 52 c9 1f be ff 92 3b be
       -0.059884787 -0.038793042 -0.15604141 -0.18317793
0000d0 de d8 43 bc 65 ef 14 be 0f a8 d7 3d 90 db 90 3d
       -0.011953561 -0.14544447 0.105301015 0.07073128
0000e0 1a be d9 3d c3 69 f2 3c 61 10 12 3e cb 62 8c 3c
       0.10631962 0.029591447 0.1426406 0.017136952
0000f0 40 28 96 3d e8 68 94 3d d3 1d 98 bb bf 98 89 3d
       0.07331896 0.07246572 -0.004642227 0.06718587
000100 56 53 31 3c 29 50 88 3a e4 1f 75 3d 77 7e d2 3c
       0.0108230915 0.0010399866 0.059844866 0.025695069
000110 e7 18 0a bc 0a b8 f8 3c 07 ae 6d 3d 62 ae e8 3d
       -0.008428789 0.030361194 0.058027294 0.11361386
000120 d5 6b 34 bd c6 fc 1e bc a4 6c c0 bc cf bf a9 bd
       -0.04404815 -0.009703821 -0.023489304 -0.08288538
000130 ef 3e 8f bd 03 ed 8e 3a 1f 59 eb bd b3 3c 91 bd
       -0.069944255 0.0010904375 -0.11491608 -0.070916556
000140 6b 2b 65 3a ee 7e e5 bd ef 0c aa bd 8f 7d 2e be
       0.00087421265 -0.112058505 -0.08303248 -0.17040084
000150 bf 52 89 bd 1d c9 0b bd f8 ca 09 be 3e 93 33 be
       -0.06705236 -0.034127343 -0.13456333 -0.17536637
000160 04 ee 0b be d2 b2 a6 bd 6d 36 76 be 88 ad 09 be
       -0.13665015 -0.08139576 -0.240442 -0.13445103
000170 38 59 00 be 7a 6b 28 be d4 f4 57 bd 4e 84 c9 bc
       -0.12534034 -0.16447249 -0.05272372 -0.02459922
000180 be bf cd bd c9 7b 0e be 9d 98 20 bd 8b 90 42 be
       -0.100463375 -0.13914408 -0.039208043 -0.19000451
000190 e2 6c dd bc 1e e7 b7 bd eb 8d 3e bd 61 2d 27 bd
       -0.027029458 -0.08979629 -0.046522062 -0.04081476
0001a0 80 88 b9 bd 00 51 db bd 8e 2f ad bd 9d 61 e6 bc
       -0.090592384 -0.10708809 -0.08456336 -0.028122718
0001b0 47 37 c5 3d f7 55 b4 3d 33 5d 67 3d d5 90 a5 3d
       0.09629684 0.08805459 0.056485366 0.08084265
0001c0 32 8d e5 3d 63 52 c2 3d 48 15 49 3d 40 e5 a9 3c
       0.112085715 0.0948837 0.04909256 0.020739198
0001d0 39 c3 1b 3d 95 41 e5 3b b1 f6 0f 3e 88 6e af 3d
       0.038027976 0.0069963434 0.14058949 0.08566004
0001e0 27 cf 9a 3b 90 70 26 3a 9b 5c 56 3d 17 d8 e7 3d
       0.0047244015 0.00063491706 0.05233441 0.11320513
0001f0 63 7f fb 3c 3c ff 6a 3d e4 de 11 be 74 81 44 be
       0.030700391 0.057372317 -0.14245182 -0.19190007
000200 f6 6f 6e bd 76 cd d8 bd bb 0e 8b bd ce 69 dc bd
       -0.058212243 -0.105860636 -0.06789919 -0.10762368
000210 de 58 9b bd 96 09 68 bc 04 d9 af bd c3 3d 6e be
       -0.075853094 -0.014162442 -0.08586314 -0.23265748
000220 c2 f9 c2 bd 62 99 4d bd b6 f6 e8 bd d2 32 88 bd
       -0.09520294 -0.050195105 -0.113751814 -0.06650318
000230 cc f4 ac bc 5a 35 ec bd c0 4c 05 be cf 4d c5 bd
       -0.021112822 -0.115336135 -0.13017559 -0.096339814
000240 09 58 29 be 61 03 7e bc 5d 69 34 be 16 65 38 be
       -0.16537489 -0.015503735 -0.17618318 -0.18007311
000250 12 61 89 bd 9b a4 e4 bd ba c3 2f be 6d e2 af bd
       -0.06707968 -0.111642085 -0.17164508 -0.08588109
000260 3e 48 1a be 1c 40 0d 3b 71 b9 d5 3c d6 79 08 3e
       -0.1506662 0.0021553105 0.026089402 0.13327727
000270 a3 02 0e 3e bf 67 30 3d 5b 55 ac 3c de 51 2e 3d
       0.13868193 0.04306769 0.021036794 0.042558543
000280 af 33 c6 3c 63 a2 b9 3d 2f 7c 26 be 01 0e 2b be
       0.024194567 0.09064176 -0.1625831 -0.16704561
000290 8b 51 fd bd d0 0a 1f be f6 ca 91 bd 61 50 4c be
       -0.12369069 -0.15531468 -0.0711879 -0.19952537
0002a0 d9 50 09 be 2b 5f 1e be f5 30 d0 bd a1 85 1b 3d
       -0.13409747 -0.15465991 -0.10165588 0.037969235
0002b0 d9 ee a1 3d f3 45 70 3d c4 5f 5a 3d 63 6b 1f 3d
       0.07906885 0.05866046 0.053313985 0.03892077
0002c0 f9 ac 0b 3e 8c c4 a2 3d b4 3c 11 3c ba 98 11 3e
       0.13640203 0.079476446 0.00886457 0.14218417
0002d0 ea bc 9a bd 76 40 80 bc 40 3e 18 bd 3c 7f 93 bd
       -0.07555564 -0.015655737 -0.03716874 -0.072020024
0002e0 85 ef f3 bd ab 17 ff bd 3c 6d 87 bd a8 48 ed bc
       -0.11910919 -0.12455686 -0.06612632 -0.02896531
0002f0 85 b3 2b be 37 cd c0 bd 32 fb fe bd e2 2a 04 be
       -0.167677 -0.094141416 -0.124502555 -0.12906983
000300 75 a2 58 bd 41 34 ec bd 8c 64 44 be c4 f2 3c be
       -0.052889306 -0.11533404 -0.1917898 -0.18451983
000310 8a fb 07 be 7c c0 49 bd 43 04 0d 3c 0b 0f 89 3d
       -0.13279548 -0.049255833 0.008606973 0.06692322
000320 31 a3 0d 3e 20 af ae 3d 83 62 5b bc e5 6c 34 3c
       0.13831784 0.08529496 -0.013390186 0.011012291
000330 c7 c2 a1 3d b1 67 47 3c f3 ec d8 3d 8f 10 77 3d
       0.07898479 0.012170718 0.105920695 0.060318526
000340 70 eb d4 3d d1 b7 39 3d b8 64 af 3d d2 12 04 3d
       0.10396469 0.045341317 0.085641325 0.03224451
000350 fa 3d 0f 3e 65 72 8f 3d c9 d4 7d 3d c1 b8 c9 3d
       0.13988486 0.07004241 0.061970506 0.09849692
000360 7d ca 96 bc da b6 19 3d 7f 8c b0 3c 57 74 7f bd
       -0.0184071 0.037527896 0.021551369 -0.06236681
000370 61 31 e9 bc d8 82 5f bd 1d 18 0f be 13 34 62 bd
       -0.028465929 -0.05456814 -0.13974042 -0.055225443
000380 0c e6 be bd 1b e9 01 be 9c eb 10 be 6a e4 66 bd
       -0.09321222 -0.12686579 -0.14152378 -0.056370176
000390 f1 04 06 be ef 0c c1 bd 37 8d 5a be 79 c5 f2 bd
       -0.13087822 -0.09426295 -0.21342932 -0.11854071
0003a0 34 10 8e bd c0 89 c4 bd ee 6c 38 be bf 36 88 bd
       -0.06936684 -0.09596586 -0.18010303 -0.06651067
0003b0 7c bc 40 be 0f ba cf bd c8 e7 f1 bb aa 0c 18 be
       -0.18821901 -0.1014291 -0.007382367 -0.14848581
0003c0 1f d3 b2 bd 4a d0 1c be 13 55 0c be 92 60 9f bd
       -0.087316744 -0.15313831 -0.13704328 -0.07782091
0003d0 1f 32 0a be ff f2 e0 bd 07 1c 3f be dd b2 d1 bd
       -0.13495682 -0.10983848 -0.18663035 -0.102391936
0003e0 3b 6b 12 be ec 11 2b be 6e dd 06 be 54 34 e0 bd
       -0.14298718 -0.16706055 -0.13170406 -0.10947481
0003f0 0a f3 b0 3c 65 26 34 3d d1 fb 0a 3e dd 1a de 3d
       0.021600265 0.04398193 0.13572623 0.108449675

encoder.3.bias f4 [8]
000000 f3 a2 63 3d 89 53 07 3c ae 22 34 bc dc ac 26 3d
       0.055575322 0.008259662 -0.010994596 0.040692195
000010 41 df e7 3d f2 7e a4 3d b0 cd a3 3d 9f 68 43 3d
       0.11321879 0.080320254 0.07998216 0.047707196

decoder.0.weight f4 [8, 16, 3, 3]
000000 8e e4 e8 bc 25 af 3f 3b b2 be d8 bc 57 c3 28 bd
       -0.028429296 0.0029248681 -0.026458118 -0.041201916
000010 43 df c0 3b 5e ca 54 3d 83 b9 3c 3a 4a 4c b2 3d
       0.00588599 0.051950805 0.0007199274 0.08705957
000020 b6 81 9b 3c 7c 08 ad 3d b3 d2 66 b8 5d da e9 3d
       0.01898275 0.08448884 -5.5032502e-05 0.114186026
000030 f7 fb 09 b0 06 37 53 3e 15 62 2d ba 70 8d cd 3d
       -5.0198373e-10 0.20626459 -0.00066140416 0.10036743
000040 4f ef 65 b7 b9 fe 03 3e 25 b1 b1 2e 95 71 2c b7
       -1.3705182e-05 0.12890138 8.080495e-11 -1.0278444e-05
000050 e2 ad 38 b7 d4 5a 01 3e 20 15 cd 3d 9c c6 4a 3d
       -1.100774e-05 0.12632304 0.10013795 0.049505815
000060 23 d5 a1 2f 76 32 9a bb 1c 91 77 ba 8e 70 6b 3d
       2.9437172e-10 -0.0047057224 -0.0009443925 0.057480387
000070 90 46 10 3e ab 91 a3 bc f3 55 00 3e 48 ca 31 bc
       0.14089417 -0.01996692 0.12532787 -0.01085145
000080 2e c7 83 3d 6b a5 b8 3d 38 a4 f5 3d d3 2f ea 3d
       0.06434475 0.09015926 0.11994213 0.11434903
000090 d0 99 6c 3d 9d 10 77 3d a8 c1 1b 3d e8 d7 44 bd
       0.057763875 0.060318578 0.038026482 -0.048057467
0000a0 e4 a2 05 2f 2e 66 b0 3c 01 0e b0 3c a6 5e 69 3b
       1.215415e-10 0.021533098 0.021491053 0.0035609393
0000b0 1a 9e c0 3d 2d 98 75 3d 46 6a 9f 3d d3 e9 fa 3d
       0.094051555 0.05995958 0.07783942 0.1225163
0000c0 10 c5 c9 3d a5 69 9d 3d 91 82 21 3d 8e 39 1f 3e
       0.0985204 0.07686166 0.03943116 0.15549299
0000d0 2b e2 1d 3d 24 a7 d5 3d bf 47 61 3d 28 68 1f 3d
       0.03854577 0.1043227 0.055000063 0.03891769
0000e0 1e 32 90 bc 9e ac 23 3d 5e 66 db 3d 9e 06 85 3d
       -0.017602023 0.039959542 0.10712884 0.06495403
0000f0 78 4e 92 3d 8b 1c 58 3d 3f 91 e7 3c 05 8d f6 bb
       0.07143873 0.052761596 0.0282675 -0.007524135
000100 89 aa 01 3e 20 09 d5 bc 84 ad aa 3d 77 4b 9b 2a
       0.1266271 -0.026005328 0.08333877 2.7585895e-13
000110 24 15 01 3d d9 4f 4b bc 8a 49 08 3e 98 bc 7e bc
       0.031514302 -0.012409174 0.13309303 -0.015547894
000120 89 6d d0 3d 94 99 88 3d 6f b8 d7 3d 35 bf db 3d
       0.10177142 0.06669918 0.10533225 0.10729829
000130 38 91 db 3d 33 2a 55 3d b8 23 80 3d c5 3c 1e 3e
       0.10721058 0.052042197 0.06256813 0.15452869
000140 54 8d c4 3d 64 1a 81 3b 16 8f a7 3d c8 36 18 bc
       0.09597269 0.0039399136 0.08181588 -0.009290405
000150 7b 9f 56 3d b4 f1 b3 3d 96 3f b4 38 bf 71 89 3d
       0.052398186 0.087863356 8.594913e-05 0.067111485
000160 96 67 3f 3d d0 b7 83 3d ee 23 0c bc 8a cc 6d 3d
       0.046729647 0.06431544 -0.008553488 0.05805639
000170 71 fe 2f bd 90 b0 0b 3e 33 1f 6f b0 dc 12 fb 3d
       -0.042967264 0.13641572 -8.699203e-10 0.122594565
000180 13 20 1d 3d b1 0a e8 3d c9 49 2d bd 40 c4 d5 3d
       0.038360666 0.11330164 -0.042306695 0.10437822
000190 98 62 49 33 7d ae 89 3d e5 81 1c 3e 91 67 2b 3e
       4.688863e-08 0.06722734 0.15283926 0.16738726
0001a0 1b 58 c8 3d ce 0a 67 3d be 85 49 ba 0f 76 51 3c
       0.0978243 0.05640679 -0.00076874706 0.012784495
0001b0 82 ce ce 3d 11 b5 0b 3e ff a7 a4 3d d4 2f fc 3d
       0.10097982 0.1364329 0.08039855 0.1231381
0001c0 61 51 c7 3d ac 7b f4 3d e3 ea 03 3e 23 7e 10 3e
       0.09732319 0.11937651 0.12882571 0.14110617
0001d0 47 34 81 3d 13 25 c7 ad 0d 11 67 30 63 ea 28 b8
       0.06308799 -2.2640145e-11 8.406154e-10 -4.027261e-05
0001e0 d8 18 20 3e cd 20 5f 3e a2 4e 8a 3d ee d5 37 af
       0.15634477 0.21789856 0.06753279 -1.6719756e-10
0001f0 a4 f8 7b ae c4 0d ca b8 63 ce fc 3b 10 c0 b8 3d
       -5.729163e-11 -9.634675e-05 0.007715033 0.09021008
000200 4e da 65 3d 66 15 9d 3d 51 ce 12 3e 77 c0 84 3d
       0.056116395 0.07670097 0.14336516 0.06482022
000210 63 3e c4 3d 84 af 42 3d ec a4 d3 3b 19 89 46 3d
       0.09582212 0.047530666 0.006458869 0.04847059
000220 cd de 1c 3d 4f 0d b1 3d ef 90 13 3e 57 b9 1a bc
       0.038298417 0.086451165 0.14410757 -0.0094436025
000230 12 44 5d 3d b7 2c 8d 3d ca 94 22 3d a8 eb 98 3d
       0.054019995 0.06893294 0.039692678 0.07466823
000240 e9 7e 7d 3d db 46 78 3d 91 74 37 3d 47 16 66 bb
       0.06188861 0.060614448 0.0447889 -0.0035108493
000250 8b 9b c4 3b 85 9e 37 bc b6 5b 14 3d 2f 33 23 3d
       0.0059999875 -0.011207228 0.036220275 0.039843734
000260 dc eb 40 3d 0f 29 28 3e 02 87 0c bb fb 66 97 3d
       0.047099933 0.16421913 -0.0021442776 0.07392689
000270 dc b9 9b b8 33 b8 c0 3d a4 e3 64 b1 c0 bc ec 3d
       -7.425595e-05 0.09410133 -3.3307765e-09 0.11559439
000280 f2 da eb af 30 3c de 3c c9 34 6a 33 b6 8e 15 bc
       -4.290182e-10 0.027128309 5.453038e-08 -0.009128263
000290 24 21 8a 33 16 85 9a 3d 1a 9a 81 3d ae 83 23 3d
       6.432154e-08 0.075449154 0.06328221 0.0399205
0002a0 6e 58 e4 ae 83 8e 5c 32 8e c6 d2 2e 77 01 75 3d
       -1.0383948e-10 1.2838089e-08 9.584965e-11 0.05981585
0002b0 c9 62 7a 3d 3b 3a 8f 3d 09 0d 08 3e 9b 9f 45 bd
       0.061129365 0.069935285 0.13286223 -0.048247915
0002c0 65 10 8c 3d 80 95 eb 3d 8d 4a e1 3d ce fe 4c 3d
       0.068390645 0.11503124 0.110005476 0.05004769
0002d0 02 bc 47 3d 23 61 6f 3d 61 e1 09 3d c4 23 02 bd
       0.048763283 0.058442246 0.033662204 -0.03177239
0002e0 04 af a9 b1 e0 91 0d bc ed 93 91 3c 93 f4 01 3e
       -4.9384443e-09 -0.008640736 0.017770732 0.12690954
0002f0 99 a4 27 3d 21 a8 e7 3d 3b e8 ec 3d 04 4e 29 3e
       0.040928457 0.11311365 0.11567732 0.16533667
000300 73 67 02 3d 4b 7a c9 3d b6 c8 d8 3d 92 a5 6e 3d
       0.031836938 0.09837779 0.105851576 0.05826337
000310 b5 f0 ca 3d a2 25 1b 3e 07 3a 8e bd d2 a3 e0 3c
       0.099091925 0.15151075 -0.069446616 0.027421866
000320 da 3e ff 3c a1 2c c0 3d ea e7 0f 3e f8 9d 0b 3d
       0.0311579 0.09383512 0.14053312 0.034086198
000330 81 a5 d7 3c d2 be a3 3d 59 34 9a 3d 23 c3 87 bc
       0.026324036 0.079953805 0.07529516 -0.01657254
000340 26 88 f9 3d 29 77 2b bd 33 2c a4 3d ac 8d 66 30
       0.121841714 -0.041861687 0.08016243 8.387484e-10
000350 48 50 a9 3d 12 8b 72 bc 73 e5 f0 3d 45 5b 8d bc
       0.082672656 -0.014803665 0.11762514 -0.017255435
000360 f2 65 68 3c 52 41 c0 3d f0 07 50 bc b2 61 bb 3d
       0.014184462 0.09387459 -0.012697205 0.09149493
000370 aa 87 31 3e 1e 17 81 3c a9 5f 79 3c 38 16 c3 3b
       0.17336908 0.015758093 0.015220561 0.0059535764
000380 29 9b a6 3d 39 85 f3 37 cc 5c 8f 3d 3b b9 f2 3d
       0.08135063 2.9029894e-05 0.070001215 0.11851736
000390 64 dd 24 bc fb 76 0f 3e 11 80 a7 3c 02 a6 74 3d
       -0.010062549 0.14010231 0.020446809 0.05972863
0003a0 08 3b c5 3d 90 a6 87 3d e5 36 a5 bd 8e f9 88 3d
       0.096304 0.06623566 -0.08067111 0.06688224
0003b0 f4 b6 5b 3d f3 71 0d 3e 86 72 03 b5 c3 b7 e3 3c
       0.053641275 0.13813 -4.8967956e-07 0.027797585
0003c0 13 0e 35 3b 90 b8 b1 3d 6b 2d 3a 3d 7e c3 ee 3c
       0.0027626797 0.08677781 0.04545347 0.029145952
0003d0 17 8c 15 b7 92 f4 ac 3d d3 27 f9 3d 45 f2 23 3d
       -8.913709e-06 0.084450856 0.12165799 0.040025968
0003e0 e6 d5 ef 3d 5a 70 16 3d 47 15 29 b4 31 ec 9c 3d
       0.1171072 0.03672824 -1.5747092e-07 0.076622374
0003f0 ff 59 2f 3c d2 e0 a0 3d c6 8b 00 bd c0 8d 5f 3d
       0.010702609 0.07855381 -0.0313833 0.054578543

decoder.0.bias f4 [16]
000000 07 49 26 3c 44 a7 d5 3c fa 28 89 3d fe 81 aa 3d
       0.010149247 0.026080735 0.06697269 0.08325575
000010 f7 61 bc bc 69 35 ab 3c ee 0e 05 3c b8 b6 07 bd
       -0.022995932 0.020899491 0.008121235 -0.03313324
000020 50 05 d0 3d b3 e9 ae 3d c4 32 9f bb 24 73 35 3d
       0.10157263 0.08540668 -0.0048583467 0.04429926
000030 9f 8b f4 bb a2 dd 14 bc 11 b8 45 bc 89 79 23 3d
       -0.007462933 -0.0090860445 -0.012067811 0.039910827

decoder.2.weight f4 [16, 8, 5, 5]
000000 96 e1 a6 bc 30 eb 51 bc 36 c5 ab bc 4b bd 21 bd
       -0.02037124 -0.012812421 -0.020968061 -0.039487164
000010 59 b4 26 bd 05 24 89 bc 1e bd 1f bc 54 b4 8b ba
       -0.040699337 -0.016740808 -0.009749679 -0.00106586
000020 30 4d e6 3b aa 85 06 bc 08 db 60 bc be c6 bc bc
       0.0070282444 -0.008210579 -0.013724096 -0.023043986
000030 ae a7 77 bc 51 97 06 bd 64 f5 a1 bc 5c 8c 44 bd
       -0.015115662 -0.03285915 -0.019770332 -0.04798542
000040 55 9a db bc 58 69 a8 bc 55 f5 aa bc cf 16 9e bc
       -0.02680699 -0.020558044 -0.020868937 -0.019297985
000050 74 e4 a6 bc 12 74 1e bc bd 12 18 bc 25 48 04 bc
       -0.020372607 -0.009671228 -0.009281811 -0.008073841
000060 91 87 fd bb 40 a2 02 3d 87 b0 65 3c 69 3a 85 3c
       -0.007737108 0.031893015 0.014019138 0.016263204
000070 b3 05 38 3b 5d 1d 38 bc d2 63 8b 3b 16 9f 9b 3c
       0.002807957 -0.0112374695 0.004253843 0.018996757
000080 9c 7e b1 3c f8 09 74 bc e7 e7 66 3a 00 6f 2f bc
       0.021666817 -0.014894955 0.000880836 -0.010707617
000090 81 2f 8b 3c fe fd 3b 3d 95 19 2c bc 27 ce 0a 3d
       0.016990425 0.045896523 -0.010504146 0.03388801
0000a0 1e 42 f6 bb d9 a7 63 3b da b6 17 bd 59 8b 64 3b
       -0.007515206 0.0034737496 -0.037039615 0.0034873097
0000b0 ce 34 1b 3c 1c 41 d7 3c 6b 75 f2 3c e2 ed ed 3c
       0.009473039 0.026276164 0.029597005 0.029044095
0000c0 2c ab 9a 3c 48 87 8c 3b 46 0b 95 3d 43 aa 88 3d
       0.01888045 0.0042885877 0.07277541 0.066731
0000d0 a3 81 32 3e 68 af 9e 3d 6e 32 84 3d 60 45 f6 3d
       0.17432265 0.077483 0.06454931 0.12024951
0000e0 0a a0 a5 3d 09 88 2f 3e 26 0a 08 3d cd 15 bb 3d
       0.08087166 0.17141737 0.033212803 0.091350175
0000f0 fd 1d 3c 3e f1 2a 35 3e b3 65 33 3e 42 6a 38 3e
       0.18370815 0.17692162 0.17519264 0.18009284
000100 04 cc 40 3e 97 f4 b1 3d b6 97 8e 3d 0d cb 36 3e
       0.18827826 0.0868923 0.0696253 0.17850895
000110 77 29 99 3d ad 8e c8 3d 19 57 e2 3d 88 2b 5b 3d
       0.07478612 0.09792838 0.11051769 0.05350831
000120 01 f1 3e 3e 37 c7 63 3d a3 7b 8f 3d ab b0 6d ad
       0.18646623 0.055609908 0.07006004 -1.35111184e-11
000130 cc 36 35 af a6 aa 5e 2d 88 2d c1 ae 5f 21 d0 ae
       -1.6481322e-10 1.26571306e-11 -8.784712e-11 -9.464673e-11
000140 dd e0 95 bb 78 7f a6 bc 29 18 b0 bc 27 9f e6 bb
       -0.004573925 -0.020324454 -0.021495895 -0.0070380154
000150 d2 58 c9 3b 46 c1 02 2f 8b 9b a2 bc c3 87 a4 bc
       0.0061446214 1.1892096e-10 -0.01984956 -0.020084267
000160 7f 66 9e ae 52 d6 6f bc 5a cb 26 ae 37 d1 8d 2d
       -7.203215e-11 -0.0146385 -3.7924643e-11 1.6122754e-11
000170 8d 06 6f 2b a6 3c f2 2f 84 e4 6e ac 9a b5 97 3c
       8.491895e-13 4.4062637e-10 -3.3948686e-12 0.018519212
000180 ef 73 09 bd 13 28 1c 3c c5 d6 a0 bd ef ba b8 3b
       -0.03355783 0.009531039 -0.07853464 0.0056375186
000190 14 18 7a bd 12 7e 07 bd 98 50 8c bb 76 07 20 bd
       -0.06105812 -0.033079214 -0.0042820685 -0.039069615
0001a0 17 05 e5 bc cd 1b 0a bd 12 2e c9 bc ee f4 13 bd
       -0.027956529 -0.03371792 -0.0245581 -0.036122255
0001b0 e1 bf 8f 3b e2 5e a6 bc 7a 90 0d 2f b1 89 da bc
       0.0043868874 -0.020308916 1.2875204e-10 -0.026676985
0001c0 00 8c 0f bb 9b 61 a5 2c 79 91 ba bc c2 bc 59 bd
       -0.0021903515 4.7004184e-12 -0.022774445 -0.05315853
0001d0 5c 82 96 ba 85 48 2c bc e4 9b 4a bd 70 cc 2d 3c
       -0.0011482942 -0.010515337 -0.049465075 0.010607824
0001e0 f8 61 09 bd 51 4e 90 bc c5 9f 1d bc 0a af 14 bc
       -0.033540696 -0.01761547 -0.009620612 -0.009074936
0001f0 ab 89 16 bd 5b 0a 81 3c 75 25 a1 3d ef 71 1b 3e
       -0.036752384 0.015752008 0.078684725 0.15180181
000200 f5 bb a9 3d ff 19 88 3d 08 87 87 3d aa 27 a9 3d
       0.08287803 0.06645583 0.06617552 0.082595184
000210 ef c7 1d 3e 86 9a d9 3d 20 23 c2 3d e1 69 25 3e
       0.154083 0.10625176 0.09479356 0.16153671
000220 67 e2 30 3e b2 53 45 3e d7 4a 27 3e e7 57 2e 3e
       0.17273866 0.19270208 0.16337143 0.1702572
000230 7d 74 cc 3c 24 ae 62 3d 66 9c 18 3e d8 ba be 3d
       0.02495789 0.055341855 0.14903411 0.09312981
000240 71 58 08 3d ae a9 1b 3d 9c 62 20 3d 54 f7 1f 3e
       0.03328747 0.038003616 0.03915654 0.15621692
000250 b9 49 19 3d 90 94 55 3d 96 68 a5 3d 9f eb c0 3d
       0.037423823 0.052143633 0.08076589 0.09419941
000260 ec 07 0c 3e 64 68 38 3d 9d 00 bf 3d c0 3a a6 3d
       0.13674897 0.04502143 0.09326289 0.081166744
000270 13 1e 9c 3d 04 cb 0c 3e ee 87 84 3d 7c c0 76 3d
       0.07622924 0.1374932 0.06471239 0.06024216
000280 31 a7 f4 3d 75 df 12 3e 52 85 2f 3e 1d 5a f8 3d
       0.11945952 0.14343055 0.17140701 0.12126563
000290 2b bf 12 3e 93 be 84 3d 62 7d db 3c ed d5 df 3d
       0.14330737 0.06481662 0.026793186 0.10929475
0002a0 bb 3f 33 3d 7a eb e5 3c 7b 81 dc 3c 35 1f 21 3d
       0.04376195 0.028066386 0.02691721 0.039336402
0002b0 6d 0a 04 3e df 29 5f 3d 97 22 23 3d a1 74 f9 bc
       0.12894602 0.05448329 0.03982791 -0.03045112
0002c0 3d 8d 2c bc b7 4c 4b bc b8 36 08 bc 1a 90 04 bd
       -0.010531721 -0.012408427 -0.008313827 -0.03236399
0002d0 8e dd c3 bc 35 4c 90 3b 21 9a 12 3b e1 f6 b1 bc
       -0.023909356 0.004403616 0.00223697 -0.021724166
0002e0 89 90 10 bd 0b ea 4e bc 74 fb 08 3a fb ea 1f 3c
       -0.03529409 -0.012629042 0.0005225458 0.009760614
0002f0 70 eb 18 bc 10 62 96 ba 8b 60 17 bd 16 4c 2f bd
       -0.009333476 -0.0011473317 -0.036957305 -0.04279717
000300 c1 a9 27 bc 81 ae 7f bc 9f 02 35 bc c1 c3 49 bd
       -0.010233344 -0.01560557 -0.011047988 -0.04925895
000310 ce d9 22 bd 9e a3 f7 3b a6 be 9d bc 64 4f 34 bd
       -0.039758496 0.0075573465 -0.019255947 -0.044021025
000320 1c 6e 63 3d c7 72 49 bb 15 a9 c4 3d b1 b9 c9 bb
       0.05552493 -0.0030738579 0.09602562 -0.0061561693
000330 c5 3e 97 bc ea 02 55 3d c2 91 49 bb 52 4c c6 3c
       -0.018462548 0.052004732 -0.0030757044 0.024206314
000340 85 e9 12 bd 4d 94 3b bb 78 6e be 3d de 2c 86 3d
       -0.035867233 -0.002862233 0.09298414 0.065515265
000350 b7 77 b5 3d b7 6c ab 3d ef b3 37 3d 11 93 15 bc
       0.088607244 0.08370345 0.044849332 -0.009129302
000360 be 36 8f 3d ae ba 11 3e be 3e 34 3d 13 dd 35 3d
       0.06992863 0.14231369 0.044005148 0.044400286
000370 a7 a1 98 3c 21 88 76 bb 3e c1 8c 3d 09 bc 66 3d
       0.01863177 -0.003761776 0.068727955 0.056331668
000380 56 67 89 ba ab b8 75 bd 16 98 1b 3d ea a9 6d 3e
       -0.0010483067 -0.059990566 0.037986837 0.23209348
000390 56 8b be ba a2 ac 0f 3c 91 60 60 bc 1a ff dd 3d
       -0.0014537375 0.008769186 -0.013694898 0.108396724
0003a0 40 d1 48 3e e4 d9 dd 3d a6 b8 92 3d 44 f0 29 3e
       0.19611073 0.10832575 0.07164125 0.1659556
0003b0 5f d9 13 3e 96 06 26 3e 5e e0 2a 3e 05 cd 0e 3e
       0.14438389 0.1621345 0.16687152 0.13945396
0003c0 e2 5c 25 3d 19 45 4c 3d d3 4b 2c 3e fe 78 2f 3d
       0.040371783 0.049870584 0.168258 0.042839997
0003d0 53 21 7f 3c 15 1d e8 3b 18 87 e2 3d 2b 0a 70 3d
       0.01557191 0.007083545 0.11060923 0.058603447
0003e0 c3 3e 90 3d d9 4b a2 3d 50 c8 9f 3d 79 57 e0 3c
       0.07043221 0.07924623 0.078018785 0.02738546
0003f0 19 3c be 3c 0e 99 1f bd 3b 2f da 3d b6 e3 bc 3c
       0.023222016 -0.038964324 0.1065354 0.0230578

decoder.2.bias f4 [8]
000000 36 0a 4f bc c3 4d 2c bc e2 b7 43 3e 5c 42 aa bd
       -0.012636712 -0.010516587 0.19113114 -0.08313438
000010 be ec 97 bd 9d 97 e0 3c c3 e4 95 3d 6b f7 06 bd
       -0.07418202 0.027416045 0.073190235 -0.0329508

decoder.4.weight f4 [8, 3, 2, 2]
000000 ae 85 76 3e 83 00 47 3e eb 56 06 3c 5e 74 54 3e
       0.24074432 0.19433789 0.008199434 0.20747516
000010 fd 81 75 3e 2d 3e d3 3e 08 37 e6 bd b4 67 b4 3e
       0.23975368 0.41258374 -0.11240965 0.3523537
000020 72 dd 73 3e 3b 32 ab bb 95 eb 08 bc 94 fb 81 3e
       0.23814943 -0.005224494 -0.008356948 0.2538725
000030 ac b2 92 3e 77 53 f1 3d ee 0c a8 3e 17 e1 d1 3d
       0.2865194 0.11783498 0.32822365 0.102480106
000040 0a 90 7c 3d f3 77 f1 bd 69 65 06 3e 90 88 a1 3a
       0.061660804 -0.117904566 0.13124622 0.0012324024
000050 5d 95 4f 3e 2a c2 33 3e 42 90 89 3d 6f 45 db 3d
       0.20271821 0.17554536 0.06716968 0.10706603
000060 5e 5c ce be d4 80 79 be e9 45 a0 be f9 45 c2 be
       -0.40304846 -0.2436555 -0.31303337 -0.3794401
000070 56 fd e5 be 78 ce 7d be b0 19 83 be 13 0a 81 be
       -0.44919842 -0.24785793 -0.25605536 -0.25203
000080 9d 75 75 be 8f 41 bf be 56 72 cc be ba ed 8c be
       -0.23970647 -0.37354705 -0.3993098 -0.2752512
000090 2d 44 a6 3d 4b 94 cc bc 1d fa 15 3e 0f 3c 36 be
       0.08118472 -0.024973055 0.14646192 -0.17796348
0000a0 5d d9 00 be 1b c0 7e 3e 51 1a 25 be 25 4f 4a be
       -0.12582918 0.2487797 -0.1612332 -0.19756754
0000b0 fc b6 4e 3b b3 ae d8 3b 18 75 9f be 8b 09 ba bd
       0.0031542173 0.0066126226 -0.31144023 -0.090838514
0000c0 46 6a 30 3e fb f1 95 bd 5c 4d e9 3c c3 82 02 3e
       0.1722804 -0.07321545 0.02847927 0.12745194
0000d0 c2 3f b2 3e c8 c3 82 bc 27 b6 99 bd 9d f7 17 be
       0.34814268 -0.015962496 -0.07505446 -0.1484055
0000e0 80 93 ca 3d b2 d9 b0 3d 7d 4b c0 3e 1b 71 25 3e
       0.09891415 0.08635272 0.37557593 0.16156428
0000f0 ab df 53 be 2d b8 aa bd 03 24 9e 3d 30 31 48 bd
       -0.20690791 -0.0833591 0.077217124 -0.048875034
000100 26 bd b3 3d 0f 8f 2c be 73 07 82 bd 4c 63 25 be
       0.087763116 -0.16851448 -0.06349077 -0.1615116
000110 61 ff 83 be 88 c0 68 3b 8c 20 77 bd b5 be 0e be
       -0.25780776 0.0035515148 -0.060333773 -0.13939936
000120 89 84 04 3e 98 57 26 be 91 27 97 be 26 ab 92 3b
       0.12941183 -0.16244352 -0.29522374 0.004475969
000130 21 b8 f4 bd 31 60 17 bb d1 c0 4c be 96 86 b9 bd
       -0.11949182 -0.0023098106 -0.19995429 -0.09058873
000140 62 07 0b be 5e 82 30 be ab 12 a5 bd 83 fe 26 be
       -0.13577035 -0.17237231 -0.08060201 -0.16308026
000150 81 db 0b bd 9a 38 4f 3e a3 fb 01 be ae 0c 5c 3d
       -0.034144882 0.20236436 -0.12693648 0.05372303
000160 19 be a3 3c 38 c0 29 3e df 3f 0f 3e 20 32 7a 3e
       0.019988107 0.16577232 0.13989209 0.24433184
000170 cb b6 29 3e 72 54 dd bc 80 ae 7b 3e 63 fd 09 3e
       0.16573636 -0.027017806 0.24578285 0.13475566

decoder.4.bias f4 [3]
000000 f8 68 6e 3e 3d f4 96 3e a1 a9 6f 3e
       0.2328223 0.29483214 0.23404552
